githubproject/lbdd/amse_build/mmodel11/muta_checkpoints/fold_0/model_0/model.pt (torch, 713419 bytes, 8 tensors)

encoder.encoder.0.cached_zero_vector f4 [200]
00000000: 0000 0000 0000 0000 0000 0000 0000 0000
00000010: 0000 0000 0000 0000 0000 0000 0000 0000
00000020: 0000 0000 0000 0000 0000 0000 0000 0000
00000030: 0000 0000 0000 0000 0000 0000 0000 0000
00000040: 0000 0000 0000 0000 0000 0000 0000 0000
00000050: 0000 0000 0000 0000 0000 0000 0000 0000
00000060: 0000 0000 0000 0000 0000 0000 0000 0000
00000070: 0000 0000 0000 0000 0000 0000 0000 0000
00000080: 0000 0000 0000 0000 0000 0000 0000 0000
00000090: 0000 0000 0000 0000 0000 0000 0000 0000
000000a0: 0000 0000 0000 0000 0000 0000 0000 0000
000000b0: 0000 0000 0000 0000 0000 0000 0000 0000
000000c0: 0000 0000 0000 0000 0000 0000 0000 0000
000000d0: 0000 0000 0000 0000 0000 0000 0000 0000
000000e0: 0000 0000 0000 0000 0000 0000 0000 0000
000000f0: 0000 0000 0000 0000 0000 0000 0000 0000
00000100: 0000 0000 0000 0000 0000 0000 0000 0000
00000110: 0000 0000 0000 0000 0000 0000 0000 0000
00000120: 0000 0000 0000 0000 0000 0000 0000 0000
00000130: 0000 0000 0000 0000 0000 0000 0000 0000
00000140: 0000 0000 0000 0000 0000 0000 0000 0000
00000150: 0000 0000 0000 0000 0000 0000 0000 0000
00000160: 0000 0000 0000 0000 0000 0000 0000 0000
00000170: 0000 0000 0000 0000 0000 0000 0000 0000
00000180: 0000 0000 0000 0000 0000 0000 0000 0000
00000190: 0000 0000 0000 0000 0000 0000 0000 0000
000001a0: 0000 0000 0000 0000 0000 0000 0000 0000
000001b0: 0000 0000 0000 0000 0000 0000 0000 0000
000001c0: 0000 0000 0000 0000 0000 0000 0000 0000
000001d0: 0000 0000 0000 0000 0000 0000 0000 0000
000001e0: 0000 0000 0000 0000 0000 0000 0000 0000
000001f0: 0000 0000 0000 0000 0000 0000 0000 0000
00000200: 0000 0000 0000 0000 0000 0000 0000 0000
00000210: 0000 0000 0000 0000 0000 0000 0000 0000
00000220: 0000 0000 0000 0000 0000 0000 0000 0000
00000230: 0000 0000 0000 0000 0000 0000 0000 0000
00000240: 0000 0000 0000 0000 0000 0000 0000 0000
00000250: 0000 0000 0000 0000 0000 0000 0000 0000
00000260: 0000 0000 0000 0000 0000 0000 0000 0000
00000270: 0000 0000 0000 0000 0000 0000 0000 0000
00000280: 0000 0000 0000 0000 0000 0000 0000 0000
00000290: 0000 0000 0000 0000 0000 0000 0000 0000
000002a0: 0000 0000 0000 0000 0000 0000 0000 0000
000002b0: 0000 0000 0000 0000 0000 0000 0000 0000
000002c0: 0000 0000 0000 0000 0000 0000 0000 0000
000002d0: 0000 0000 0000 0000 0000 0000 0000 0000
000002e0: 0000 0000 0000 0000 0000 0000 0000 0000
000002f0: 0000 0000 0000 0000 0000 0000 0000 0000
00000300: 0000 0000 0000 0000 0000 0000 0000 0000
00000310: 0000 0000 0000 0000 0000 0000 0000 0000
0.0 0.0 0.0 0.0 0.0 0.0 0.0 0.0
0.0 0.0 0.0 0.0 0.0 0.0 0.0 0.0
0.0 0.0 0.0 0.0 0.0 0.0 0.0 0.0
0.0 0.0 0.0 0.0 0.0 0.0 0.0 0.0
0.0 0.0 0.0 0.0 0.0 0.0 0.0 0.0
0.0 0.0 0.0 0.0 0.0 0.0 0.0 0.0
0.0 0.0 0.0 0.0 0.0 0.0 0.0 0.0
0.0 0.0 0.0 0.0 0.0 0.0 0.0 0.0
0.0 0.0 0.0 0.0 0.0 0.0 0.0 0.0
0.0 0.0 0.0 0.0 0.0 0.0 0.0 0.0
0.0 0.0 0.0 0.0 0.0 0.0 0.0 0.0
0.0 0.0 0.0 0.0 0.0 0.0 0.0 0.0
0.0 0.0 0.0 0.0 0.0 0.0 0.0 0.0
0.0 0.0 0.0 0.0 0.0 0.0 0.0 0.0
0.0 0.0 0.0 0.0 0.0 0.0 0.0 0.0
0.0 0.0 0.0 0.0 0.0 0.0 0.0 0.0
0.0 0.0 0.0 0.0 0.0 0.0 0.0 0.0
0.0 0.0 0.0 0.0 0.0 0.0 0.0 0.0
0.0 0.0 0.0 0.0 0.0 0.0 0.0 0.0
0.0 0.0 0.0 0.0 0.0 0.0 0.0 0.0
0.0 0.0 0.0 0.0 0.0 0.0 0.0 0.0
0.0 0.0 0.0 0.0 0.0 0.0 0.0 0.0
0.0 0.0 0.0 0.0 0.0 0.0 0.0 0.0
0.0 0.0 0.0 0.0 0.0 0.0 0.0 0.0
0.0 0.0 0.0 0.0 0.0 0.0 0.0 0.0

encoder.encoder.0.W_i.weight f4 [200, 147]
00000000: 0c54 503d de0c a1bd c021 c9bd d5e2 a43d
00000010: ffc3 42bd 81ca 07be af59 463e 49b8 55bd
00000020: 67a2 a03b a8a1 c83d abeb d7bc 8b6f 85bc
00000030: 9230 a13d 180f 81be 5624 323d c097 99bd
00000040: a22a 2dbd 07e8 af3b d1bb 713d 7347 8abd
00000050: 3406 393c e4c3 09be 9730 7ebd d7eb ccbc
00000060: b9f7 e3bd be5f 7f3d f864 a93d c943 a53b
00000070: d733 d13d 233d 09bd 6e93 9d3c aa9d 5abd
00000080: 7ab7 fe3c d7d5 5a3e cae9 48bd 1dfb 99bd
00000090: 7121 753d 63db 843d 7eaf 8fbd 31d8 973d
000000a0: ad98 3fbd c067 133b 69eb 7ebd aad2 ce3d
000000b0: c8d3 d83c e569 053e eaa1 21be 68ec 88bc
000000c0: 1ade 373e c5de b93c ab66 383e 8d8b de3b
000000d0: 4058 cabc d3d0 a83d d90d a53d ebe2 533c
000000e0: 48bd 2fbd 6c8c 35bd e0e1 73bb bd09 cb3b
000000f0: 2157 acbd 7d45 7c3d 4817 943d 1dca 8ebd
00000100: 8024 fd3d 7086 d13c f3c2 2c3c df78 c73d
00000110: f848 bcbb e894 12bc 141c 0a3d 0581 a63d
00000120: 3169 b3bd 37d6 06bd 3511 613c dde2 cfbc
00000130: 91d8 8c3a a62f d6ba 5da2 98bc dbe8 dbbd
00000140: 2377 aa3c 5b64 06be 25fc 613d c619 8cbd
00000150: 93e7 fb3d a240 033e 5b14 42bc b370 2a3d
00000160: ff9c 363d 6a86 203b 2e56 2d3d 83f8 d93d
00000170: 03b0 61bd 0108 07be 309c 24bd 2f16 3abe
00000180: 8b80 50ba ddb5 babc 068b 48bd 708b e63a
00000190: 3dbc 1239 156d c93d 8a1e 45bd 3afb 873d
000001a0: 340b 433d 91a5 803c 7739 54bd 2d6f 9fbd
000001b0: 8b62 c13c ec07 613d fc3b b53d 9fca 7b3d
000001c0: 5ce0 52bd 8611 f2bd 9859 66bd 10fe 3a3e
000001d0: bc5b 623d a83a 13bd a260 84bd 2da0 c4bd
000001e0: fcf6 a63c 1117 7bbd 69dd 36bd 81b2 19bd
000001f0: b7ed c4bc 48a5 0a3e 55a9 66bd b310 f73c
00000200: 01fe 1abd 896d 843c 7470 88bd c8ab cdbd
00000210: 630e e73c 1e68 5d3d 9f0e a63d dea6 cb3c
00000220: fd14 87bd 7d55 33be 5dc7 9e3c 301a e8bd
00000230: 1bf3 8c3d 1903 153d a1cd 12be b438 0c3e
00000240: 8d40 4ebd 4ca3 44bd 8add ac3d df1f c7bc
00000250: 9131 263d 6aa1 8fbd 1902 73bc 4422 a6bd
00000260: 1760 1ebe 98d2 613e 11b3 2a3c 8dfa 003e
00000270: 2b9d 913d ad00 b5bc f48e df3d 9bd1 133d
00000280: 0441 20bd b12e b4bd 719d 79bc 33bd 9e3d
00000290: fb2a 0abd 7c5b ffbd 02df 253e fa4e 9e3d
000002a0: ac4c 65bc 8b2b 3b3d 3f56 f5bd 7ec4 d93c
000002b0: aa83 f4bd ee51 233e 6987 283e 3d8c 083d
000002c0: e7f9 f03d 6d74 2a3e fc44 1a39 3bd9 2dbd
000002d0: b75c 8e3d 5e17 8abd fa4e 85ba 505d 22be
000002e0: a59c 9e3d c226 153d 6ae5 c5bd e74e 7c3d
000002f0: aa9a aa3d 5266 a83d 92d1 cabd e54f d8bc
00000300: e5bf 0c3d 8129 1cbd 709d debc 9393 613d
00000310: 92fe 7b3d 8be5 9bbd 141f e73d 7774 a03d
00000320: dc0d 2a3e 8c02 d93c ea6f d9bb 7109 253c
00000330: 3f2e 923d 1c93 8a3d bb6d 8ebd 6525 a23d
00000340: 883a 763c 029f 53bd 51f3 8fbd f3f0 7cbd
00000350: e63a 043d a963 093c 7e43 c53d 9fbc a6bc
00000360: 0d35 9ebd 6877 d23c 8be9 dbbc b411 ccbc
00000370: 361d 343e c233 8cbc d287 b13c d6c4 473c
00000380: dc8b c4bc 604d ed3d 84c8 94bc 0348 6a3d
00000390: 9ccc 11bd a4cb 8dbd ea71 583b 2f52 8fbd
000003a0: 8289 7abd 3669 b43c 2df2 093e 0782 02bc
000003b0: 4a68 f33d 5624 753b ba27 80bd 704a 883d
000003c0: e935 d93d 4eb1 b3bd cfe5 9d3c 7b41 bcbd
000003d0: 3802 cfbd f477 973d bc20 91bc cfa8 f73c
000003e0: 51d9 163e 26ed 743c 9ebf 16bd 048a f6bb
000003f0: eb26 11be 0850 0fbd 78cd 8bbd 0ea8 de3a
0.050861403 -0.07863782 -0.098208904 0.08051077 -0.047550198 -0.13260843 0.19370149 -0.0521777
0.0049021724 0.097964585 -0.026357492 -0.01628854 0.07870592 -0.25206828 0.043491684 -0.07499647
-0.042276986 0.005368236 0.059017006 -0.06751909 0.011292983 -0.13453633 -0.062058058 -0.025014801
-0.11131234 0.062347166 0.082712114 0.005043481 0.10214966 -0.03350557 0.019235339 -0.053373016
0.031093348 0.21370636 -0.049051084 -0.07518599 0.059846345 0.06487157 -0.07015894 0.07414282
-0.046776462 0.002249226 -0.062236223 0.10098775 0.026468173 0.13028677 -0.15784422 -0.01671429
0.17955819 0.022689233 0.18007915 0.006791538 -0.024700284 0.08242955 0.08059282 0.012932519
-0.042905122 -0.04432337 -0.003721349 0.0061962293 -0.08415056 0.061589707 0.07231003 -0.06972144
0.123604774 0.0255768 0.010544526 0.09739851 -0.0057460032 -0.008946635 0.033718184 0.08130077
-0.08760298 -0.032919135 0.013737013 -0.025376732 0.0010745694 -0.0016341105 -0.018632108 -0.10737773
0.020808762 -0.1312422 0.055172104 -0.068408534 0.12300029 0.12817624 -0.011845673 0.041611385
0.044583317 0.002449418 0.042318515 0.10643103 -0.0550995 -0.13186647 -0.040188015 -0.18172525
-0.00079537247 -0.022791797 -0.048960708 0.0017589163 0.00013993769 0.09835259 -0.048124827 0.066397145
0.047618106 0.015703948 -0.051812615 -0.07784877 0.02360656 0.054939196 0.08849332 0.06147253
-0.051483497 -0.118197486 -0.056237787 0.1826098 0.055263266 -0.03594461 -0.06463744 -0.096008636
0.020381443 -0.061301295 -0.044644747 -0.03752375 -0.024039133 0.13539612 -0.05631383 0.03015933
-0.037839893 0.016165512 -0.06662074 -0.1004253 0.028205102 0.054054372 0.081082575 0.024859842
-0.065958 -0.1751308 0.019382173 -0.1133312 0.06882306 0.036379907 -0.14336254 0.13693506
-0.05035453 -0.048007295 0.08440693 -0.02430719 0.040574614 -0.07013209 -0.014832043 -0.081120044
-0.15466343 0.22052991 0.010418669 0.12595578 0.071100555 -0.022095049 0.10915938 0.036088567
-0.039124504 -0.08797968 -0.015235291 0.07750931 -0.033732396 -0.12468621 0.16198352 0.07729907
-0.013995331 0.045695823 -0.11979341 0.026582953 -0.119391754 0.15949222 0.16457905 0.033336867
0.11766415 0.16645975 0.00014712283 -0.042443495 0.06951278 -0.06742738 -0.0010170632 -0.15855908
0.07744721 0.036413915 -0.09662898 0.061598685 0.08330281 0.08222641 -0.099032536 -0.026405284
0.034362692 -0.03812552 -0.027174681 0.05507238 0.061522074 -0.07612141 0.112852246 0.07834714
0.1660685 0.026490472 -0.0066356556 0.010073052 0.07137727 0.0676634 -0.06954523 0.07917289
0.015028603 -0.051665314 -0.07028831 -0.061753225 0.032282732 0.008385577 0.09632014 -0.020353613
-0.077249624 0.025691703 -0.02684476 -0.024910785 0.17589268 -0.017114524 0.02167121 0.012192925
-0.023992471 0.11587024 -0.01816202 0.057197582 -0.03559552 -0.06923607 0.0033026882 -0.06998097
-0.061166294 0.022022825 0.13471289 -0.007965571 0.11885126 0.003740569 -0.06257577 0.06654823
0.10605986 -0.087740526 0.01927462 -0.09192177 -0.10107845 0.07395926 -0.017715804 0.030231861
0.14731337 0.014949119 -0.036803834 -0.007523777 -0.14175002 -0.034988433 -0.068262994 0.001698734

encoder.encoder.0.W_h.weight f4 [200, 200]
00000000: b35c ae3b e122 f43b 6606 f53c 3883 c93c
00000010: 76bd 5b3d 4268 0fbe 3b51 55bb 7f22 cd3d
00000020: 81d9 01be 0256 8cbd b825 2d3e 9d9e 43ba
00000030: 2bd0 6c3d 21f1 63bd 83ac 223d 297b 6abd
00000040: 20a4 31be 33a2 603e 5aa7 9bbc 7054 89bd
00000050: c7a0 27bc 06fa ddbd 7e7a 6d3d 688d c53b
00000060: e949 65bd 4690 083d 41ba 43be 7942 023e
00000070: 3e1e a53d e104 0ebe 9bbb dbbc 062d 803b
00000080: 8e16 89b8 0e1b 39bb 2b5a a8bc 8e5f 833b
00000090: b50f acbd 975c fdbc 5392 953d abad 90bc
000000a0: e8d3 78bd ed69 883b f8bc 9fbb 77d2 a43d
000000b0: c479 603e 26f6 99bd 979b f4bc 0e3d 1c3d
000000c0: 9943 943d 8de3 a13d 75c4 123d d628 f23b
000000d0: 3913 34be 6bfb e33d cafe 083d 96eb 733d
000000e0: 8519 44bc babe a9bc aef4 ebbd c70f 5abd
000000f0: ffd0 95bb d598 2b3e ed57 8a3c d606 2139
00000100: 4d8f 9e3b febd a23c fc03 00be ae61 e23d
00000110: 9528 ae3d 26c4 8ebc a941 f0bd beaf 0f3e
00000120: 506e 3a39 6a0f 063e 1b45 2fbd abbe 52bc
00000130: 35e8 ea3a 8591 eabd 003d e93d aee0 f0bc
00000140: 0bcc 00bd 8d37 81bc 7d71 ec3c 3320 dcbc
00000150: 7a10 0a3e 707a 88bd c973 f53c 025e cabd
00000160: 9e81 a1bb b231 8e3d de14 dc3a 60d6 d7bd
00000170: 8555 c43d 3e62 d43c f966 d23d f032 233d
00000180: 698e e4bc c1ea 323d d0ef 623b 7919 88bd
00000190: 7984 da3a bfed 753c 9fe9 fe3d 77d0 0dbc
000001a0: d0f3 8c3d 0482 a1bb ba57 383d 43eb 88be
000001b0: 272e 983d b9df bb3d 53dd c33b e6cc e63c
000001c0: 949d c8bc b27d dfbd c7d3 063d 8a16 efbd
000001d0: 8267 b2bb 78ae babd aba2 a63d 9c00 cfbd
000001e0: a4ec 913c 4e4f 12bd 971e a7bd 8d67 c9bc
000001f0: 42fc 1cb9 90a2 6abd eb76 3fbe 21d6 8f3d
00000200: 7780 d73d 37b5 fbbd c1f2 0abd a652 b5bd
00000210: ff18 7bbd 109d 93bd a282 c2bb b77a 8f3d
00000220: 8692 7b3d e6bb 0bbe f018 e83d a7bc f53d
00000230: 437a 8cbc fee7 0c3e 75e5 74bd 967e 003d
00000240: 92b7 2bbe 0c70 9e3d bf38 a5bb 9ed5 08bd
00000250: dbd8 a7bd b45d d0bd e7af 6dbd 4f9c fdbd
00000260: dbad a53d 0f30 6e3d 7429 513e 9b0b 3cbd
00000270: a943 e9bb e0e5 46bb 7519 03bc 7512 35bd
00000280: fde9 52bd 6c81 053d 7705 143a 36ec 0c3e
00000290: 43c8 e03b 17e6 8bbc 52ce 53be 9c8d 393d
000002a0: 972f 743d a660 e53c b0a3 83bd e450 053e
000002b0: 68d6 7fbd 6fc0 afbd 6b76 583d 1882 12be
000002c0: 7a41 c3bb 917b 393d acff a3bd a66a 2bbe
000002d0: 705f ff3b c8d1 c6bd 8f22 01be 32da dbbc
000002e0: 43ed 72bc 2378 1e3e bd1f dcbd 7caa c23b
000002f0: 1254 d9bd 6bf9 f5bd 0aad a5bd 5fc4 4d3c
00000300: f1ff 923d a616 3a3d ee89 25bb 5046 d9bd
00000310: ed1f f03c c0c5 11bb 982d dcbd b8ae 643e
00000320: dc47 053e c16d 933c c201 51bd 9a8f a03d
00000330: 3eb1 6fbd 7a5b 7e3b 9faf ccbc 99d4 6ebd
00000340: 2f95 ba3c 5302 f13c 2908 50bd a023 8b3c
00000350: 873c 29bd f73c 75bc 3e50 40bd 84d5 8cbd
00000360: 8045 7f3a eab6 15be b158 203d fa30 143c
00000370: b12b 0dbd f312 e93b 4733 143d 7987 5d3e
00000380: 9677 9ebd e089 e4bc 58bc 2bbe ae11 f93c
00000390: efd8 083d 14ae 263d fa2c d4bb f115 8e3d
000003a0: 981d 08be 6398 aebd 31f5 32bd 09e8 b93d
000003b0: 66f0 7b3d 695c d9bb 5e65 53bc ac7a b33c
000003c0: 19f1 c93d 2d9c 323e 004f e23c 1da5 483e
000003d0: 1dab 11bc e9b1 903b 9bb8 023e 1c77 093c
000003e0: 6afc 9fbd 199b d23c 05b1 6f3d fc2f fdbc
000003f0: 80a7 34bb fd58 03bd 4e04 993d 8fda dc3c
0.005321109 0.007450447 0.029910278 0.024598703 0.05364748 -0.14004615 -0.0032549638 0.10016345
-0.12680627 -0.06852342 0.1690892 -0.0007462295 0.057815712 -0.05564988 0.0397153 -0.05724636
-0.17347765 0.21936874 -0.019000698 -0.06705558 -0.010231203 -0.10838704 0.057978146 0.00602882
-0.05597869 0.033340715 -0.19114019 0.1272067 0.08062409 -0.13869049 -0.026822856 0.003911617
-6.53687e-05 -0.0028244886 -0.020550808 0.0040091937 -0.084014334 -0.03092794 0.073033 -0.017660936
-0.060748965 0.004163018 -0.0048748218 0.080479555 0.2192145 -0.07517652 -0.029859347 0.038144164
0.07239456 0.0790473 0.035831887 0.007390122 -0.17585458 0.111319385 0.03344611 0.059550844
-0.011968975 -0.020720828 -0.11521278 -0.053237703 -0.0045720334 0.1675752 0.01688763 0.00015356703
0.00483886 0.019865986 -0.1250152 0.11053787 0.08503834 -0.017427515 -0.11731274 0.14031884
0.00017779437 0.13091817 -0.042790513 -0.012862842 0.0017921986 -0.11453537 0.11388588 -0.02940401
-0.03144459 -0.015773559 0.02886271 -0.026870823 0.13482848 -0.06663978 0.029962437 -0.09881212
-0.0049287817 0.069430724 0.0016790887 -0.10538936 0.09586624 0.025925752 0.10273547 0.0398435
-0.027899938 0.04368091 0.0034627803 -0.066454835 0.001667156 0.015010296 0.124469034 -0.008655659
0.06882441 -0.004928829 0.045005538 -0.2674199 0.07430678 0.09173531 0.0059773116 0.028173875
-0.024489202 -0.10912646 0.03291681 -0.11674221 -0.005444468 -0.091153085 0.08136495 -0.10107538
0.017813034 -0.035720162 -0.081601314 -0.02458551 -0.00014971293 -0.057283938 -0.18697707 0.07023264
0.105225496 -0.12290423 -0.033922914 -0.088536546 -0.061303135 -0.07207692 -0.005935983 0.07005828
0.061419033 -0.13645896 0.113328815 0.11998873 -0.017148143 0.13760373 -0.05978914 0.03137072
-0.16769245 0.07736215 -0.005042165 -0.033406846 -0.08195659 -0.101741225 -0.05802908 -0.12383329
0.08089801 0.0581513 0.2042597 -0.045909505 -0.0071186614 -0.0030349419 -0.008001675 -0.044207055
-0.05149268 0.03259413 0.0005646566 0.13761982 0.0068598106 -0.017077489 -0.20684174 0.045301065
0.059615698 0.028000187 -0.06427705 0.13019139 -0.062460333 -0.08581626 0.052847307 -0.1430744
-0.005958733 0.045283858 -0.0800775 -0.16739902 0.0077933595 -0.09707981 -0.1261084 -0.026837442
-0.014827075 0.15475516 -0.10748241 0.0059407335 -0.10611738 -0.12010463 -0.08089645 0.012559026
0.07177723 0.045431755 -0.0025259214 -0.10609114 0.029312098 -0.0022243112 -0.10750884 0.22332275
0.13015693 0.01799667 -0.051027067 0.0783989 -0.05851864 0.0038811848 -0.024986086 -0.058308218
0.022776214 0.029420054 -0.050789032 0.01698476 -0.04131749 -0.014968148 -0.046951525 -0.068766624
0.00097378343 -0.14620557 0.039147083 0.00904488 -0.034465495 0.0071128546 0.036181714 0.2163371
-0.07737653 -0.027897775 -0.16771066 0.030403938 0.03341001 0.040693358 -0.006475088 0.06937779
-0.13292539 -0.08525159 -0.043690864 0.0907746 0.06150856 -0.0066333306 -0.012902586 0.02190908
0.09860439 0.17442389 0.02762556 0.19594236 -0.008890894 0.00441574 0.12765734 0.008390214
-0.07811816 0.025708722 0.05851843 -0.03090667 -0.0027565658 -0.032067288 0.07471524 0.026959686

encoder.encoder.0.W_o.weight f4 [200, 333]
00000000: 0695 94bd bf78 c23b add8 943c 79a9 4fbd
00000010: 1786 6bbd 521b adbd 3813 193d 2159 6bbc
00000020: ec29 313d e9ca ec3d 25ac 843d 8e12 b0bc
00000030: e2c8 103d 9c41 a93c 94c6 66bd 4722 df3b
00000040: d871 a1bd a711 30bd cf76 1abd 109d 473b
00000050: 260e 1cbc 2a16 03bc 9840 043d b2f9 a63d
00000060: 82c6 d8bc f8bd 86bc f13a b13c a9d7 96bd
00000070: 7ba6 15bd 3b0d f0bc daa3 ce3b a1d5 cd3d
00000080: e5a5 9f3b c23d e93d 3792 afbc 7ec2 e03c
00000090: d6e6 383d 4a81 00bd 23c6 65bd d7bd a63d
000000a0: feff 103c c40b 2ebd 876b 01be c320 8bbd
000000b0: fd26 a83d cb3a 7f3c 4015 a13c 933f 293d
000000c0: 9bd0 953c d6d2 2c3c aa55 dcbc ad5d 0dbe
000000d0: 31e4 20be e554 88bd 903a 533d c678 a33c
000000e0: ed30 75bc e903 863a e5b4 1fbb 532a 843d
000000f0: 88f4 b5bb 01ca f03d c04b 4e3c e985 1c3d
00000100: a3ef cc3c 8ea5 d73a 1b11 a0bd e02f d6bb
00000110: 8838 02bd 333a 41bd 3ef4 453c fd24 dabc
00000120: 329d 1dbc 78dc 96bd 86bb 81bd 7b2c 0a3c
00000130: 189d 9e3d e4ba be3d 08bf 1bbd f895 b63c
00000140: 9f92 243c d4c6 f5b7 0492 1bbd b8ff 62bd
00000150: b2f9 66bc 0ec8 103d ab2a da3d b27e c7bd
00000160: 878c 193c 9c2f 7cbd 5eb1 db3c f7cd 913d
00000170: 152f 103d 4735 46bc 244a a03c 3057 403d
00000180: 55aa aebd 8a77 523c 0752 c53c 662d 2a3d
00000190: a051 173d 3e60 9f3c b629 4dbd 06ac edbc
000001a0: 6d57 3abd b1b6 b0bc 2ebd 96bc 100e 17bb
000001b0: 5492 bcbd a01f 3abb be92 293d 225e 763c
000001c0: f549 b4bd aae3 61be a662 e8bc 597c 2bbc
000001d0: d12f a43a f9d0 e4bb 0050 203d da03 a33d
000001e0: 94df 15bd 1535 023e 7dd9 a1bb b398 73bd
000001f0: 2309 2f3d a009 fdbd 814b 793d a2ab 9abb
00000200: 09f4 a63c 54ff 863c f5fb 87bc d89d 0cbe
00000210: f9af 1fbd ec23 a23d 0c5e 3ebd 284e adbd
00000220: 5ebf dc3c 4510 91bd b25c 0fbe 4093 6fbd
00000230: a3ad 9fbd f9a1 be3a 40ca 90bd 8bb5 e33b
00000240: 8fc6 b9bd 8c08 903c 703e 663d e73f 93bc
00000250: 17bd c03d 714c 97bd bce2 00bc e6f7 06be
00000260: e3bc 31bc a54e 1a3e 5311 723d 9c17 743d
00000270: 48bf eb3b c844 e73c fb0b d7bc 8eae 023d
00000280: 77ff 233d c65d 143d e4a7 7bbb af86 e73d
00000290: fca1 b1bd a90f f43d 365e 8e3b 6bc8 3c3e
000002a0: eeea 0c3e 2814 fd3d 5a42 acbc cf25 f03d
000002b0: da0a 213e f430 933c 1df3 43bc 2fee 3fbd
000002c0: 85f1 113d e948 313d 9e28 48bd eff7 81bd
000002d0: fe2c 8dbd 17f0 bc3c a532 383d 4eb2 83bd
000002e0: adfa 88bc e898 8f3d 4a65 f2bc 27f8 9a3d
000002f0: 6ccd 8f3d 6f7d 2d3d ff2b cbbc eba8 44bd
00000300: 2e7b 42bc e871 99bc d1b2 aabd 653a 183d
00000310: 59b9 a63c 3e86 b83a 284e aa3d ee80 79bd
00000320: 389f 9a3d 77ab 92bd a64a d6bc 76bc cc3c
00000330: 4996 86bb 93b4 973d c280 463c ba5f b43b
00000340: cc11 c73d 6fb0 86bd ea50 ddbd 91ba c23d
00000350: d674 3ebd f9ce d23d 4f7b 15be 5e07 05bd
00000360: 8a61 d8bc e1f6 863c 8a63 0f3e 97a9 543d
00000370: 45e3 043d f226 ecbc 0000 833d c069 3bbd
00000380: d218 483d e6cd a7bd 2d7d 173b 8607 4cbd
00000390: d700 eb3c 415f 473b dfef af3d 91be abbd
000003a0: 3274 86bd 045c 83bd f413 4e3e 1e86 533d
000003b0: e721 01be c0ac 59bd 1d5a 043c 82d0 e23d
000003c0: 1d69 513d 4b90 0c3d 86bc b13d 0c32 cc3c
000003d0: 9fe7 f33c a670 c03d e9d7 02be 68a6 823c
000003e0: 5235 a13d 73bd 203d ca99 893b 93de d13b
000003f0: 3978 223d 657c a6bc 4192 08bd acf3 7b3c
-0.072549865 0.005934804 0.018169725 -0.05069873 -0.057500925 -0.084524766 0.037371844 -0.014364512
0.04325287 0.115621395 0.064781465 -0.021493223 0.035347827 0.020661168 -0.056341723 0.006809506
-0.07883042 -0.042985585 -0.03771096 0.0030458607 -0.009524858 -0.00800089 0.032288164 0.08153094
-0.026461843 -0.016448006 0.02163455 -0.07365353 -0.03653572 -0.029303184 0.0063061537 0.10050512
0.004872071 0.113887325 -0.021432025 0.027436491 0.045142017 -0.0313733 -0.05609716 0.08141678
0.008850096 -0.04249169 -0.12638675 -0.06793358 0.082105614 0.015577982 0.019663453 0.041320395
0.018287947 0.010548314 -0.026896317 -0.13805266 -0.15712048 -0.06656817 0.05156952 0.01995505
-0.014965278 0.0010224554 -0.0024369296 0.06453385 -0.005552832 0.11757279 0.012591302 0.038213644
0.025016611 0.0016452537 -0.078157626 -0.006536469 -0.031792194 -0.047174644 0.012082158 -0.026628966
-0.009619998 -0.0736627 -0.063345954 0.0084334565 0.07744807 0.0931299 -0.03802398 0.022288308
0.010044723 -2.9298863e-05 -0.03798105 -0.055419654 -0.014097618 0.035347037 0.106526695 -0.09740962
0.009371883 -0.06156884 0.026817974 0.07119363 0.03520115 -0.012097663 0.019566603 0.04695815
-0.08528582 0.012845883 0.024086965 0.0415472 0.036943078 0.019455072 -0.050088607 -0.029012691
-0.045493532 -0.021571489 -0.018400755 -0.0023049153 -0.092075974 -0.0028400198 0.04139971 0.015037091
-0.08803169 -0.22059503 -0.028367352 -0.0104666585 0.0012526457 -0.0069829193 0.039138794 0.07959719
-0.036590174 0.12715562 -0.0049392567 -0.059471797 0.042733323 -0.123553514 0.06086302 -0.0047201673
0.020380037 0.016479172 -0.016599635 -0.13732088 -0.03898618 0.07917008 -0.04647641 -0.08462173
0.02694672 -0.07083181 -0.14000204 -0.058490038 -0.077967905 0.0014544121 -0.07069826 0.006949132
-0.09071075 0.0175822 0.05621189 -0.017974807 0.09411066 -0.07387627 -0.007866558 -0.13180503
-0.010848257 0.15069063 0.059098553 0.05959283 0.0071944334 0.02823104 -0.02625083 0.03190475
0.040038552 0.03622224 -0.003839963 0.11304986 -0.08673474 0.119170494 0.004344727 0.18435828
0.13761494 0.1235736 -0.021027733 0.117259614 0.15726796 0.017967679 -0.011959818 -0.04685801
0.03563072 0.043282423 -0.04886686 -0.06346118 -0.06893347 0.023063703 0.044970173 -0.06430493
-0.016721094 0.070115864 -0.029589314 0.075668626 0.07021603 0.04235595 -0.024801252 -0.048012655
-0.011870189 -0.018731073 -0.08334888 0.037165064 0.020352053 0.0014078093 0.08315688 -0.060913973
0.075499 -0.071616106 -0.026158642 0.024992209 -0.004107271 0.07407489 0.012115659 0.0055045756
0.09720191 -0.06576621 -0.10806449 0.09508241 -0.046498142 0.10293383 -0.1459782 -0.03247773
-0.026413698 0.016475143 0.14002815 0.051919546 0.032443304 -0.028827164 0.063964844 -0.045755148
0.048851795 -0.08193569 0.0023115382 -0.049811862 0.028686924 0.0030421766 0.08590674 -0.08385957
-0.06565131 -0.06414035 0.20124799 0.051641576 -0.12610589 -0.053143263 0.008078125 0.11074926
0.051125634 0.034317296 0.08678536 0.024926208 0.029773531 0.09396486 -0.12777676 0.01594849
0.07871498 0.039243173 0.0041992413 0.0064047067 0.039665435 -0.020322988 -0.033342604 0.01537792

encoder.encoder.0.W_o.bias f4 [200]
00000000: dff4 eb3c 87c4 a33c 6127 ff38 89cf eb3b
00000010: d9d0 f43b 4ec9 9ab9 6209 fa3b 5c6b 443b
00000020: a714 b03b 2c25 48bc 9ad3 fb3b 68ae ffb8
00000030: 44a8 143c 914d c4bb bbb3 2a3c 3d37 363b
00000040: 7bfa 26bb 5734 a4bb ce1d c13c abf5 8abc
00000050: 098a 80b9 e96d 823c 02c9 023c 570c aa3c
00000060: 8045 a33c 77a7 37bc eb38 60bc 5251 77ba
00000070: 6a4b 88bb bd29 97bc 669d 353c ef35 3838
00000080: 7617 4bbc 8738 8bbb ccc9 4bbc 058f d63b
00000090: 8741 ae3c d019 bd3b e32b 863c b70f 673c
000000a0: 18e3 e4bb e95e 21bc 8b25 80bc 6cff 78bc
000000b0: 1f0a 07bc a823 dfbc ea67 aabc bd30 c73c
000000c0: faa0 833b a9c1 603c 3cf1 ff39 24b9 00bc
000000d0: 3261 ff39 4ab4 9fbb 7695 9c39 c42c 29bb
000000e0: 398d b53c 94cc 30bb 451d 603b c037 cb3b
000000f0: c696 bd3a 33ac c5bb 94e5 96bb 9be3 1ebc
00000100: 0964 0f3c 3604 9cbc 4dcd 62bc d244 123b
00000110: c8d5 573a 1730 00bb f929 57bb b9b6 063d
00000120: 9f52 f3ba 51d4 d63a 5a8f 013c e7bf b5bb
00000130: 45e7 083b a254 27bc b3d1 61bc 1d80 0ebc
00000140: 49b9 7abc 25fe d33a a2aa 833b 41ac 56bc
00000150: ec4e e03a 8f95 0f3c b1f4 fd3b 03c7 60bb
00000160: 328c 3d3b 3777 d4ba 97b8 813b f430 6abb
00000170: 5acc 5cbc ffed 19bb f2bc f0bb 6fbe d7bb
00000180: a146 593c b749 443b 12fe a4bb e5fd a73c
00000190: dc1a 893b 5a9f dabc cdfb d7bc 143b 3abb
000001a0: b99d cfba 4ff0 7ebc bf2c f439 396f 993c
000001b0: 9e2c 453a 11c1 0cbc 7b2f 3a3c fd8a 05bc
000001c0: 8975 3cbb 3c76 eb36 8d30 cb3b 4793 32bc
000001d0: 89ec 85bb eb96 633b 719b 333c 5a85 eb3c
000001e0: 3c12 ab3c 77c9 6abc feed d1bb 30b6 a03b
000001f0: 9b09 36bc d758 72bc 4404 7a3c 1f91 fa3c
00000200: 2a9a c53c 1fe1 6a3c 74b8 bf3b fff1 e3bb
00000210: f076 c6bb 93d0 abbb 0971 273a ebd7 42bb
00000220: c22f bb3c 98b4 20bc bf0f 8e3c 172c a8bb
00000230: 53b2 b4ba 157e 9c3b 24c1 543b 4e4e 873b
00000240: dd9d 35bc 3960 2a3a de30 05bc 6d42 9d3c
00000250: 1a26 0f3b 0549 bd3b 73d1 133d 7573 beba
00000260: 09e7 0b3d 5b84 7d3c ab36 f5ba 1a1d 42bc
00000270: 64ba f2bb 60b2 8cba 2ce8 bfbb c8b6 593c
00000280: da93 53bb 421a 853c f8e6 58bb f3a1 59bb
00000290: a20c b9b9 921b 003c 9f16 aebb 3b5f 55bc
000002a0: 75da b2bb 8494 df3b d978 d33b 0b88 82bc
000002b0: c597 883b 5643 7b39 f1fb 863c 5b61 c93c
000002c0: da2f 34bc 3cdd b63b e129 993b 46cc 0b3c
000002d0: 80ca 7fbb 6098 9cbb 232a a33b a6a7 3a3c
000002e0: a563 bf3b f96c 20bb cd2e 8cbc f3ed fdbb
000002f0: c72c 80bc 75ad 483c 1808 84bc b9b8 e63b
00000300: 39ee 123c 14aa 443b 8c0a 803b d4d8 2c3b
00000310: 0588 28bc c2fa 1dbb fe5c b53b 2148 90ba
0.028803287 0.019991172 0.000121666824 0.007196371 0.0074711856 -0.00029523153 0.007630513 0.0029971218
0.0053735557 -0.012215894 0.007685137 -0.00012191833 0.009073321 -0.005990692 0.010418828 0.002780392
-0.0025478888 -0.005011122 0.023573782 -0.016962847 -0.00024516907 0.01592155 0.007982494 0.020757837
0.019930601 -0.01120936 -0.013685445 -0.000943442 -0.0041593807 -0.01845252 0.01108489 4.3919248e-05
-0.01239573 -0.004248682 -0.012438249 0.006547811 0.02127148 0.0057708994 0.016378349 0.014102868
-0.0069850795 -0.0098492885 -0.015642902 -0.015197616 -0.008242159 -0.027238682 -0.020801503 0.024315232
0.0040169926 0.013718047 0.00048817124 -0.007856641 0.00048709806 -0.004873787 0.00029865996 -0.0025814036
0.022162067 -0.0026977407 0.0034197134 0.0062017143 0.001446449 -0.0060324906 -0.0046050046 -0.00969782
0.008751878 -0.019044977 -0.013842893 0.0022318852 0.0008233455 -0.0019559914 -0.0032831414 0.0328891
-0.0018564052 0.001639018 0.007907713 -0.005546558 0.00208898 -0.010213049 -0.013782906 -0.008697537
-0.0153029645 0.0016173763 0.0040181438 -0.013102592 0.0017113364 0.008763685 0.0077501168 -0.0034298308
0.0028922674 -0.0016209845 0.0039587724 -0.0035734745 -0.013476456 -0.0023487804 -0.007346743 -0.0065839808
0.013261468 0.0029951164 -0.0050351704 0.020506809 0.00418411 -0.026687313 -0.026365185 -0.002841656
-0.0015839852 -0.015560224 0.00046572645 0.018729793 0.0007521602 -0.0085909525 0.011363859 -0.008150813
-0.002875658 7.01731e-06 0.006200856 -0.0108993715 -0.004087035 0.0034727405 0.010962353 0.02875011
0.020882718 -0.0143302595 -0.0064065447 0.004904531 -0.011110689 -0.014791689 0.015259806 0.030586777
0.024121363 0.0143359 0.005850846 -0.0069563384 -0.006056659 -0.00524337 0.0006387388 -0.0029730748
0.022849921 -0.009808682 0.017341493 -0.005132209 -0.0013786055 0.0047757723 0.0032463754 0.0041292077
-0.011085001 0.00064993236 -0.008129327 0.019196713 0.0021842779 0.005776527 0.03608842 -0.0014530258
0.03415588 0.0154734505 -0.0018708309 -0.011847759 -0.0074074734 -0.0010734312 -0.0058565345 0.013288207
-0.0032284171 0.016247872 -0.0033096652 -0.0033208102 -0.00035295362 0.007819073 -0.0053127552 -0.013023193
-0.005458171 0.0068231244 0.006453615 -0.015934011 0.004168483 0.0002396231 0.016477557 0.024582556
-0.010997737 0.0055805724 0.004674182 0.008532589 -0.0039030612 -0.0047789067 0.0049793883 0.01139251
0.005840736 -0.0024479015 -0.01711216 -0.007749313 -0.015646352 0.012248387 -0.01611714 0.0070410636
0.0089679295 0.00300086 0.0039075073 0.0026374357 -0.010286336 -0.0024105762 0.005534767 -0.0011007824

ffn.1.weight f4 [200, 200]
00000000: baff f5bd 49e2 d0bd f172 583d 7ef1 2fbd
00000010: 920c 58bc 50ea 1abe f165 e13c abc5 b1bd
00000020: 09eb 143d 0391 54bd d1b2 c23c e003 023d
00000030: cc67 9abb 4c52 883c b1cb 0dbd aa16 223c
00000040: 9428 593d 3343 83bd 5d8e ab3d 1186 97bd
00000050: 9b44 023d e324 f1bd 2563 2c3d 07ab 413d
00000060: 9100 f03d 3189 383d b427 17be 082f d2bc
00000070: 25be 993d 8b66 043e 18de 2d3e a414 b5bd
00000080: 15c7 2bbd 0c0c 043e e0cb 593d 46d7 1d3d
00000090: 2ab7 1f3c db5b 143d bf97 cc3d c7ae 93bc
000000a0: 810d bc3d c4f8 143e c921 0dbd ade9 d139
000000b0: 0323 9e3d aef4 2cbd 3353 8f3d d3ed 14bd
000000c0: d4de 913d 84db 143e 52a6 a3bd fcf4 8a3c
000000d0: bacb dcbd 0d0b f03d f7c2 543d dae0 0bbe
000000e0: 02fe 443d 067b 373c 7e84 c93c b8e6 66bd
000000f0: 26b5 683d 061f e8bd 2715 afbc 1346 283d
00000100: 4e0b 763b 4ba0 fd3b 00ad ad3c 0b11 01bd
00000110: a510 e2bc c238 b8bc 2105 56be 4070 ce3d
00000120: 9cd1 d2bd 3e08 503c 624d cc3d 3304 c53d
00000130: 3246 bebc 2837 1e3c 4209 883d e856 483d
00000140: 3a31 fabc c233 d4bc 3766 ca3d 4034 f33d
00000150: 3b09 28bd 5719 8dbd 4d81 513d e1c2 23be
00000160: 1cf1 99bd b50c 593d 9c01 5c3e 89b1 1bbd
00000170: 9141 09bd caed f8bc e326 03be 2a67 ef3d
00000180: e46c e93d 592b 17bd 15aa b03d 4988 a93b
00000190: a9b3 bc3d d9fa abbd 984a bf3d d0d4 74bd
000001a0: 3fa9 4dbc 78f0 5bbd fb0a 05be 54aa 6fbd
000001b0: ce0f 183e 6593 f23c 163f 073c 8c93 77bd
000001c0: 22b6 c6bd bbba d63b 6dcd f23d 0837 9a3b
000001d0: 9142 e03d b2e0 f03d f8fa 67bd 6c04 98bc
000001e0: ca70 9ebd bc94 a73b aae8 e3bd b4d6 1dbd
000001f0: 72da c73c 632f 37bc 6f6b 9b3d 8d22 4a3c
00000200: c17b f33c 5687 2abd dd5b a6bb 74f3 0e3d
00000210: eabb 803d 7a91 853c 1cb5 223d 203c 76bd
00000220: aa6a 45ba c90e 553d 6be6 943d 2857 23bd
00000230: 9b21 d53d 12e5 a939 f574 bbbd ae64 56bd
00000240: e449 d2bd c95a 843d 6e73 6abd 38d0 643d
00000250: 3ed1 973d cd3a 9cbd aad1 b7bb 809d cdbc
00000260: 2393 bc3d 57b7 d3bc 890a c0bc a05d f4bc
00000270: d2df de3d 10a2 14bd d1a8 1d3a b1c8 8fbb
00000280: e953 80bd b893 cf3d 17e3 0cbe 3174 253d
00000290: cf01 163e 4aa2 6abd f488 ae3c 53b6 c3bd
000002a0: 0cf6 863d 8936 cebd 6d2d 193e 48e2 473d
000002b0: 272b b4bd c343 f2bc 0caa 11bd 4b5c abbd
000002c0: 8fa7 5bb8 cbee 18bc ebf9 18be eaeb 80bd
000002d0: fdc8 cbbc ce3d 88bd 0d83 d1bd 65b1 f5bc
000002e0: 8205 203d 73a0 c339 1d2c eebd df64 f7bc
000002f0: d164 c53d 7292 443d adfc 95bd 538f c5bd
00000300: 6df5 04bd 8634 033c 1164 803d f777 e73d
00000310: 18f3 e3bb a760 013e db10 0ebd 43d3 a5bd
00000320: 8135 05bc 9616 013e 6eda c4bc b14d 39bd
00000330: e07f b93c 8a35 b13d c2cf 583d 06b9 073d
00000340: 5ca8 21bd 0ad8 2dbd 6390 353d 3a24 093e
00000350: 62eb 7f3c c3a2 31bd 01ad a43b 54f4 5c3d
00000360: 8746 c43c 9759 11bd e508 d03d 75f5 b53d
00000370: 938f 973d 1372 54bd aeab 15be 4dfe 813d
00000380: fa8d fc3b 9702 123e ebd1 94bb 2258 da3d
00000390: 6d1e ff3d 373f c8bd 9a6c d3bc dfb7 613d
000003a0: b80f 44bd c3fe 5abd 83e9 f03d c10f c7bc
000003b0: 6066 443d 1aa7 32be 88be 85bd 8eb9 e0bd
000003c0: dad5 88bc f7b1 18bd 49ea 9abd 8fd4 8bbd
000003d0: 53e9 b6bd 5c9f 75bd 0057 34bd 2a44 9abd
000003e0: 4478 bf3b a385 4b3c a9bd 8abd a3d9 15bc
000003f0: 1371 283d 1048 88bc 8ea2 be3d c380 c73d
-0.120116666 -0.101994105 0.05284399 -0.042954914 -0.013186591 -0.15128446 0.02751443 -0.0868028
0.03635696 -0.051896106 0.023766907 0.031741977 -0.0047120806 0.016640805 -0.034618083 0.009893099
0.053017214 -0.064093016 0.08376763 -0.07398618 0.03180371 -0.11774614 0.04208674 0.047282245
0.11718858 0.04505271 -0.1476124 -0.025657192 0.0750697 0.12929742 0.16979253 -0.088418275
-0.041937906 0.1289522 0.053172946 0.03853538 0.00974826 0.036220413 0.09989881 -0.018027676
0.09182263 0.14548022 -0.03445605 0.00040037688 0.07721522 -0.042225532 0.06998291 -0.03635962
0.07122579 0.14536864 -0.079907075 0.01696252 -0.10781045 0.11720858 0.051943745 -0.13659993
0.048093803 0.011198765 0.02459931 -0.056372374 0.05681338 -0.11334042 -0.02137239 0.041082453
0.003754336 0.0077400557 0.021200657 -0.031510394 -0.027595827 -0.022488002 -0.20900394 0.10080004
-0.10293886 0.012697278 0.09975697 0.096199416 -0.023226831 0.009656705 0.06642391 0.048911005
-0.030541051 -0.025903586 0.09882777 0.118752 -0.041024428 -0.06889599 0.0511487 -0.15992309
-0.07516691 0.052990634 0.21484989 -0.038011108 -0.033509795 -0.030386824 -0.12807803 0.11689599
0.11397722 -0.036906574 0.086261906 0.005173717 0.09213955 -0.08397455 0.093403995 -0.059773266
-0.012552558 -0.053696126 -0.1299247 -0.058512047 0.14849779 0.029611299 0.008254787 -0.060443446
-0.09702708 0.0065530217 0.11855588 0.0047062673 0.109501965 0.11761607 -0.056635827 -0.018556796
-0.077363566 0.005114166 -0.111283615 -0.038534835 0.024396155 -0.0111807315 0.07588851 0.012337339
0.029722096 -0.041632973 -0.005076869 0.034900144 0.06285842 0.01630472 0.0397235 -0.060115933
-0.0007530848 0.052016053 0.07270511 -0.03987804 0.104068 0.00032404863 -0.09153167 -0.05234211
-0.10268 0.064626284 -0.05723899 0.055862635 0.07412957 -0.07628403 -0.0056097107 -0.025099516
0.092077516 -0.02584426 -0.023442524 -0.0298298 0.10882534 -0.036287367 0.00060142303 -0.004387938
-0.062660046 0.10135597 -0.13758503 0.040394012 0.14649127 -0.057283677 0.021305539 -0.0955626
0.065898985 -0.100689955 0.14958735 0.048799783 -0.08797293 -0.029573327 -0.03556256 -0.08367213
-5.236972e-05 -0.009334276 -0.14939086 -0.06294997 -0.024876112 -0.06652413 -0.10230074 -0.029991815
0.039067753 0.00037312842 -0.11629508 -0.030199466 0.0963837 0.047991224 -0.07323585 -0.096464776
-0.03246062 0.008008128 0.06269086 0.11302178 -0.0069564693 0.12634526 -0.034684043 -0.080969356
-0.008130432 0.12606272 -0.024029937 -0.045240108 0.022643983 0.0865279 0.05293251 0.033135436
-0.0394672 -0.04244236 0.04432715 0.13392726 0.0156200845 -0.043368112 0.0050255065 0.053943947
0.023959411 -0.03548583 0.101579465 0.08884708 0.074004315 -0.051866602 -0.14616272 0.06347332
0.0077073546 0.142588 -0.0045416257 0.10661341 0.12456975 -0.09777682 -0.025808621 0.055106994
-0.047866553 -0.053465616 0.11763289 -0.024299504 0.047949195 -0.17446557 -0.065304816 -0.10972892
-0.016703535 -0.037279096 -0.075642176 -0.06827652 -0.08931222 -0.05996643 -0.044028282 -0.075325325
0.005843194 0.012421998 -0.06774456 -0.009146127 0.04112346 -0.016635925 0.093083486 0.09741356

ffn.1.bias f4 [200]
00000000: f46f f43b 625d b83c 3ab4 cb3c ce89 1c3d
00000010: 69d5 e63c 92d9 b73c a001 42bb f40c 543c
00000020: feb3 2d3c 4215 6e3c 8c87 8b3c 9f44 823c
00000030: f9b7 0f3d 782a 15ba cc72 dabb 2b77 f53c
00000040: 5271 d7bb 24d4 893c 81b2 f83b fdb7 d33c
00000050: 6b62 183c d9f4 8dbc e47d 5a3b bd3d 5c3c
00000060: 2651 e9ba 1b78 453b 454d 55bc 62b6 a63c
00000070: 6d48 b7bb c9cb a9bc e432 533c a2c4 a93c
00000080: ace4 d13c dd22 f63c 6f49 5b3d acd4 e83b
00000090: ecd8 00bd f0ad 78bc d150 f13b 1d44 b33c
000000a0: b65a 4abc 8e98 da3c a6c2 f23c be0b b33c
000000b0: f879 b43c 09a1 4a3c 5339 cf3c a77e 933c
000000c0: 8820 5bbb d00f 053d 4d99 1d3d 8098 27bc
000000d0: e264 283b e86b b1bc c4b5 953c f5d3 853c
000000e0: d046 9cbc f99d e63c 8cad c13c f8ec 243c
000000f0: 7030 6d3a c83d 063d ca97 893c bf5f 98bb
00000100: f74f 0f3d 2f42 b73c d5db e63c 0524 0b3d
00000110: 9e43 daba 0958 393c 7da3 be3c afdb 8e3c
00000120: 91d9 0fbc f0a8 773c e628 f03c a952 39bc
00000130: 9d1d 823c ef77 953c ecbb 843c 3d33 f43c
00000140: aa10 a83c 8cb8 01bc c7c5 42bc 458c 4dbc
00000150: 8042 a33c 9555 913c 37cc 9c3b 8ca2 2dbc
00000160: db8e ea3c 9d22 1a3d 9cc5 26bc 8df5 cd3a
00000170: decc 013c 9e9a c33c 4153 10bb fa61 1a3c
00000180: 215f e03c 7a89 a13c 801e 913c 14a4 be3c
00000190: 9bea ba3c 1d17 d63c 3cbc 0f3d b59c 763c
000001a0: 3712 eb3c 3f1c a1bb 036e 893c 34a5 083d
000001b0: 33d1 80bc 3fa2 b83c be2d 9a3c bb74 e83c
000001c0: 039c c03c 84f2 cd3b 7728 22bb 9f03 ea3c
000001d0: 4a80 d43c ad66 2b3d 0056 3e3c 7524 a5bc
000001e0: c9cb 07bc 82ab 9f3c 583c ed3c 82d4 da3a
000001f0: 7cc5 a9bc eef9 6a3c dee7 d33c 25ae 123b
00000200: 405b 60bc 6255 9c3c fc64 873c 58c9 84bc
00000210: 0b93 8e3c 58ce 973c 84d2 2f3d 65e8 023d
00000220: 3b89 cabb d900 5bbc aaab 233c 9936 2abb
00000230: a07d 133d a199 a8bc 333c a6bc a376 5d3c
00000240: c430 a43c 4718 403c e43d eb3b db69 893c
00000250: 3596 cc3c bf80 633c 1952 2c3c d9df 5a3c
00000260: d7c6 8abc 7f9a d03c 52a7 83bc 6ae2 d83c
00000270: 7c8f 2e3c d2df 193d e8a9 8a3c 24d2 1e3c
00000280: 5469 5abc 0f51 17bc a9da 3d3c c7e8 883c
00000290: a406 1f3c 3251 5c3c ca90 c4bb 9a89 093d
000002a0: b6ec 5c3c b465 c9bb 5bae 933c c0c5 843c
000002b0: 1c6b 013d a604 8f3c d1cc e73c e98a c13c
000002c0: 8c9a 113c dd18 8cbb 05ce c73c 006d 193d
000002d0: ccf7 653c 7b32 873c 8368 e13c 4317 883c
000002e0: d6b3 29bc b1d2 6c3c e8be 813c 5336 3d3c
000002f0: c5c1 d23c 18db 113b 65e1 b13c c928 363c
00000300: a718 143d c1b7 803c b01a bcbc 83d1 133d
00000310: 8ec8 7e3c 27cc a73c 9531 833c d30f de3c
0.007459635 0.022505466 0.024866212 0.03821736 0.028177934 0.022442613 -0.002960302 0.012942541
0.0106019955 0.014531435 0.017032407 0.015901862 0.03508756 -0.0005690227 -0.006666517 0.02996405
-0.006574788 0.01682479 0.0075896387 0.025844568 0.009300808 -0.017328667 0.0033339197 0.013442454
-0.0017800673 0.0030131403 -0.013018911 0.020350639 -0.0055933506 -0.020727055 0.012890551 0.020723645
0.025621735 0.030045921 0.05353683 0.0071054306 -0.031456873 -0.015178189 0.0073643704 0.021883065
-0.012350729 0.026684072 0.029633831 0.021856185 0.022030815 0.012367495 0.025295889 0.018004728
-0.0033436138 0.032485783 0.038476277 -0.01022923 0.0025694896 -0.021657899 0.01827515 0.01633642
-0.019076735 0.0281515 0.023642324 0.010066263 0.000904805 0.032773763 0.016796011 -0.0046500857
0.03498837 0.022370426 0.028180996 0.033969898 -0.0016652232 0.011312493 0.023271317 0.017438738
-0.008779899 0.015115961 0.029316377 -0.011311212 0.015883261 0.018245665 0.01620289 0.029809589
0.020515759 -0.007917535 -0.011887974 -0.01254565 0.01992917 0.017741004 0.0047850865 -0.010597836
0.028632572 0.037630666 -0.01017895 0.0015713439 0.007922379 0.023877438 -0.002202228 0.0094227735
0.027389111 0.019718874 0.017714739 0.023271598 0.022816947 0.026134068 0.035091624 0.01505201
0.028695209 -0.0049166973 0.01677609 0.033360675 -0.015724754 0.022538302 0.01882064 0.028375974
0.023511892 0.0062850136 -0.0024743357 0.02856618 0.02594008 0.041845966 0.011617184 -0.020158986
-0.008288332 0.019490961 0.028959438 0.0016695412 -0.02072405 0.014341814 0.025867399 0.002238163
-0.013693631 0.019083682 0.016527645 -0.01620929 0.0174041 0.01853101 0.042925373 0.03195991
-0.00618091 -0.013366901 0.009989658 -0.0025972484 0.036008477 -0.020581068 -0.020292377 0.013517055
0.020042785 0.011724538 0.007179009 0.016774109 0.024973968 0.013885676 0.0105176205 0.0133590335
-0.016940517 0.025464294 -0.016070995 0.02647515 0.0106543265 0.037566967 0.01692672 0.009693656
-0.013330776 -0.0092356345 0.011587777 0.01671256 0.009706173 0.013447093 -0.0059987055 0.033578493
0.013484171 -0.006146157 0.018027475 0.016207576 0.031596288 0.017458271 0.028295906 0.023625808
0.0088869445 -0.004275425 0.02439023 0.037457466 0.01403613 0.016503563 0.027515655 0.016612655
-0.010357818 0.01445453 0.015838102 0.011548596 0.025727162 0.0022255834 0.021713922 0.011118122
0.036156323 0.01571262 -0.022961944 0.036088478 0.015550746 0.02048309 0.016014853 0.027107155

ffn.4.weight f4 [1, 200]
00000000: 618b 84bd 8fbc fb3d d206 2f3e 4ff2 073e
00000010: 6582 c0bd 78ca 7a3d 02dc 633c a781 463d
00000020: 2452 3c3d 8376 033e be1b ee3d 6aaa b13d
00000030: e71e a13d 38a4 b9bc b9c4 10be 5997 ae3d
00000040: e247 69be 7aa8 0f3e c3ea e1bd 66cc 513e
00000050: 7d2d 4d3e 0dd2 103d c567 6ebe 3f19 e43d
00000060: 44ee 2d3b a894 92bc e9a3 af3d b226 84bd
00000070: 0de2 eabd 5b7a c13d 161a aebd 5e1e 8a3d
00000080: f355 b53d 4efd e1bd 3e77 e5bd 5296 fcbd
00000090: 08d4 923d 9dad acbd 5973 c4bc 29f9 93bd
000000a0: f465 803c d040 573d 3df2 ab3d b2c6 43be
000000b0: 5042 c0bd 16b7 44be 9ca9 253e f818 67be
000000c0: 0bab 07be e2a7 de3d a71e dbbd 6d2d bdbd
000000d0: ab41 dfbd acfa 8ebd ada8 6d3e e70c 7cbd
000000e0: c0d3 5dbd e0e0 99bd ab1b d9bd 6a79 17be
000000f0: 5f32 b9bd ef93 083d 1514 843d cc7c 893c
00000100: a3c2 e7bd 77ac 2dbe fa33 1d3e f517 793d
00000110: 29e2 20bc 28b0 6c3e 23a3 18be f008 293e
00000120: 2f98 4e3d 5518 483e 6d3e 25be 5d97 253d
00000130: cedc 213e 83cb 20be 427b 783d d2c9 0abe
00000140: 3cca a2bd ee7c eebd 5a6e 4cbd 326d 3c3d
00000150: 770f bebd 594f 013e bc54 49be 2951 89bd
00000160: 4fda 463d 2443 c3bd df29 42bc 01ba fcbd
00000170: 3a32 32bc d4ae fbbd de38 1e3c 0d91 cdbd
00000180: c3da 6dbe 082e 26be b1fa 893e 8336 70bd
00000190: 3973 37be 32e5 fd3d 4c5c 39be 17d5 573e
000001a0: 67b8 02be af43 b7bb 3c40 e9bd e89b fbbd
000001b0: 2c36 a23d d32d e13d dd1e b9bd fa35 e53d
000001c0: b8b9 1a3e f174 d4bd dd86 8cbe 6d8d 89bd
000001d0: f238 3b3d 9506 d03d 5db5 babc dfa7 c93d
000001e0: a820 b4ba 39d5 3f3e 95f2 323e d880 c43d
000001f0: d390 ae3c 6965 6e3e 114e 503d e919 a03d
00000200: ba1f 063e 0ef2 503e 2529 0abe 43b5 b13d
00000210: 160d 2a3d ebe4 82bd f7a0 0bbe 9cc9 e13d
00000220: d3c5 cf3d 0393 253d ecfb 83bd 2936 f03d
00000230: 83dd c73d 1829 93bc b5a6 173d 22fa 2bbe
00000240: fddb 97be 3fd5 8bbd 25fb 983d 062d 1abe
00000250: 81b4 1bbe 6965 04be 15b6 b63d 268f 41be
00000260: 5a6f a33c 54f7 d33d b9cc babd 90a4 983d
00000270: fec3 29be 09ad 0abe a243 c73d 927e dcbc
00000280: 5a9e 13bc 87b1 80bd d5a2 edbd fc1f ea3d
00000290: 2fa0 4d3e b133 2d3e 4038 ddbc 3a2d c9bd
000002a0: 58f5 62bd 75e8 083d 6e1c 973d 7885 713d
000002b0: 1338 4c3e c135 893e ebfd 09be 587f 303e
000002c0: df32 83be 7a85 a13d ff78 eebd 83ce ed3d
000002d0: 0aa6 2abe 4db5 35be 8898 fdbd b27f 29be
000002e0: 26fc 21bc a270 efbd 1979 b63d 4c3a ce3d
000002f0: 5a16 c4bd 6e92 2c3d ea75 2abe 0496 98bd
00000300: 369b 8f3d 372c 70bd 6957 05be 1760 7b3d
00000310: 5bd6 7e3d a975 5d3d 6d7e 38be ae05 8fbd
-0.06471897 0.12291824 0.17092445 0.13276027 -0.09399871 0.061228245 0.013907434 0.04846349
0.045976773 0.12838177 0.11626385 0.08675082 0.07867222 -0.022661313 -0.14137544 0.08524961
-0.22781327 0.14029112 -0.11031105 0.20488128 0.20036884 0.03535657 -0.23281772 0.11137628
0.0026539722 -0.01789315 0.08576185 -0.06452693 -0.11468897 0.094471656 -0.08501069 0.06744073
0.08854284 -0.11034642 -0.11204384 -0.12333359 0.07169348 -0.084315516 -0.023980783 -0.07225258
0.015673615 0.052552044 0.08395813 -0.19118765 -0.09387648 -0.19210467 0.16177982 -0.22568119
-0.13248841 0.10871865 -0.10699206 -0.0923718 -0.10901197 -0.069814056 0.23208876 -0.061535742
-0.05415702 -0.075135946 -0.1060098 -0.1479241 -0.09042811 0.033344205 0.06449143 0.01678314
-0.11316421 -0.16960321 0.15351859 0.060813863 -0.009819546 0.23114073 -0.14905982 0.16507316
0.050438102 0.19540532 -0.16137095 0.040427554 0.15806887 -0.15702634 0.060664423 -0.13553551
-0.079487294 -0.11644922 -0.049909927 0.046002574 -0.092802934 0.12627925 -0.1966123 -0.06704933
0.04854804 -0.095342904 -0.011850803 -0.12340165 -0.010876233 -0.12289205 0.009657113 -0.10037432
-0.23227982 -0.16228497 0.26949075 -0.058645736 -0.17915048 0.12397231 -0.18101615 0.21077381
-0.12765656 -0.0055927853 -0.11389205 -0.12285596 0.07920489 0.109950684 -0.0903909 0.11191936
0.15109909 -0.10373867 -0.27446643 -0.06716428 0.045708604 0.101575054 -0.022791559 0.09846472
-0.0013742642 0.18733682 0.1747535 0.095948875 0.021309292 0.23280872 0.0508557 0.07817442
0.1309804 0.20404837 -0.13492258 0.08677151 0.041516386 -0.06391319 -0.13635622 0.11024782
0.10145154 0.040423404 -0.06444535 0.1172908 0.09759047 -0.017963931 0.03702422 -0.16794637
-0.29660025 -0.06827783 0.07469777 -0.15056238 -0.15205576 -0.1292931 0.08921448 -0.18902263
0.019950558 0.103499085 -0.09121079 0.07453263 -0.16578671 -0.1354257 0.09729697 -0.026915822
-0.009009922 -0.06283861 -0.11603323 0.11431882 0.20080636 0.1691425 -0.027004361 -0.098230794
-0.05540976 0.033424813 0.073784694 0.058965176 0.19943266 0.26798823 -0.13475768 0.17236078
-0.2562475 0.07886787 -0.11644172 0.116116546 -0.16664901 -0.17744942 -0.12382609 -0.16552618
-0.009886777 -0.11691405 0.08909816 0.10069713 -0.09574576 0.042131834 -0.16646543 -0.07450488
0.07012026 -0.058635917 -0.13021626 0.061370935 0.062216144 0.054067288 -0.18016978 -0.06983505
