githubproject/lbdd/amse_build/mmodel14/checkpoints3/fold_2/model_0/model.pt (torch, 179147 bytes, 8 tensors)

encoder.encoder.0.cached_zero_vector f4 [64]
00000000: 0000 0000 0000 0000 0000 0000 0000 0000
00000010: 0000 0000 0000 0000 0000 0000 0000 0000
00000020: 0000 0000 0000 0000 0000 0000 0000 0000
00000030: 0000 0000 0000 0000 0000 0000 0000 0000
00000040: 0000 0000 0000 0000 0000 0000 0000 0000
00000050: 0000 0000 0000 0000 0000 0000 0000 0000
00000060: 0000 0000 0000 0000 0000 0000 0000 0000
00000070: 0000 0000 0000 0000 0000 0000 0000 0000
00000080: 0000 0000 0000 0000 0000 0000 0000 0000
00000090: 0000 0000 0000 0000 0000 0000 0000 0000
000000a0: 0000 0000 0000 0000 0000 0000 0000 0000
000000b0: 0000 0000 0000 0000 0000 0000 0000 0000
000000c0: 0000 0000 0000 0000 0000 0000 0000 0000
000000d0: 0000 0000 0000 0000 0000 0000 0000 0000
000000e0: 0000 0000 0000 0000 0000 0000 0000 0000
000000f0: 0000 0000 0000 0000 0000 0000 0000 0000
0.0 0.0 0.0 0.0 0.0 0.0 0.0 0.0
0.0 0.0 0.0 0.0 0.0 0.0 0.0 0.0
0.0 0.0 0.0 0.0 0.0 0.0 0.0 0.0
0.0 0.0 0.0 0.0 0.0 0.0 0.0 0.0
0.0 0.0 0.0 0.0 0.0 0.0 0.0 0.0
0.0 0.0 0.0 0.0 0.0 0.0 0.0 0.0
0.0 0.0 0.0 0.0 0.0 0.0 0.0 0.0
0.0 0.0 0.0 0.0 0.0 0.0 0.0 0.0

encoder.encoder.0.W_i.weight f4 [64, 147]
00000000: e4df 54bb ed17 29be 9d81 bbbd f274 793d
00000010: 2b2f 1fbd aa20 083c 9057 df3d 7a6c 203d
00000020: 6c46 ec3a 1f6f 79be 3aab 6ebd 7df2 c33c
00000030: 0a48 3bbe 5ea9 60be e41a 8dbe 5e58 3e3d
00000040: b64a 123d e61f 03bc ded5 9a3d 9498 263b
00000050: ca4f 11bd 433a e33b 1fbe bebc 56f7 a23b
00000060: b7d4 17be 15f3 afbd 39f8 babd 7e76 d83d
00000070: 6cd1 92bd 14a9 9fbd 9070 283e 69b6 c83d
00000080: 1885 44bd 02f7 483e 5214 213e e136 153e
00000090: c750 9fbc 41c6 58bd 41c2 533d b41c dbbd
000000a0: 07bc 22be 1489 c73d b716 59bc 0449 cebd
000000b0: bdb6 dfbd 152a 30be affd c1bd 7597 013e
000000c0: ead7 383e bc8e 87bc 5c92 c63c f923 9fbb
000000d0: 3838 233c 27df 94bc e37a 173c b013 3bbd
000000e0: 4610 eabd 9818 153d a402 32bb d4aa cfbd
000000f0: 3952 063d fa56 143e a5de f73d b5a3 0abe
00000100: e62a 27bd 61a9 b53b 19db 98bd a30c 263c
00000110: a58e a13c 6605 acbd 2566 f6bd f81a f1bc
00000120: f45d 30be a384 7abd 1d18 8ebb ea1c a3ba
00000130: 1861 a8bc ced5 9cbc b9ad a6bc 76e9 7e39
00000140: ee39 82bb 6876 85bd e354 243d 03eb ae3c
00000150: e1b9 893d efc1 dcbd 7340 66bd f9ca e43d
00000160: 77b7 98bc a390 a23c 1cb8 6f3c 1134 2f3c
00000170: a057 903d 49cd 503d fa44 8bbd cab2 14be
00000180: 69ec 0abe cbdb dfbc 5217 0ebe a900 86bc
00000190: db4b 963d 78af 763d 7284 863d f667 2c3e
000001a0: 362d 06be 5528 293e e072 ca3d bef0 ec3c
000001b0: b3e7 c93d f2ae 933d d2f6 173e 1f77 d8bd
000001c0: 2c26 d8bd d36c ba3d 40b7 93bd 3adc 5f3d
000001d0: 11d5 96bd 564e ce3d 1956 77bd e3e1 dd3d
000001e0: 6ed1 1b3e 0a50 17bd 43cf 5ebd ef41 e1bc
000001f0: aee5 5fbd 828f a33c 9ab4 1b3d abf7 dcbc
00000200: 51af c6bd 7baf a53c 6429 123e fe91 663e
00000210: 2f13 373e bb42 093e 8a40 7abe 771a 88bd
00000220: 2f01 1cbe ad82 c6bd 7018 743c 3cf0 573d
00000230: 90bc f33d 9d89 363d a237 37be 9b5a cc3d
00000240: 1654 ecbb e7bc 493d 9161 e9bc e33f 88bd
00000250: 72e6 2e3e bb4c 99bd 246d 94bd 59f0 9c3c
00000260: 1dad d13d f3c9 7fbe a9f5 e1bc 0158 83bc
00000270: d60f 70be fd95 463d 98df c5bd 2101 9f3d
00000280: 2044 823b 78f9 26bd 0dfa 293e b458 123a
00000290: b56f 8e3d 313d a93d 3c5c 5fbd e394 12be
000002a0: 3968 363e 7984 d33d 7c8b 22be a500 013d
000002b0: 85f9 d9bd 1bc0 e0bd 7f50 ba3c 8fb4 01be
000002c0: 539d 193d 9cb8 c13b 704f d03d 18d7 533e
000002d0: 1322 893c d7cf 263e ddab 9c3d 5281 1abd
000002e0: 3a3a 49bd 2f05 8ebd 58a9 debc fac0 2cbc
000002f0: 1a49 513e 07a2 06be 86a7 e6bc 7ec6 df3c
00000300: 8eb2 6abd 345c 843c 0b26 913b 28e6 243d
00000310: 6d35 833d 7c91 b93d 0c36 8dbd 8251 1d3c
00000320: 1e7a 19bd b22b 803d e0d8 9dbd 0b43 2e3e
00000330: 0e71 c8bd a2d7 ed3c 565d 91bd 2fc5 5fbe
00000340: cdc8 0abe e483 c9bd 2470 fb3d c934 a8bc
00000350: e175 d9bd f92a 50bd e9e6 073d 9844 8fbd
00000360: 9211 09be b4a2 1cbd e519 c33d 7d36 e43d
00000370: 2d54 48be 40d2 98bd 2d65 2bbc f98b 723d
00000380: fabe 483d 447b 8cbd 6d56 863b cb06 6d3d
00000390: bb30 a7bd 4758 ddbc 76a6 5f3c 9745 d4bc
000003a0: 367f 033e 4400 6f3c fe45 f9bb 53b4 cabd
000003b0: 5ce5 443d d142 54be dabe 33bd a7fe ea3c
000003c0: fd75 89bd 4c5d 033e b6e1 643d f260 50be
000003d0: b7fd 533c f301 2e3d 9217 abbd 9b6b 8c3d
000003e0: 21e7 05bd 137b 813c f0db 1bbd 1e37 b63d
000003f0: b122 0a3e 0e80 d13d 569c 23bd 491d d5bc
-0.0032482082 -0.16513033 -0.09155581 0.060902543 -0.038863342 0.008308569 0.10905373 0.03916595
0.0018026358 -0.24358796 -0.058268763 0.023919338 -0.182892 -0.21939608 -0.27559578 0.046470992
0.03571578 -0.008003211 0.07560323 0.0025420533 -0.035476483 0.0069344356 -0.023284016 0.0049733324
-0.14827238 -0.08591286 -0.09129376 0.105694756 -0.0716885 -0.07795921 0.16449189 0.09800417
-0.04797849 0.19625476 0.15730408 0.14571716 -0.019447697 -0.052923445 0.051698927 -0.10698834
-0.15892039 0.097429425 -0.013250045 -0.100725204 -0.109235264 -0.17203553 -0.094722144 0.12655433
0.18051115 -0.016547553 0.024239711 -0.004856583 0.009962134 -0.018172814 0.009245607 -0.045673072
-0.11428885 0.036400408 -0.0027162218 -0.10140005 0.032793257 0.14486304 0.12103013 -0.13539012
-0.040812396 0.005543873 -0.074636646 0.010134849 0.019721339 -0.08399467 -0.12031201 -0.029431805
-0.1722334 -0.06116165 -0.0043363706 -0.001244453 -0.02055411 -0.019144919 -0.02034651 0.00024310299
-0.003974191 -0.06516725 0.040120017 0.021352297 0.06724907 -0.107791774 -0.056213807 0.111715265
-0.01864217 0.019844359 0.014631297 0.010693566 0.07047963 0.050977025 -0.068002656 -0.14521328
-0.13566746 -0.027326485 -0.13876083 -0.016357737 0.07338687 0.060225934 0.06568231 0.16836533
-0.13103184 0.16519292 0.09885192 0.028923389 0.09858646 0.072111025 0.14840248 -0.105695955
-0.10554156 0.09102788 -0.072126865 0.054653384 -0.07364858 0.10073535 -0.060384843 0.108341
0.1521661 -0.036941566 -0.05439688 -0.02749726 -0.0546624 0.01996589 0.038014032 -0.026973566
-0.09701408 0.020225277 0.14273602 0.22516629 0.17878412 0.13404362 -0.24438682 -0.06645673
-0.15234827 -0.09692893 0.0148984045 0.05271934 0.119012 0.044564832 -0.17892316 0.09978219
-0.0072121723 0.049252417 -0.028488906 -0.066528104 0.17080095 -0.07485338 -0.072473794 0.019157575
0.10238097 -0.24979381 -0.02758296 -0.016033174 -0.23443541 0.048482884 -0.09661788 0.07763887
0.0039754063 -0.040765256 0.16599293 0.0005582676 0.069549 0.082636245 -0.05453132 -0.14314608
0.17813195 0.103280015 -0.15873522 0.031494755 -0.10643295 -0.10974141 0.022743462 -0.12666534
0.03750355 0.0059118997 0.101714015 0.2068752 0.01673988 0.16290222 0.07649968 -0.037720986
-0.049127795 -0.069345824 -0.027180359 -0.010544056 0.20438042 -0.13147746 -0.028156053 0.027316328
-0.05729919 0.016157247 0.004429584 0.040258557 0.064066745 0.09060952 -0.06895074 0.0096019525
-0.037469976 0.06258334 -0.07707381 0.17017762 -0.097871885 0.029033486 -0.070978805 -0.21852563
-0.13553162 -0.09839609 0.122772485 -0.020532982 -0.10618187 -0.050822232 0.033179197 -0.06995505
-0.13385609 -0.038241103 0.09526423 0.11143205 -0.1956336 -0.07461977 -0.010461134 0.05921552
0.049010254 -0.068594486 0.004099658 0.057867806 -0.081635915 -0.027019633 0.013650527 -0.02591209
0.12841496 0.014587466 -0.0076072207 -0.09897675 0.048070297 -0.20728613 -0.043883182 0.02868588
-0.067119576 0.12828559 0.055879317 -0.20349482 0.012938908 0.042482328 -0.08354105 0.068564616
-0.032691125 0.015805757 -0.038051546 0.088972315 0.13489796 0.102295026 -0.039944015 -0.02601494

encoder.encoder.0.W_h.weight f4 [64, 64]
00000000: 0412 e23d 11ee 43bd 56d1 67bd 6a08 2c3d
00000010: d8c0 21be 4ca1 593e df1c 9bbe 0b1d debc
00000020: 840c 16bd 6aaf 0dbd 20e3 40be bb3d 2a3e
00000030: 99f6 4cbd 4e90 513e 87bf bf3d 1f40 8dbd
00000040: ec59 26bd 5bb6 193e 8dfa ba3b 1f7c 873d
00000050: 1f25 6abe 4ab7 4bbe 25ce 5d3b c105 a1bd
00000060: a53e 2cbe 74f6 d8bd d081 b0bd 2f8e ee3d
00000070: 425f 1dbe a7f6 ce3d ff0d 6e3d 6ad1 1abd
00000080: bd0c e03c b552 883e e474 e43d 47b4 7ebd
00000090: dbb3 3cbe b8f8 0bbc 8416 10be 4075 c3bd
000000a0: c4fe 4dbe ce42 e6bd d106 bcbc a874 2dbe
000000b0: 432f 95be 606b 213e fa3e 1cbe 92f4 883e
000000c0: e4f1 043e dfe5 043d f05a 413e 8037 9ebd
000000d0: 87ac a43d 9c85 c4bd 9a19 563d 63e9 883d
000000e0: de94 a73d cfc3 a93c c17f b5bd 4d59 be3e
000000f0: 52d2 133d 50d3 dabd e40e 43bd 3eaa 2fbe
00000100: 74a8 233e 93ea 1fbe 9321 67be abe2 243d
00000110: 8a51 623e 1cba 89bd cdeb a13d 3393 84be
00000120: 392d 963d 3db9 09be 5998 0e3e 253e 7d3d
00000130: 58ed 1a3d 5f5f 3c3e 6f09 853c e3a2 aebd
00000140: 0aa9 83bd 2f11 97bd 4e40 913e 305e 0abd
00000150: 69df 423e 657c 0cbe 0ceb 9a3d 080e fe3d
00000160: f250 a33b 6195 033e dcff ef3d 11e0 c63d
00000170: bafe 38be 73e1 0a3e 7388 85bc 147b 003d
00000180: 60a8 913d 911a 53be cfe8 c5bd fd81 51bd
00000190: 443b 39be fa98 2c3e 3d32 25be e6ea 593e
000001a0: 805a 58bd 360a 3ebe e356 683d 4750 cabd
000001b0: 9b20 a53d bcaf 483d 5ee6 453e 0231 903c
000001c0: 3683 88be 2144 903e b195 403c 8ec4 2ebe
000001d0: 04b6 33be 31d7 073d 5e34 cabd a673 d13d
000001e0: d960 b7be 15c9 263e 97c9 43bc 18fc 12bc
000001f0: 06c4 773e f8d3 6f3d 792e eb3d e006 25be
00000200: 17ae bb3d 53a2 64be db38 113e 6ae6 483d
00000210: f8a1 a23d 6622 17be 10a9 b7bd 9165 70be
00000220: 98c7 7b3d f869 cdbd eca2 d2bc 9ed8 d9bd
00000230: 64e8 13be fb09 78bc 02db c3bd 1bfe 2ebe
00000240: 9807 6d3e b008 b43c 8dd6 d6bd 38f5 283d
00000250: 8933 8cbd 0470 883c dca8 10be f3a9 13be
00000260: cff3 223e 6a61 ddbd 8e24 6b3e 8132 583e
00000270: 67b5 58bd 6f7f 173e 5d80 1d3e 07ff dabd
00000280: 85d1 7ebe 0de3 cf3d 95ef f5bd e0e8 46be
00000290: 5062 d0bc cdff 923c e723 1e3e ef0c 2dbe
000002a0: 65b9 acbd 37bd 1d3e 54c7 b8bd d78e adbe
000002b0: ded6 3d3e 809a 683c 8a13 7f3d 0a50 8ebe
000002c0: 7639 7abe d920 863d 0d51 88bd ebb3 46bd
000002d0: 4a3b 66bd ec24 09be fbd8 26be cbbc 0c3e
000002e0: 1a8e 23bd fe72 84be a1dc a93d a4f6 ef3d
000002f0: 67ce 63be 3f94 383e 5863 393c 7638 14be
00000300: f6d4 d83b 05d4 573e 380a 26be 9933 9c3e
00000310: 8b31 efbd 8d48 06bd 5134 85be 583e 8d3e
00000320: 78c3 19be 1db5 04be 2b01 f63c 6e1a 7dbd
00000330: 18d3 96be 286e c2bc 864c 083e a989 353e
00000340: 51aa 963c 7167 1f3e 5723 56bd be1f 0dbe
00000350: ac40 433e 2a41 3bbd 5881 183e a56c 9ebe
00000360: e54b 70bc fef5 9bbd 6b72 053c d50e b63d
00000370: f32c 96be b1d6 143e aaf8 96bd c52d cabc
00000380: 6cfa 9f3e bc16 c1bd 340c e33c cd04 f1bd
00000390: 41ce 1b3e 1c8d 843d 2b20 763d 01ea 8abd
000003a0: a97c 9fbd c7e0 acbc 3819 2bbe 7914 353d
000003b0: b359 0dbe ad72 3d3e 00f4 283e 67bf fcbd
000003c0: 07aa 273d 2ffb 3abd 86df 8e3d df02 f5bc
000003d0: cdb0 2fbd d852 c73e 5f46 003e b797 52be
000003e0: 858f d0bd 1f5c 1abc 3311 543c c31d 9ebc
000003f0: cb52 a23d b396 ab3c 9ba9 603e 66e5 57be
0.110385925 -0.04783446 -0.056596123 0.04200021 -0.1579622 0.21252936 -0.30295464 -0.027113458
-0.03663303 -0.034591116 -0.18836641 0.16625111 -0.05003986 0.20465204 0.09362703 -0.06896996
-0.0406131 0.1501097 0.0057061375 0.06615471 -0.22865723 -0.19894138 0.0033844796 -0.078624256
-0.16820772 -0.10593882 -0.0861851 0.11648213 -0.15368369 0.10105639 0.058118816 -0.03779737
0.027349824 0.266256 0.111551076 -0.062183645 -0.18427984 -0.008543186 -0.14071089 -0.09543848
-0.20116717 -0.11243211 -0.022952469 -0.16939032 -0.2913762 0.15763617 -0.15258399 0.26749092
0.12982899 0.032445785 0.18882346 -0.077254295 0.080407195 -0.095957965 0.05227051 0.0668514
0.08182691 0.020723252 -0.08862258 0.37177506 0.03608925 -0.10684836 -0.047621623 -0.17154786
0.15982229 -0.15616827 -0.22571401 0.04025523 0.22101417 -0.06724951 0.079063036 -0.25893554
0.07332844 -0.13449569 0.13925304 0.061826844 0.037824005 0.18395756 0.01623985 -0.08527162
-0.06428726 -0.073763244 0.28369373 -0.03378123 0.19030537 -0.13719328 0.07564363 0.1240502
0.0049840147 0.12849952 0.11718723 0.09710706 -0.1806592 0.13562565 -0.016300416 0.031367376
0.07112193 -0.20615603 -0.09663545 -0.051149357 -0.18089014 0.16855231 -0.16132446 0.21281013
-0.052820683 -0.18558583 0.056723487 -0.09878593 0.080628596 0.04899572 0.1932616 0.017601494
-0.26662606 0.28176978 0.011754439 -0.17067167 -0.17549902 0.033164207 -0.098732695 0.10227136
-0.35816076 0.16287644 -0.011949918 -0.008971237 0.24195871 0.05855176 0.11483473 -0.16115904
0.091640644 -0.22327547 0.14181845 0.049047865 0.07941049 -0.14759216 -0.08967793 -0.23476245
0.061469644 -0.100299776 -0.025712453 -0.106370196 -0.14444119 -0.015139098 -0.09563257 -0.17089121
0.23147428 0.021976799 -0.10490141 0.041249484 -0.06845767 0.016654976 -0.14126915 -0.14420299
0.15913318 -0.10809596 0.22963163 0.21113016 -0.052907374 0.14794706 0.15380998 -0.10693174
-0.24884613 0.101507284 -0.12008587 -0.19424772 -0.025437504 0.017944241 0.15443383 -0.16899465
-0.08433799 0.15404211 -0.09022394 -0.3389804 0.18538997 0.014196992 0.062274493 -0.2779544
-0.24435982 0.06549234 -0.06656084 -0.048511427 -0.056208886 -0.13392991 -0.16293709 0.13743894
-0.03993044 -0.25868982 0.08294035 0.11716965 -0.22246705 0.18025301 0.011315189 -0.14474663
0.006617184 0.21076973 -0.16214836 0.30508116 -0.116793714 -0.032784034 -0.26016477 0.27586627
-0.15015972 -0.12959714 0.030029854 -0.061792783 -0.29457927 -0.023734167 0.13310441 0.17728294
0.01839176 0.15566804 -0.052279796 -0.1378164 0.19067639 -0.045716442 0.1489309 -0.30942264
-0.014666532 -0.07615279 0.008144955 0.08889548 -0.2933117 0.14535023 -0.07371648 -0.024680028
0.31245744 -0.09428164 0.02771578 -0.11768494 0.15215398 0.06472227 0.06008927 -0.06782914
-0.07787449 -0.021103276 -0.16708839 0.044208977 -0.13803749 0.18500777 0.16499329 -0.123411946
0.040933635 -0.045649704 0.069762275 -0.029908596 -0.04289322 0.38930392 0.12526844 -0.20565687
-0.10183624 -0.009421377 0.012943554 -0.0193013 0.07925948 0.020945882 0.219397 -0.21083602

encoder.encoder.0.W_o.weight f4 [64, 197]
00000000: ad32 4abd 6e34 fcbc 941a 323e 05ca e9bd
00000010: 32e9 c83c 0054 023e 4670 5c3c 8a77 07bc
00000020: ce93 9a3d 4509 9c3d 611e 5dbd 40b8 153d
00000030: 3d73 b03d c871 093d 98aa 1fbd 7206 3fbd
00000040: e445 423e c399 763c 7c34 b8bd ede0 2ebd
00000050: 5e02 aabd d8fc 82bc 7158 04bb 58a8 86bd
00000060: a185 a1bd 668f 733c 6d15 2c3e b5bf 693c
00000070: 4a1b d0bd b66d e9bd c759 643d 1b08 fbbd
00000080: 0680 ecbc 5254 513e 017e 2d3c 0543 88bd
00000090: 9926 e0bc 2bf4 28bd e4cf 03be c630 363d
000000a0: d7fe f13d b925 a6bd 90e4 803c bf1c 8d3d
000000b0: cc11 1f3e 017a 883d bed7 45be c0ca 44bd
000000c0: 9a9d 383d cc6e 11bd def7 eabc e787 cc3d
000000d0: 31bb 133d 0087 be3b c01a f23d 0a61 27be
000000e0: 77cf 703d 03e2 56bd c5da 82bd 3917 7dbd
000000f0: 6967 b9bc 1b28 b7bd 3355 053d 3604 ca3c
00000100: b0b5 c73d c77f 67bb 8c7b fb3c 1d9d bbbd
00000110: 3c82 2abc a33a 48bc e458 043d 6602 793d
00000120: 9215 283d 164c 96bb a65a 8cbd 31a5 cdbc
00000130: 0924 233d ab67 22bd 0764 083e f2af 55be
00000140: 7ac2 d6bd bbc1 823d 1d60 fc3d 03c1 71bd
00000150: 4945 a9bd bf3b f83c 979e 4c3d a1f1 973c
00000160: 1d51 013d 6f1a cabd e731 89bd b5fd 0e3b
00000170: b986 7fba 0db6 5c3b d434 fd3c 0a09 2abd
00000180: dc74 c7bb 1045 2e3e 557b 143e 6d4d 0bbd
00000190: be50 7dbd ed80 1bbe 9e98 063d c05c e9bb
000001a0: fe73 df3d e5a8 373e bc5f 5e3d 4a19 643c
000001b0: d1fa ac3d 228e 0bbe 0145 12be 6339 b63d
000001c0: ae2c a7bd e30b 49bd 88aa acbd 01ee b2bd
000001d0: f9ae e93d 9315 993d 82e4 25bd a796 53bd
000001e0: c1ec 303d 2465 9d3d 065a eabb ef33 ec3d
000001f0: 738e 3c3d ce17 82bd 9a97 c43d 1a65 b6bb
00000200: 80d3 babd 6971 233e 5a5f 833d b3ba 10bc
00000210: 5966 d83b f755 4e3c 84c0 343d 4964 87bc
00000220: 525c 04bd 513c 3dbd 75d5 313d 971d 68bd
00000230: a242 963d 10cc 3e3d 1b8c 46bb a34b 00be
00000240: 233e 06be f537 e6bc 00fc 2f3d 053e e83c
00000250: 6650 12be 6a40 2dbe d74b 91bd 3cc3 b4bd
00000260: 6413 5fbe e6c3 4e3d 3512 da3d 76e2 60bc
00000270: 2ac6 11bd 2bbb 843d 5bfe 943d 5473 28bd
00000280: 7160 403e 98da 013d 1d7c a4bc dc33 0ebe
00000290: 341d 38bd 8ddf 23bb 17b5 e3bd 94fc 0d3c
000002a0: 296a 563d 16c5 d6bb b8b4 54bb 720c 2abe
000002b0: f414 9cbd 89bf d43c 5548 283e 977c 353c
000002c0: 7d01 4d3d db91 483c 7cf1 35be 0fce 743d
000002d0: 4354 f1bd c9d8 77be eb61 1a3d 5d76 1bbd
000002e0: e9d8 63bd bf46 ff3d 1123 1dbd 50c1 a4bd
000002f0: df8a 1abd 77da 36be 256a b2bd 65cd da3b
00000300: 50be cf3d 2c39 a1bd 1d86 a23c a220 aebb
00000310: 70c8 903d 3d2d b23d 64e9 04bc d08a ddbd
00000320: fa73 263b 1833 e03d e532 3abd d7d3 24bd
00000330: 480d b5bd 532b c9bc 975b 8d3d eed6 413c
00000340: 7525 a1bd 15af 3f3e 27c2 123e a063 6abd
00000350: 8b8e 333d 6e12 f9bd 2775 843d 607c c8bd
00000360: a7bd 65bc 3564 9fbd 2c74 fa3d 7510 e0bd
00000370: 30f4 2d3d 036a 4cbc f65c 0bbc 0a8a 02bd
00000380: 5f1c debd ff5a f53c 5972 30bd 1654 5e3c
00000390: 5096 053e 4e46 2cbd 2d8a dd3c bb24 70bd
000003a0: e8b1 8c3c a27b e8bc 1407 e93c 6c46 41bd
000003b0: 561e f1bc 248b b63c 2061 a03b 4e76 303e
000003c0: 142f b23d cdde c13b 3f29 c93d fa72 18bc
000003d0: 4fb7 5d3d 47dd 49bd 03a9 393d 446f 5d3d
000003e0: 7270 f03d 3b9c 1abe 7e96 b73c 9578 493c
000003f0: 5e1a f73d 1051 0e3e 7e9a c93c 96a0 753c
-0.049364734 -0.03078672 0.17392951 -0.11415485 0.024525259 0.12727356 0.013454502 -0.008268246
0.07547723 0.076189555 -0.05398405 0.036552668 0.0861573 0.033555776 -0.03898105 -0.046637006
0.18971974 0.015051308 -0.089943856 -0.042694975 -0.08301233 -0.015989706 -0.0020194317 -0.06575078
-0.07886816 0.014865732 0.16805048 0.014266898 -0.10161455 -0.11397879 0.05574968 -0.12257405
-0.02886964 0.20442322 0.010589124 -0.06653408 -0.027362155 -0.04124848 -0.12872273 0.044480108
0.11816185 -0.08112664 0.015733987 0.068902485 0.15534133 0.066638954 -0.1932058 -0.04804492
0.045072176 -0.035506055 -0.028682645 0.09986859 0.03606719 0.005814433 0.118215084 -0.16345611
0.058791604 -0.052461635 -0.06389383 -0.061789725 -0.022632318 -0.089431964 0.032551955 0.024660211
0.09751451 -0.0035323964 0.03069856 -0.09160826 -0.010407027 -0.012221011 0.032311335 0.060793303
0.041036196 -0.004586707 -0.06853227 -0.025103183 0.039829288 -0.039649647 0.13319407 -0.20867899
-0.10486312 0.063846074 0.1232302 -0.05902196 -0.08265168 0.030301927 0.04995593 0.018547835
0.031571496 -0.09868323 -0.06698971 0.0021818702 -0.0009747553 0.0033677847 0.03090898 -0.041512527
-0.006086929 0.17018533 0.14500172 -0.034009386 -0.06184458 -0.151859 0.03286039 -0.0071216524
0.10910796 0.17935522 0.05429052 0.013922045 0.08446277 -0.13628438 -0.14284135 0.088976644
-0.08162819 -0.0490836 -0.08430964 -0.08736802 0.114103265 0.07474818 -0.040501125 -0.051657345
0.043194536 0.07685307 -0.007151845 0.11533343 0.046034288 -0.06352197 0.09599228 -0.0055662515
-0.09122372 0.15961231 0.06414671 -0.008833575 0.0066039977 0.012593738 0.04412891 -0.016527312
-0.032314606 -0.0462001 0.04341646 -0.056668844 0.07336928 0.046581328 -0.0030295912 -0.12528853
-0.13109641 -0.028102854 0.042964935 0.028349886 -0.14288482 -0.16919103 -0.070945434 -0.088263005
-0.2178474 0.050479792 0.10648004 -0.0137258675 -0.035589375 0.06481012 0.07275077 -0.04112561
0.1878679 0.031702608 -0.020078713 -0.1388697 -0.044949725 -0.0025005073 -0.111185245 0.008666176
0.052347336 -0.006554256 -0.003245635 -0.1660631 -0.07621184 0.025970237 0.16433842 0.011077068
0.050050247 0.012241806 -0.177679 0.059766825 -0.1178365 -0.2420379 0.037691038 -0.037954677
-0.055626784 0.124646656 -0.03836352 -0.08044684 -0.037730094 -0.17856775 -0.08711652 0.006677317
0.10143721 -0.07872233 0.01983934 -0.0053139487 0.070694804 0.08700035 -0.008112285 -0.10817492
0.0025398717 0.10947245 -0.045458693 -0.04024109 -0.08840424 -0.024556791 0.06902235 0.011831028
-0.078684725 0.18719132 0.14331876 -0.057223916 0.04383711 -0.12161718 0.064676575 -0.09789348
-0.014022267 -0.07782785 0.12229189 -0.10940639 0.042469203 -0.012476447 -0.00850605 -0.031869926
-0.10845255 0.029950617 -0.0430778 0.013569852 0.13045621 -0.042059235 0.027043426 -0.05862878
0.017174676 -0.028379265 0.028445758 -0.0471863 -0.02943341 0.022283144 0.0048943907 0.1723263
0.08700386 0.0059164525 0.0982232 -0.009304756 0.054129895 -0.049283292 0.045327198 0.05406119
0.11740197 -0.1509866 0.022410627 0.012296815 0.12065576 0.1389811 0.0246098 0.0149919

encoder.encoder.0.W_o.bias f4 [64]
00000000: 9767 67bc cb8b 5cbc 959b ea3b 6c3d 2c3d
00000010: ac32 eeba 62d5 7b3c 9001 22b8 cf94 9b3b
00000020: b7d9 81bc e49e a5bc 8b54 463d 2daa eb3a
00000030: f163 29bd 2e60 353c 382c a2bc 0943 a7bb
00000040: 2753 4fbb c971 c83b 0760 04bd 2188 333c
00000050: b1ee 69bc 908a b43b 9c83 393d 58ce 023d
00000060: e189 4b3b fa7e d7ba 09ae 3bbb 3b88 163d
00000070: bffa 403b 0ee2 37bb 6456 e73b 15ce ce3c
00000080: 6737 d7bc f3b4 e7bc d73b 823b ca99 413c
00000090: 1db8 d5bb db5d 16bb 9859 97bc 2047 cf3b
000000a0: 3911 b638 1614 063b 2d18 663c 0996 843c
000000b0: b15c d6bc 24e5 d83b b4d3 f43b 888a 203a
000000c0: d9a6 dcbb 00f9 4b3b 201b db3c 2f7e ee3c
000000d0: 6466 af3c 86be 4bb9 2817 37bd 5a04 fdbb
000000e0: 6597 aa3c 728a b13b c79a efb8 f321 e5bb
000000f0: c9ba 8e3c ca84 a3bc ceab c2bc 1c3d 0d3c
-0.014123819 -0.013461064 0.00715966 0.042050764 -0.001817306 0.015370699 -3.8625265e-05 0.004747964
-0.015850885 -0.020217367 0.04842047 0.0017979793 -0.041355077 0.011070294 -0.019796476 -0.0051044268
-0.0031635256 0.00611708 -0.03231814 0.010957749 -0.0142781 0.005509682 0.045291528 0.031935066
0.0031057524 -0.001644104 -0.0028637669 0.036751013 0.0029446331 -0.0028058323 0.007059859 0.025244752
-0.026271535 -0.028284525 0.0039744186 0.011816451 -0.006522192 -0.0022944126 -0.018475339 0.0063256174
8.681644e-05 0.002045875 0.01404385 0.016184824 -0.026167246 0.0066191126 0.007471526 0.00061241584
-0.006733757 0.0031123757 0.026746333 0.029112903 0.021411128 -0.00019430564 -0.044699818 -0.007721466
0.020824144 0.0054181153 -0.000114252376 -0.0069925725 0.01742305 -0.01996078 -0.023763563 0.008620527

ffn.1.weight f4 [64, 264]
00000000: dd8a aa3d 438e 9f3d b5cc c0bd f9fc 9cbd
00000010: 76e7 f93d 9240 3c3e cd47 423d f34b debc
00000020: 8a79 bcbb 5fb1 db3c ef1e 143e ea1c a73d
00000030: e068 d7bc df57 383e 1e25 2c3d 419a 46bd
00000040: 8ddc 98bd b764 36bb 7ab0 653d 992f 03bd
00000050: 417b 403c 4249 d0bd a66a 293c a466 fb3b
00000060: d91b e53d 846a 95bb 3693 b93c a789 ca3d
00000070: 9fb3 cb3c 2c99 ea3b bc48 d63c e93e 46bd
00000080: 42b6 f63c dc13 923d 80d6 25be 5ffb e8bd
00000090: 1b95 78be 44b8 8b3d eddd 7f3d 4e2f 01be
000000a0: ec1e c1bd a2cf 513c 8d7a c0bd 14a3 5ebd
000000b0: e82f 9f3d 5e39 fc3c b488 a93d c29b ccbc
000000c0: f81e 693d be38 73bd 034e 673d 461e c7bc
000000d0: 1f29 e7bc 6df6 04bd b1d4 d9bc 04db bbbd
000000e0: ead3 46bc c246 4abd 01d5 4bbd de0e 833d
000000f0: 5c8b d5bc 2211 0d3d de9a 583d b20a 933d
00000100: fd9d ae3d 01d3 0e3d 5a69 77bd 314e b6bd
00000110: bbf3 29be 8200 24bd 4a14 93bd b7dd e3bd
00000120: 1bd0 c1bc 63ca 94bd 42f4 0b3e f743 2a3c
00000130: f4b3 083e caab c63d b55b 0d3c 93bd 673c
00000140: c4fd 72bd a807 8a3d 3708 c63d 85ef b0bc
00000150: b4de 7a3d 80d5 653c aa23 6bbd 1cac 16bc
00000160: fec6 403d 7baa 01be 435b 6b3d d1ba 813c
00000170: e2d4 ca3c 3369 603d 23bd 18bd 6b27 0cbc
00000180: e313 0ebe ac69 833d 7879 3abe 33be 17be
00000190: f3c3 92bd ca4d babd 9bb8 a0bd 1924 38bd
000001a0: e975 efbd a771 423d 3bdb a63d 6809 ecbc
000001b0: 362a 543d 2c09 b63d 1ea4 cf3c ee88 ab3c
000001c0: 0943 d5bd ed73 4cbd cf45 343c 3d82 25bd
000001d0: 6cd7 c1bb b5a3 c93d 665f 12bc 60db 403c
000001e0: 64c7 1c3e 3708 e1bc e033 88bd 6df4 27bb
000001f0: 9655 26bb fad5 2f3d eb27 7bbe 8f97 043e
00000200: 9011 06bb 0489 3fbc bfa3 e6bd 2cb4 01be
00000210: f506 9abd f9e4 e4bd a684 ff3d 9a35 e2bc
00000220: fc5e 8fbc d903 843d 6a35 1bbd a35a 23ba
00000230: 8eba 3bbd 6880 c03d 0f47 c4bc 5137 843c
00000240: cfe6 bd3d 35de 773d ec5d ff3d d91e 653d
00000250: 43e0 fc3b 5084 dd3d 9461 39bd 372c 0c3d
00000260: 26ee 4abd f11a 133d 9024 f3bc 3744 88bb
00000270: 32a7 833d b4b4 703d 3270 3bbd 30b5 e33c
00000280: 08cb a1bd c81f ce3d edc4 1e3d c968 f93c
00000290: d90d 21bc 7937 f13d e667 0cba 8bdc ffbc
000002a0: 2662 183d 1ef8 cebd cc03 073d c5be 4f3e
000002b0: a3b5 063e c53d f63d aa6d a73b 60f3 28bd
000002c0: f8d2 59bd 08af b1ba b360 34be c2ac 7abd
000002d0: 8814 bebd 4cd1 e23d 1452 0dbe a43e f53c
000002e0: 9549 a03d 44de 9fbd 2234 47bd 2fee 89bd
000002f0: 6734 983c 9823 15bd 85db f9bc f4eb 4cbd
00000300: 089f b33b 3163 6b3d 9719 37bd 71c6 b6bc
00000310: c6aa 22be 4467 8fbb 5567 87bd 54d4 793d
00000320: c2bf e4bd 2ea7 d2bc 50da 39bd 58ae 53bd
00000330: a049 583d 9211 333d cf99 08be cdde 58bd
00000340: dfdb 27bb 8757 ed3c 8632 a7bd 8a7b e6bd
00000350: e512 003e 628a 3cbe 112b f4bd b48b 6d3e
00000360: 69b3 34bd 579a 4e3c 4c93 ccbd 60f5 e23b
00000370: ca2f 343e e802 86bd bcf6 973a 8574 3cbd
00000380: b2a9 f3bd 28d9 21bc 34ff dabd a23e 40bc
00000390: 552f a9bd 897a 23be c8a1 663d 5add fd3c
000003a0: 1cb0 b03d 69b8 b33b ad5c d13c 8f0e 743c
000003b0: 386f 513d 6118 ee3c 0a9f 2c3d 8034 673d
000003c0: 1683 01be 9236 6abd 579c ac3d 9a27 13be
000003d0: 7167 7ebd 8136 9b3d b56f 92bd 270e fabc
000003e0: f6f2 3fbe 3429 04be b6f7 f53d f981 fbbc
000003f0: 3cc9 483d ae1a 86bd 19d6 b0bd e8c8 41bd
0.08327267 0.07790806 -0.09414045 -0.07665438 0.12202351 0.18384007 0.047431756 -0.027135825
-0.0057517933 0.026817976 0.14464925 0.08159812 -0.026295125 0.1800227 0.042027585 -0.04848695
-0.07463942 -0.0027831027 0.056076504 -0.032027815 0.011748136 -0.10170223 0.010340368 0.007672148
0.11186952 -0.004559817 0.022653203 0.09889536 0.024865923 0.007159373 0.02615773 -0.04839984
0.030116204 0.07132694 -0.16195107 -0.1137607 -0.24275629 0.06822255 0.062467504 -0.12615702
-0.09429726 0.012805851 -0.09398375 -0.054354742 0.07772809 0.030789074 0.08278027 -0.024976615
0.0569143 -0.059380285 0.056470882 -0.024306428 -0.02821785 -0.032461572 -0.026590677 -0.09172633
-0.012135485 -0.049383886 -0.049763683 0.0639932 -0.026067428 0.034440167 0.052882068 0.07179774
0.085262276 0.034869198 -0.060403205 -0.089016326 -0.16596882 -0.040039547 -0.07181604 -0.11126273
-0.023658803 -0.07265165 0.13667396 0.010392181 0.13349897 0.09700735 0.008627822 0.014144319
-0.05932404 0.067397416 0.096695356 -0.021598587 0.061247543 0.014027953 -0.05740706 -0.0091963075
0.047064774 -0.1266269 0.05746008 0.015836151 0.024759714 0.054787826 -0.03728975 -0.00855432
-0.13874774 0.0641664 -0.18210399 -0.14818649 -0.071662806 -0.09096868 -0.07847711 -0.0449563
-0.116924115 0.04747167 0.08147284 -0.028813079 0.051798068 0.08888468 0.025346812 0.020939317
-0.104131766 -0.049915243 0.011002972 -0.040407408 -0.005915573 0.09845678 -0.008933878 0.011771053
0.15310436 -0.027469737 -0.06650519 -0.0025627867 -0.0025380603 0.042928673 -0.24526946 0.1294844
-0.0020457245 -0.011690382 -0.11261701 -0.12666386 -0.07520858 -0.111764856 0.124764726 -0.02761345
-0.017501347 0.064460464 -0.037892736 -0.00062314625 -0.04583221 0.093994915 -0.023959665 0.016139658
0.09272539 0.060514648 0.12469086 0.05593762 0.007717164 0.10816252 -0.045259073 0.034221854
-0.049543522 0.035914365 -0.02968052 -0.0041585225 0.06428374 0.058766082 -0.045761295 0.027796358
-0.07900053 0.100646555 0.03876202 0.030445473 -0.009829962 0.11778159 -0.0005356058 -0.031233093
0.037202977 -0.10105918 0.032962605 0.20287617 0.13155226 0.120235 0.0051095085 -0.041247725
-0.05317971 -0.0013556192 -0.17615013 -0.06119991 -0.0928126 0.110750765 -0.13800842 0.029937096
0.07826535 -0.07806066 -0.048633702 -0.06734883 0.018579675 -0.036410898 -0.030500183 -0.05002971
0.0054816045 0.057467643 -0.04470214 -0.022311421 -0.15885457 -0.004376324 -0.06611506 0.060993508
-0.111693874 -0.025714483 -0.045374215 -0.05167994 0.05280459 0.04371793 -0.13339923 -0.052946854
-0.002561323 0.0289724 -0.081639335 -0.11254032 0.12507208 -0.18412164 -0.11922277 0.23197824
-0.04411641 0.01261004 -0.09989032 0.0069262236 0.17596355 -0.06543523 0.0011593918 -0.04600956
-0.11897601 -0.009878434 -0.106932074 -0.011733683 -0.08260981 -0.15964712 0.05630663 0.030989338
0.0862734 0.00548463 0.025556887 0.014896049 0.051131457 0.02906436 0.04214386 0.056446552
-0.12647662 -0.05718095 0.08428257 -0.14370576 -0.06211037 0.07578755 -0.07150213 -0.030524326
-0.18745026 -0.12906343 0.12010138 -0.030701624 0.049020037 -0.065480575 -0.08634586 -0.04731074

ffn.1.bias f4 [64]
00000000: a091 cdbb bf77 cdbc 7430 033b b39b debb
00000010: 177e 0d3d 4d01 a33c e1b8 cebb d05a c03c
00000020: c11f 003d fe46 853c c98e e1bc aabe 9fba
00000030: 4c8e a03c 6cb1 e83c ee9f 5ebc 759b bdbc
00000040: 7335 82bb d0fb 81bc a588 6a3c 00d4 653c
00000050: e6c6 203d 2039 7d3c bb3d ea3a b44d c03b
00000060: 0b30 283d 3852 f8bc 0cd6 0c3d bc92 3ebc
00000070: 5874 10b7 8ba6 9dbc 1df7 463c bc20 e13b
00000080: 62e1 8fbc 716d adbb 0595 a03c 1c65 1f3c
00000090: 611e e1bc 4d89 823c 5c88 8a3c 5730 7c3c
000000a0: 5764 86bc eb82 8f3c 1c4d 263c f4cc f4bb
000000b0: 7992 c23c 10f7 caba 249c 64bc 8ad9 f63c
000000c0: c351 e83c 817e eb3c b090 83bc 4839 5cbc
000000d0: 82d3 1abc 57e2 8cbc 3667 9dbb ca16 11bc
000000e0: f1b6 71bc dafb 053d bf16 66bc 21a1 7339
000000f0: 1115 243d 0784 503c fcc4 93bc 80ca e33c
-0.0062734634 -0.025081513 0.0020017894 -0.006793463 0.034544077 0.019898081 -0.0063086604 0.023480803
0.031280283 0.016269203 -0.027533906 -0.001218756 0.019599102 0.028404914 -0.013587935 -0.023145417
-0.003973657 -0.015867144 0.014314805 0.0140275955 0.039252184 0.015455514 0.001787118 0.005868638
0.041061442 -0.030312642 0.03438382 -0.011631664 -8.610157e-06 -0.019244453 0.012143877 0.0068703573
-0.017563526 -0.0052925874 0.019602308 0.009728696 -0.027480306 0.01593461 0.016910724 0.0153923845
-0.016405268 0.017518481 0.01015022 -0.0074707214 0.023751484 -0.0015485007 -0.013953242 0.030133028
0.0283593 0.028746845 -0.016060203 -0.013441391 -0.009449841 -0.017197771 -0.0048035635 -0.008855531
-0.014753089 0.032710887 -0.014043509 0.00023234311 0.040059153 0.01272679 -0.018038265 0.02780652

ffn.4.weight f4 [1, 64]
00000000: 05c2 4c3e 8bcc 363e a877 b6bd 9429 bb3e
00000010: f600 15be e76c 43be c533 693e 556e 82be
00000020: 2950 09be a952 77be a267 103e 967b eb3d
00000030: 8814 b8be b683 47be 2c4b 163e 7cea f33e
00000040: 83bf 6d3e 7585 1a3e f3e8 86bd f2f8 bcbd
00000050: fb3f ffbd 1850 31be e863 5fbe f7aa 0abf
00000060: 1300 bdbe 6755 ac3e 72a7 e6bd 0805 873e
00000070: 4b16 173e 932a 8c3e a453 4b3e 21f8 04be
00000080: bb5b 8d3e f0e5 923e 3bfb 1abe 4c48 d5bd
00000090: 7fd0 ae3e b6e0 0fbe 8b09 bcbe 95a1 87be
000000a0: 6a07 003e 5773 9cbe 2c9d 77be 177d 9b3e
000000b0: 18a1 2abe 93b5 373e 373b 603e ff29 76be
000000c0: 306d 3fbe 0cb4 7bbe ce26 bc3d 36f9 ef3d
000000d0: f706 323e 2525 8a3e 8e6e d33e 5028 373e
000000e0: 90d2 fa3d 3149 0fbe 3862 ce3d 7c37 8d3e
000000f0: 960d bebe a50b f8bd d63f ad3e d3ed 51be
0.19995888 0.17851464 -0.08909541 0.3655516 -0.14551148 -0.19084512 0.22773655 -0.25474802
-0.13409485 -0.24152626 0.14102033 0.114981815 -0.35953164 -0.19483837 0.14677113 0.47639835
0.23217587 0.15089972 -0.065874 -0.0922717 -0.12463375 -0.1731571 -0.21815455 -0.5416712
-0.3691412 0.33658907 -0.112624064 0.26371026 0.14754598 0.27376232 0.19856125 -0.12985279
0.27609047 0.28691053 -0.151349 -0.1041418 0.34143445 -0.14050564 -0.3672603 -0.26490465
0.12502828 -0.30556747 -0.2418105 0.30368873 -0.16663015 0.17940359 0.21897589 -0.24039458
-0.18693995 -0.24580401 0.09187089 0.11717455 0.1738547 0.26981464 0.41295284 0.17886472
0.12247193 -0.13992764 0.100773275 0.27581394 -0.3711974 -0.12111596 0.33837765 -0.20500879
