githubproject/lbdd/amse_build/mmodel14/checkpoints4/fold_2/model_0/model.pt (torch, 127883 bytes, 8 tensors)

encoder.encoder.0.cached_zero_vector f4 [64]
00000000: 0000 0000 0000 0000 0000 0000 0000 0000
00000010: 0000 0000 0000 0000 0000 0000 0000 0000
00000020: 0000 0000 0000 0000 0000 0000 0000 0000
00000030: 0000 0000 0000 0000 0000 0000 0000 0000
00000040: 0000 0000 0000 0000 0000 0000 0000 0000
00000050: 0000 0000 0000 0000 0000 0000 0000 0000
00000060: 0000 0000 0000 0000 0000 0000 0000 0000
00000070: 0000 0000 0000 0000 0000 0000 0000 0000
00000080: 0000 0000 0000 0000 0000 0000 0000 0000
00000090: 0000 0000 0000 0000 0000 0000 0000 0000
000000a0: 0000 0000 0000 0000 0000 0000 0000 0000
000000b0: 0000 0000 0000 0000 0000 0000 0000 0000
000000c0: 0000 0000 0000 0000 0000 0000 0000 0000
000000d0: 0000 0000 0000 0000 0000 0000 0000 0000
000000e0: 0000 0000 0000 0000 0000 0000 0000 0000
000000f0: 0000 0000 0000 0000 0000 0000 0000 0000
0.0 0.0 0.0 0.0 0.0 0.0 0.0 0.0
0.0 0.0 0.0 0.0 0.0 0.0 0.0 0.0
0.0 0.0 0.0 0.0 0.0 0.0 0.0 0.0
0.0 0.0 0.0 0.0 0.0 0.0 0.0 0.0
0.0 0.0 0.0 0.0 0.0 0.0 0.0 0.0
0.0 0.0 0.0 0.0 0.0 0.0 0.0 0.0
0.0 0.0 0.0 0.0 0.0 0.0 0.0 0.0
0.0 0.0 0.0 0.0 0.0 0.0 0.0 0.0

encoder.encoder.0.W_i.weight f4 [64, 147]
00000000: e996 93bd 5126 4dbd ae90 22bd ba64 8d3d
00000010: 9a46 9dbc a7f4 47be eb81 e43d 6ddc 2cbe
00000020: e2d3 3f3d 18a4 32be e07f 873d 7c6d 64bd
00000030: 3916 2ebd 65a7 46bd 26cf 853d 7920 2dbd
00000040: 2d53 fa3d a019 c73c e14e 41bd 3b12 e03c
00000050: 7dce 6d3d 1c5b c6bd aea4 66be 27e4 f63d
00000060: 3615 d33d 7c32 ddbd 371a 233c a23f 953d
00000070: 74f2 3ebd 8154 f93d 3830 13bc f45b 81be
00000080: fa63 83bc 785e 883d d759 c0bb 05ce 94bd
00000090: 2d8b 26bd 1504 353c d79b 02be b6e3 b6bc
000000a0: fc46 b83d 915f 843b a24c e5bd d078 a3bd
000000b0: 460e 8aba 135b 153d 93db 0ebe 9642 803e
000000c0: 4de6 6fbc bd26 f7bd f7b9 1a3e 3f24 ce3c
000000d0: 393a c4bc 5d5b 26be c098 5c3d 2cf3 88bd
000000e0: d7b8 d13d 0421 cabd 33c2 e6bd a6db f73d
000000f0: 4cd0 cebc 6940 2cbe 0c49 0c3d c314 69bd
00000100: af62 e03d 2794 553e c993 b13d 96ba 633d
00000110: e45b 93bd eec1 0b3d 95a1 1abe 54d8 023e
00000120: 1691 36be 7fc4 a2bd e37b 343e 0d2f 543d
00000130: 00a8 85bd 5c52 063e f149 e33c 6cee 673c
00000140: e2a8 84bd c10b 403e 3560 d03d b4f4 253c
00000150: 9dd8 003e 9a82 c23d f65c 183e b4d7 b03c
00000160: 2f2c 3c3e 50cb 4ebd 3a66 cdbd fce8 963b
00000170: c959 7ebd 7471 3ebd f1de 96bd 7b4e 30be
00000180: 5e74 d93c bdbc bb3b 4db4 663c d678 e4bd
00000190: 1c8c e03d eba7 7b3d 889a 93bc f999 0dbe
000001a0: e8ae 583e 83c7 253e 8cd3 903c 2f94 3fbd
000001b0: b312 81be 0a9e ae3d 91f6 673c 2454 2a3d
000001c0: d477 7a3c 2856 c13d ac5b 313d 0182 61bd
000001d0: b351 3d3e 9d5f b03d bc70 273e e950 68be
000001e0: 59d1 663d 66e7 b13e fd45 c6bd 21ff 983d
000001f0: 7e2b e0ba 26cf c03d a7a2 4f3e 7d17 903d
00000200: 2fa7 0fbe e290 c43d aa00 1c3d 5110 a9be
00000210: d3f7 783d 9622 05bd 2451 033e 5a4b 073c
00000220: 8148 84bd a194 03be 3e2b a73d a9bc b3be
00000230: cf44 7dbe ce26 843d 510e 38bd 2cf2 b93d
00000240: f478 38bd 932d 23be bfd0 863d d370 9dbc
00000250: 2c68 64be b054 c23d cbef 2a3d 2c9a b33d
00000260: fa05 2e3d 1f9f 85bc 4159 173e 3919 2abc
00000270: 3324 d53d 4f8c 1cbd e4a2 3d3a d27b 803c
00000280: a8c1 323d 0780 c83c 044c 2cbe 5901 e6bd
00000290: 00a6 57be 4f88 ae3d 22d3 04bd 2da3 08be
000002a0: 0886 84bc 42b3 57bd f9d6 2bbe 9ede 823e
000002b0: 2973 1fbe 3421 06bd 7af7 223e 7e04 e83b
000002c0: aede 1c3e 6736 4bbb 8eb4 14bd 0782 8c3d
000002d0: 4ef5 943e dcea 98bd c933 083c aaa3 c13c
000002e0: 9de1 33ba d8b3 d63c 8e93 883d 8c0e 223d
000002f0: 51b8 2d3d bae1 12be ebfb 8b3d f93a 28bc
00000300: bb3f afbd 0906 e63d c661 03bd 7724 b13c
00000310: f589 21bd 727f a5bb 7809 1c3c dda7 1dbe
00000320: 80c3 0ebd 3553 26bd 9699 ce3b c114 bebb
00000330: 6ac4 243e 63d5 1bbd 870a 7b3b c476 0cbe
00000340: 32d3 30bc 12e2 2b3d 2d7b d73c 7fa3 83bd
00000350: 3d9a 4abd caa3 bdbd 91e2 083e ce4d f4bd
00000360: f8a1 3c3e 6e93 413e 8194 103d 0d8d 163e
00000370: abf0 e43d 7eff e33d 05b5 9fbd 6fa4 bf3a
00000380: 33de 9fbd 6ce3 13be 3f1c 3b3e 37f9 bd3d
00000390: 86e2 a63c 7b90 a83d 9e41 33bd 91d5 b4bc
000003a0: 7818 b33d 4200 273c 3fdd 2b3d 8432 803c
000003b0: ef8e ddbc 4d88 97bd b73f 10bd e0db ccbd
000003c0: 0f41 1dbe 3ace 3f3e 165b 32bd 1556 82bd
000003d0: 153d e4bc 79a8 5c3c ac78 913d b18c 5b3d
000003e0: 0e54 abbd f30e ccbd 58ac f53d 9550 3c3c
000003f0: 80b5 cd3c 4843 e4bd e6e4 803d 0610 0d3e
-0.07206518 -0.05008537 -0.03968876 0.06903978 -0.019198705 -0.19526921 0.111575924 -0.16880961
0.046832927 -0.1744541 0.06616187 -0.055768475 -0.042501662 -0.048499484 0.06533651 -0.042267296
0.12222896 0.024304211 -0.047194365 0.027352443 0.05805825 -0.096853465 -0.22523758 0.12055235
0.1030678 -0.10800645 0.009954981 0.072875276 -0.04661794 0.12174321 -0.008983664 -0.25265467
-0.016038883 0.066586435 -0.0058700847 -0.072658576 -0.040660072 0.0110483365 -0.1275476 -0.022325378
0.08997914 0.0040397127 -0.11196257 -0.079820275 -0.0010532818 0.03646381 -0.13950948 0.250508
-0.01464231 -0.120679356 0.15110002 0.025163768 -0.023953544 -0.1624579 0.05385661 -0.06687006
0.102403335 -0.098695785 -0.11267509 0.121024415 -0.025245808 -0.16821446 0.03424935 -0.056904566
0.109563224 0.20857297 0.08670766 0.055597864 -0.07195261 0.034120493 -0.15100701 0.12777835
-0.17828783 -0.07947635 0.17625384 0.051802684 -0.06526184 0.13117355 0.027745219 0.014155965
-0.06477524 0.18754484 0.101746 0.010129143 0.12582631 0.094975665 0.14879212 0.02158723
0.1837623 -0.050486863 -0.10029264 0.0046054106 -0.062097345 -0.046494916 -0.073667414 -0.17217438
0.026544746 0.0057292865 0.014081073 -0.1115586 0.10964224 0.061439436 -0.018018022 -0.13828267
0.21160471 0.16189389 0.017678998 -0.04677218 -0.2520958 0.08526237 0.014157907 0.04158415
0.015287358 0.09440261 0.043300316 -0.055055622 0.18488197 0.08611987 0.16351599 -0.22687115
0.056351993 0.34746855 -0.09681318 0.07470537 -0.0017102805 0.094145104 0.2027689 0.0703573
-0.14028619 0.09597947 0.03808657 -0.3302026 0.06078322 -0.032503687 0.12823921 0.008257711
-0.064591415 -0.12849666 0.08162545 -0.35104874 -0.2473328 0.06452714 -0.04493553 0.09079394
-0.045037225 -0.15935354 0.06582784 -0.019218838 -0.22305363 0.09488809 0.04173259 0.0876964
0.04248617 -0.016311226 0.14780141 -0.01038199 0.10407295 -0.038219746 0.00072340504 0.015684042
0.043641716 0.02447511 -0.16825873 -0.11230726 -0.21059418 0.085220926 -0.032427914 -0.13343497
-0.016177192 -0.052661188 -0.16781224 0.25560468 -0.15571274 -0.03274651 0.15914717 0.0070806136
0.1531932 -0.0031007768 -0.036305003 0.06860738 0.29093403 -0.07466671 0.008313128 0.023637611
-0.0006861927 0.026208803 0.06668769 0.039564654 0.042412106 -0.1434392 0.06835159 -0.010267966
-0.085570775 0.1123162 -0.032075666 0.021623833 -0.039438207 -0.005050593 0.009523742 -0.15396066
-0.034854412 -0.040606696 0.00630493 -0.005800814 0.16090551 -0.0380453 0.0038305835 -0.1371718
-0.01079254 0.041963644 0.026303852 -0.06427669 -0.0494635 -0.09259756 0.13367678 -0.119289026
0.18421161 0.18903896 0.035297874 0.14702244 0.11178716 0.11132716 -0.077981986 0.0014621149
-0.07806053 -0.14442223 0.18272494 0.092760496 0.020371687 0.082306825 -0.04376375 -0.022074493
0.087449014 0.010192933 0.041959044 0.015649088 -0.027045695 -0.07399044 -0.035217013 -0.10002875
-0.15356849 0.18731013 -0.043543898 -0.06364075 -0.027861157 0.013467901 0.071030945 0.05360097
-0.083656415 -0.09963789 0.119957626 0.011493822 0.02511096 -0.111456454 0.06293659 0.13775644

encoder.encoder.0.W_h.weight f4 [64, 64]
00000000: 3f09 23be 0986 2ebc 87b7 94be 49ff 473d
00000010: 35b3 d9bc 0d33 343c 13b8 c8bd b303 ae3c
00000020: 0f80 5fbd 62ab 98be 5bd8 2e3e e406 6bbe
00000030: 2fbb 413e a123 93be 3d4a e1bd f81c f53d
00000040: 7a63 20be 8f42 443e 8bfd 99bc de57 1b3e
00000050: d909 3b3d 9253 1fbe 00ed 75bd ec92 47be
00000060: 2130 9abe e2de 74be 6a5c 8f3d 32ad e0bd
00000070: 0c38 f43d 1b90 253e eaa9 473e 6d4e ef3d
00000080: a4df f7bd cbdd 833e b385 aebe 1848 8f3c
00000090: 5ef3 913e c920 0f3e a957 2c3e 4ac7 e93c
000000a0: 1e82 1e3e d5e8 68bd f4cf f03c b5b3 11bd
000000b0: a3a2 f03d 6640 a1bd 817f 23be b345 e2bd
000000c0: f69c 743e 4ebd 3a3e 3fc3 d4bc a960 3fbd
000000d0: 02ff 1ebe bb00 e23d 93ea 7abd 7c2c eb3c
000000e0: 4033 f93d 8c6f ca3c 6517 1bbd 4ea3 353d
000000f0: 595d bb3d 97d8 c63c a788 81be c2cf 383d
00000100: 268d f23d eb7d 8dbd 503a 5fbd f94c 833e
00000110: 2224 37be 195c 44bd 01c9 3b3c b27e b9bd
00000120: 6bac 083e c71c 8ebd e4fa 8cbd adc3 8b3d
00000130: 53ca b4bd 54e9 30be 99b3 bd3c 27ed 773d
00000140: 7538 813d a628 54bd d63c fd3a ad1d 6ebe
00000150: bf75 113e bf2f 9b3e 70d4 053e 7b04 85bd
00000160: ddfb 1fbc 86ce 23bd 3d93 463c 6497 f03c
00000170: 24e6 a03d 5048 353d 0edd bcbd af94 a33d
00000180: 68e0 b53d c821 e63d f19f 063f fbca 39bd
00000190: a8be 2abc 4986 60bd f577 45bd 85d4 b6bd
000001a0: e71a 2b3e 5083 2abe 9671 f43d 25a1 abbd
000001b0: 041b 203c 64ce 0cbd 790a 7fbd efc0 64bd
000001c0: 10d3 51bd d5f5 b8be 74aa 803d 8ab8 35bd
000001d0: 90ec 183e ad41 433e 5169 0b3e 42f2 aabd
000001e0: 303f e3bc bc14 5e3d f175 acbe 2d12 f9bd
000001f0: 0afe d7bd a2f2 8b3c fc5e 0d3e 3cff 90bd
00000200: 9e65 f43d b33a 54bd 2dd9 b5bd 5b95 673e
00000210: 8313 773b 3bb4 74bc c5e5 523e 5e20 79bd
00000220: 0efe 9abe 5eda 8dbd 1d6b 3a3c 5afa 37be
00000230: 301c e8bd 3e56 85bd 0618 d13d 9084 983c
00000240: 2111 29be 38fa 65be dbcb 7fbc 371f 303d
00000250: c0a7 0c3e ba8c 723b 53f2 2b3d 27f8 243e
00000260: f63b b5be 92bd a3bd 6fa6 013e ac24 713d
00000270: 3c29 0f3e fe42 fb3d 9652 fc3c e910 c03c
00000280: 494f 5e3d 23e3 873d fabe 153e 9aa5 35be
00000290: 7d3b b0bb d731 9fbe 5728 59be 1443 0fbe
000002a0: 6948 5cbd aad5 90bd 3286 f23c 8cd3 993c
000002b0: 33b1 3cbe 2fef e33e 331a 803e 9772 713e
000002c0: 49ae 243d 2ef5 08be 3d5c 4c3e 982d cf3c
000002d0: c8fe 1d3e 4401 cd3d 161d 2ebe 086e acbd
000002e0: 5523 08be 1274 813e 785e 9f3d 84dd 5ebd
000002f0: c1d6 49ba 9e9d 283e ac26 363e 6192 013e
00000300: 9582 5fbd cf08 b83d d2f1 38be 5b90 7abc
00000310: 655b 353e 80d1 95bc 2207 303b 5ab1 0abe
00000320: e5c5 bd3d ce5c a03d 4c1c d9bd 81fb 833d
00000330: 1698 2abd 2ef4 cfbe 97fa 1bbe 9ad4 f2bd
00000340: c9d0 4fbe 049e e8bd a647 a33e 87d0 84be
00000350: 792a 43bd ed03 d53d 0a14 a43b 9f52 6cbd
00000360: 1a55 8e3e c84e 313b 6800 f5bc 244d a2bd
00000370: 74c9 49be 9c5b 9ebe ff7f e83b 5648 c13d
00000380: 9f4e db3c 40b8 4dbe b766 7f3c 7dac acbc
00000390: 60fe 533d a962 d9bd f7ca 52be 27f1 8e3d
000003a0: bf83 853e 0fcb 0e3d 617d 5e3e df6e 0c3d
000003b0: 1c0a a3bd 3b95 85bd eb26 15be 8f66 95be
000003c0: d30a 34be 4491 8d3c fdc2 42be f480 f7bd
000003d0: 76bc 74bb fae9 fbbc 8835 0dbe fba1 bfbd
000003e0: 78da 15bd 6a06 d4bd 75c2 66bd 5940 20bc
000003f0: 218c e13c 0208 fdbc 7a66 d13c 488e a9bd
-0.15921496 -0.010652074 -0.2904627 0.048827443 -0.02657471 0.0109985 -0.09800734 0.021241998
-0.054565486 -0.29818255 0.1707472 -0.22951847 0.18919061 -0.2873812 -0.11000488 0.11968416
-0.15662947 0.19166015 -0.018797657 0.15170237 0.04566369 -0.15559223 -0.060040474 -0.1948964
-0.30114844 -0.23913148 0.070000485 -0.109705344 0.119247526 0.16168253 0.19498411 0.116848804
-0.12103203 0.25755152 -0.3408638 0.017490432 0.28505987 0.1397735 0.16830315 0.028537411
0.15479323 -0.05686267 0.029396035 -0.035571773 0.117497705 -0.07873611 -0.15966608 -0.1104845
0.23888001 0.18236277 -0.025972007 -0.04672304 -0.15526965 0.110352956 -0.061258864 0.028707735
0.12167978 0.024711393 -0.037864108 0.044345193 0.09148664 0.0242732 -0.2529957 0.04512001
0.11843328 -0.069087826 -0.05449897 0.25644663 -0.17884877 -0.047939394 0.011461497 -0.09057368
0.13347022 -0.069390826 -0.06883791 0.068244316 -0.08827653 -0.17276508 0.023156928 0.0605289
0.063095964 -0.051796578 0.0019320499 -0.23253508 0.14205073 0.30309865 0.1306932 -0.06494995
-0.009764639 -0.039991878 0.012120065 0.029369064 0.07856396 0.044258416 -0.0922185 0.079873435
0.08880693 0.11236912 0.525878 -0.045359593 -0.010421433 -0.054815564 -0.048210103 -0.08927254
0.16709481 -0.16651654 0.11935727 -0.08380345 0.009772066 -0.034376517 -0.062265847 -0.05584806
-0.051226676 -0.36125055 0.06282511 -0.044365443 0.14933991 0.19068022 0.13614394 -0.08346988
-0.027740091 0.054218993 -0.33683732 -0.1216167 -0.10546501 0.01708347 0.13805765 -0.07079932
0.119334444 -0.051813792 -0.088793136 0.22615568 0.003770084 -0.014935548 0.20595463 -0.060821883
-0.30271953 -0.06926416 0.011378077 -0.17966595 -0.11333501 -0.0651059 0.1020966 0.018617898
-0.1651044 -0.22458732 -0.015612568 0.04299852 0.13735867 0.003701015 0.041979145 0.16110288
-0.3539731 -0.07995142 0.12661146 0.058872864 0.13980573 0.12268637 0.030801099 0.023445563
0.05427483 0.0663512 0.14623633 -0.17738953 -0.0053781853 -0.31092712 -0.21206795 -0.13990432
-0.053779993 -0.07072003 0.029605005 0.018777631 -0.18426971 0.4451842 0.25019988 0.23578869
0.040205274 -0.13374779 0.19957061 0.025290295 0.15429223 0.10010007 -0.17003283 -0.08419424
-0.13294728 0.25283867 0.0778169 -0.054410473 -0.00076995423 0.16466376 0.1778819 0.12653495
-0.054567892 0.08986055 -0.18060997 -0.015293206 0.17710645 -0.018288374 0.002685972 -0.13544217
0.09266261 0.07830201 -0.106011 0.06444455 -0.041648947 -0.40615982 -0.15232311 -0.11856957
-0.20294489 -0.11358264 0.318906 -0.25940344 -0.047647927 0.104011394 0.0050072717 -0.05769598
0.27799302 0.0027055014 -0.02990742 -0.0792487 -0.19705755 -0.30929267 0.0070953364 0.09437625
0.026770888 -0.20089817 0.015588454 -0.021078343 0.051756263 -0.10614521 -0.20585237 0.0697959
0.26077077 0.03486162 0.21727516 0.034285422 -0.079609126 -0.06522604 -0.14565627 -0.29179808
-0.17582254 0.017281182 -0.19019695 -0.12085143 -0.0037343777 -0.030751217 -0.13789952 -0.09357067
-0.0365853 -0.10352786 -0.056337792 -0.009780967 0.027532639 -0.030887607 0.02556156 -0.08279091

encoder.encoder.0.W_o.weight f4 [64, 197]
00000000: e9fa 19be 3b0f 82bd 4c93 a33c 1837 b9bd
00000010: 1245 9abd 2724 55be 6276 c4bd 7d9f 6f3d
00000020: 4da5 ec3d 66ce 963c 6874 8e3d 54d1 d1bd
00000030: a30d a2bd 653d 2abe 0569 393d f7b3 95bd
00000040: 0f7b 723d c59d dcbd 365a 92bd 34da edbc
00000050: a2d4 fdbc 56cc 55bd 5cb9 3abd eae2 6d3d
00000060: 4cb3 0d3e 5f47 cfbd 9cca 5b3d 5f99 e33d
00000070: bfbf 17be 163e 6abd bede 8e3d 1a7d b53d
00000080: b9dc 8cbc faea 1abd cec1 143c 4e31 ab3d
00000090: 3e74 07bd 73a1 e1bc b95f 7f3d 25eb b7bd
000000a0: 5333 bbbc 71bc 68bd 3e16 41bb 1ec0 9fbd
000000b0: 4318 ffbc 762a a23d 61cf 17bc 4c99 0ebe
000000c0: 7103 003e 2add 94bd 905b 1bbd fb06 e3bd
000000d0: 5899 2bbe 5bd6 a6b9 3289 bd3d 4da4 683e
000000e0: d0d4 6dbd bae2 773a b9ff 093d 69b0 40bd
000000f0: e03a dfbd 3275 cfbd 2088 963c 619b 09bd
00000100: 1a04 bc3d 202b 17bd a93d 2bbe b176 42bc
00000110: e931 3bbd 919b 84bc 485c 70ba c5c1 9bbd
00000120: 58c1 b2bd 2856 3a3d b459 dfbb 265c 393e
00000130: 6f65 363e 9536 0ebe b23a 94bd e897 863c
00000140: a53a 09be e706 0e3d b74c 773b 61e3 093d
00000150: a5da 063e 7b57 183b b13e e83c 2c2a 983d
00000160: 0131 463d f3f1 14bc 51e0 14bc 66b2 db3c
00000170: d37b c73c 55c3 32bd e5c1 e6bd 67e9 8e3d
00000180: 90bf 9fbd 1ff8 6cbd 36ad f5bd bc18 e2bb
00000190: 734d cc3d 3121 c0bc 62c5 063c 5ddc 7bbe
000001a0: 5191 adbd 9193 8a3d 605b 3d3d 37a9 eabd
000001b0: 7d0b 0b3e 0cb0 413e ff96 89bd 87ee b43c
000001c0: 1d43 e33d acb3 c93c 45d6 c5bd e607 d53d
000001d0: 3e3b 1d3e 8e2a ac3c cf05 f13c d397 57be
000001e0: ea67 61bc d22b 88bd 18bc f7bd 4463 4e3d
000001f0: b1c6 a33d 0227 afbd e90a fb3d 9a69 08bd
00000200: 2065 c9bd 85e4 0a3e 2567 613d d14c 9e3d
00000210: 5416 a3bd fcbf 303d 2bfc 3d3d f085 95bd
00000220: 46ce 2dbc 51fd 653d cfdc 1cbe 2d6a a63d
00000230: 9d63 58be bbdd a6bd f69e c53d cfec 6cbd
00000240: 57a7 b2bd 7e8b 7d3b dd83 5abd d81f d9bd
00000250: 2192 083e 4af1 b83d d8ca a83d 7d09 06be
00000260: de2c 6dbd 2bff 70bd 0767 fb3d 8f04 61bc
00000270: 142c 02be 8fa9 bd3d e655 0cbe 73cc a0be
00000280: c0cf 633d 679d f5bc 409c 273e 6673 9dbd
00000290: a08e c03d d510 a8bc f28f d7bd a8a2 883e
000002a0: 092a abbc 3ece dcbd fb13 093d b824 7b3d
000002b0: 613b 25be 6b50 f53a 7fcb 463d d89c d2bc
000002c0: 4063 0ebd 5d16 a83c 61ce 84bd 9e2b 673c
000002d0: b61a 913e f54d 0bbe daa0 923d ba4f 183e
000002e0: 241c 04be 3114 e0bc aa93 c73d 548b bfbd
000002f0: f65d 8f3d a3a8 b0bd 523d 4ebc d405 023e
00000300: d804 963d 8969 a7bd 1b11 123d 46bd 0e3e
00000310: efde 143c 9a35 173d 6a25 923d aa94 a2bd
00000320: ce33 803d 269c 9d3d 6dd9 ac3d 18b6 9b3d
00000330: 3f99 643d 930e 2c3e f62a 0bbd 70b2 33bd
00000340: 4b91 58bd b3b3 663e f283 19bd 7a21 e63d
00000350: e82b 453e f693 3b3c fc57 0abe 1bab ae3d
00000360: 69c2 0f3c 5896 34be ff3f 8d3d c6be 76bd
00000370: ce0a 9dbd 21c4 5b3d 5453 f33c 1169 333d
00000380: 6159 07be d72b 1d3d 08a6 983d 0bc6 e33c
00000390: 80c6 093d d32b 6c3d fe16 39bd bb38 9cbd
000003a0: 3955 8f3c 2110 a73c c47f 833d 65eb f93c
000003b0: f2c3 21be 50b1 053e cf78 033e 92c3 00be
000003c0: cf72 a8bc 46ce 89bd 0ea9 d63c 8b63 83bc
000003d0: 8f26 953d 80ac 6e3d 503c 36be ff05 c6bd
000003e0: c792 08bd b856 3ebe ad8e 023d d9f8 59bd
000003f0: e2e1 6a3d 177d 943d 0195 8ebd b2c3 a7bc
-0.15037121 -0.06350561 0.019967698 -0.090437114 -0.07532705 -0.20814572 -0.09592892 0.05850171
0.11554966 0.018408965 0.069557965 -0.10245004 -0.07912757 -0.16624983 0.04526617 -0.07309716
0.05919939 -0.1077228 -0.071461126 -0.029034711 -0.03098518 -0.052196823 -0.04558693 0.05807773
0.13837928 -0.10121035 0.05366002 0.111132376 -0.14819239 -0.057188116 0.069760785 0.08861752
-0.017195093 -0.037821747 0.00907941 0.083590135 -0.03306984 -0.027542805 0.062347148 -0.08980397
-0.022851622 -0.056820337 -0.002946272 -0.07800315 -0.031139499 0.07918255 -0.009265752 -0.13925666
0.12501313 -0.07268746 -0.037929118 -0.11085316 -0.16757715 -0.00031821695 0.092546836 0.22718926
-0.058064282 0.0009456087 0.03369114 -0.047043238 -0.108999014 -0.10129775 0.018375456 -0.033595446
0.0918047 -0.03690636 -0.1672274 -0.011869119 -0.045701895 -0.016187461 -0.00091690244 -0.07605318
-0.08728284 0.04549232 -0.0068161134 0.18101558 0.17812131 -0.13888009 -0.07237758 0.016429856
-0.13401277 0.03467455 0.0037734935 0.03366411 0.13169344 0.0023245502 0.028350206 0.07429919
0.048386578 -0.009090888 -0.009086684 0.026818465 0.024351036 -0.043643314 -0.11267451 0.06978112
-0.078002095 -0.057853814 -0.11995928 -0.006899921 0.0997571 -0.023453327 0.008225771 -0.2459578
-0.084749825 0.06766427 0.04622972 -0.114580564 0.13578601 0.18914813 -0.06718253 0.022086395
0.11096785 0.024621807 -0.09660009 0.10401897 0.1535463 0.021016385 0.029421715 -0.2105401
-0.013757685 -0.06648983 -0.12096423 0.050387636 0.07996882 -0.08552362 0.1225794 -0.033303834
-0.09833741 0.13563736 0.055030007 0.07729495 -0.07963243 0.04315184 0.046383064 -0.07300937
-0.010608261 0.056149784 -0.15318607 0.0812572 -0.2113175 -0.081477605 0.0964946 -0.057843026
-0.08723324 0.003868788 -0.05334841 -0.10601777 0.13336994 0.09030397 0.082418144 -0.13089557
-0.057904117 -0.058837097 0.1227551 -0.013733997 -0.12712127 0.09260856 -0.13704643 -0.31405982
0.055618048 -0.029982282 0.16368198 -0.07688026 0.094022036 -0.020515839 -0.10525502 0.26686597
-0.020894067 -0.10781525 0.03346632 0.061314315 -0.16135933 0.0018715983 0.048533913 -0.025709555
-0.03476262 0.020518476 -0.06484676 0.01410952 0.2834069 -0.13603957 0.07159586 0.14874163
-0.1290136 -0.027353378 0.097449616 -0.093527466 0.070003435 -0.08625915 -0.012587862 0.12697536
0.073251426 -0.08174426 0.035660844 0.1393939 0.009086355 0.036916353 0.071360424 -0.07938512
0.06259881 0.076957986 0.08439908 0.07603091 0.05581021 0.16802435 -0.033976518 -0.043871343
-0.052872937 0.22529487 -0.03747935 0.11236854 0.1925503 0.011448851 -0.13510126 0.085287295
0.008774378 -0.17635477 0.06896972 -0.06024053 -0.076680765 0.05365384 0.02970282 0.04380137
-0.13217689 0.038371887 0.07453543 0.027804395 0.03363657 0.05765898 -0.045187943 -0.07628008
0.017496692 0.020393433 0.06420854 0.030507753 -0.15797403 0.1305592 0.12839054 -0.12574604
-0.020562558 -0.06728797 0.026203658 -0.016038677 0.07282745 0.058269978 -0.17796445 -0.096691124
-0.033343103 -0.18587768 0.031874347 -0.053215835 0.057344325 0.072504215 -0.06962014 -0.020479057

encoder.encoder.0.W_o.bias f4 [64]
00000000: a560 d33b 4bf0 dfbb 40b5 96bc 4a1a 9b3c
00000010: aaa9 aab9 687d 81bc c621 963b 3dea 1fbc
00000020: ab67 a93c 25ff 52bc 2309 08bd 56f0 6d3c
00000030: 794e 883c a3cd 04bc 058f 76bc fde8 17bd
00000040: 5467 4c3c 5bd7 2e3b 8bd0 a7bb 8838 2cbc
00000050: 6790 73bb 197d 8bbc d91c 963b 79a9 84bc
00000060: 3989 c7bb d61c 3ebc 68d9 1ebb 69c6 1fbc
00000070: 6943 83bb c7a4 debb a346 413c 90c0 42ba
00000080: 0086 74bc 1e1f a6bc fc21 943c c2c0 e43b
00000090: 52a8 44bc d9fc 893c 27f9 6e3b 2ad2 0d3c
000000a0: 7094 0e3b 4508 25bc 540a a93c 5d99 493c
000000b0: d076 b1bc 735f aabc a86d fbba 0514 82bb
000000c0: b9c3 2dbc 856d eb3b 8ff8 bf3c 0f1e 76bc
000000d0: a543 893a 9285 8cbc 047b dfbb 869f 29bc
000000e0: 8d32 78bc e8ed 8d3c ba95 ce3b 675c 423c
000000f0: 3ed2 5d3c b215 883c fe91 103d 0f15 61bc
0.00645073 -0.006834065 -0.018396974 0.018933434 -0.00032551336 -0.015806869 0.004581663 -0.009760437
0.020679316 -0.012878214 -0.03321184 0.014522633 0.016638981 -0.008105668 -0.015048747 -0.03708743
0.012475807 0.0026678655 -0.005121296 -0.010511525 -0.0037164928 -0.017027425 0.0045810756 -0.016194092
-0.0060893563 -0.011603555 -0.002423847 -0.0097518945 -0.0040058387 -0.0067945453 0.011796626 -0.0007429207
-0.014924526 -0.02027851 0.018082611 0.0069809863 -0.012003021 0.0168442 0.0036464424 0.008656064
0.0021755956 -0.010072772 0.020634808 0.012304631 -0.0216631 -0.020797467 -0.001918246 -0.0039696717
-0.010605746 0.0071846866 0.023433952 -0.015021815 0.001047243 -0.017153535 -0.0068200845 -0.010352975
-0.015148771 0.017325357 0.00630447 0.011862851 0.013538895 0.016611908 0.03529548 -0.013737931

ffn.1.weight f4 [64, 64]
00000000: 9d36 30be 58e1 5c3e bb56 6abe 7a29 c83d
00000010: ac25 8e3c 1fcb 47be 44eb 7abb 5ef7 1cbe
00000020: 8d1c d43d 5257 93bd 5465 d33c efda e03d
00000030: 9cc4 313e cbda d03c 040c 023e 08cb 71be
00000040: 0b66 a5bc 4a74 853c dd89 ee3d f0ac 86bb
00000050: ad86 8c3d 8a6c 1d3c ff6f 5dbe f0bf 1d3b
00000060: 52b3 993e 4ece 953e 6e1d 8c3e 7fa1 1ebe
00000070: 4a31 a83d 8f3c cebc e5a0 46bd 504b 8e3d
00000080: 6f55 ab3d 22f8 48be ea65 0a3e 72e4 10be
00000090: daa9 273e 06b2 4f3e b038 66bd 26de 3bbe
000000a0: 821e 3bbb 2eb7 c83d dc75 97bd 8f89 ecbd
000000b0: bdba 19be d5d6 233e ec56 9d3e 683e b63d
000000c0: f4b8 06be c86e 57be 9c8b 5a3d 2315 163c
000000d0: ebec 8e3d 4f1e 7ebd f06c 4e3c 071b 11be
000000e0: f758 28be b1d5 62be 0cfe 773d 37f7 663e
000000f0: a272 a0be 5172 b8bc cc2d 9a3a dacb 14bd
00000100: 1200 ecbd 6f1d c33d 8150 a13d 7611 94bd
00000110: 47ba 163e 389b 873c a021 d4bd a7e4 253d
00000120: 73c6 45be 6040 133e 10d6 d4ba 20a3 b13d
00000130: 8b03 39bd e792 c63d 9059 efbd 95f6 163d
00000140: 4154 2e3d 1c9e c8bc fd9c 093d 1eaf f3bd
00000150: e85f 7f3d e771 e1bd 3867 963d d43b c73c
00000160: 875e e2bd 687f 063e 4756 3abd 955c 483d
00000170: 10c0 69bd 148f 923d c57c 433c 1b4a 1bbe
00000180: 5b67 69bd e0d6 0fbe 9994 d1bc adf5 9e3e
00000190: 269e aa3c 6928 c0bd 39cc 6f3d d1fe 6a3d
000001a0: 53b0 01bd 1ac3 033e 8310 853c 4d97 7ebc
000001b0: 171b 1ebe f6b6 723e 5a93 873d ae7d 39be
000001c0: ddc7 993e 952d 5a3e cb20 b8bd dfba 11be
000001d0: 8e73 2ebe d687 033c c180 4fbe c045 623d
000001e0: 14f6 563e cd67 d63d fa75 a83d 8bc2 0fbd
000001f0: 4d8d 223e 67c7 903d 4ac6 fbbd ffa7 99be
00000200: 3da4 f83d b3fa d2bd af46 793e c55e 59bd
00000210: d732 e1bd 68ff 9fbd ca00 c0bc a8ae b53d
00000220: 4883 803e bddb 423e 59bf 013c dfce 0dbe
00000230: 3694 103d 1382 dabb b31a fbbd 1ebb e23c
00000240: d2d1 833e 502a 693d de3d a8bc e955 973d
00000250: 6479 a13e e71d e1bd 0105 713e b263 c43d
00000260: ef32 7cbe 19ee aabd f62f f8bd 6a9a 253e
00000270: 0b39 ab3d 9d4b 323d 36e0 fd3d 8c36 073e
00000280: 0f2b e4bc 362f 043d 3fe3 623e 9fb7 093d
00000290: bfe3 d0bb 7144 2bbe b12b 52bd 54a1 983e
000002a0: 60ba 9d3e 9a61 373b 9142 e53d 9c44 853e
000002b0: b77a 2ebc a38d 553d e996 f33d 3fe1 12be
000002c0: 9b33 c13d 583e 663d 8a8c 09be fb51 6bbe
000002d0: a62b 4c3d 9ece b83d 0009 7ebe eb81 903d
000002e0: 4b4d 453e 9312 0b3e 2296 8b3d 27b8 95be
000002f0: 4863 ea3d 8a1a 34bd 5967 313e 4246 a6bd
00000300: ed30 b83b bd0d bfbc 6c1a 903e b5ce 51be
00000310: 5af9 16bc 764c 073e b6c3 0f3c c469 d23d
00000320: c312 4a3d 784b 023e 3f18 11bd d912 5b3d
00000330: fdad 133e 180a dd3d eece d1bd 5bb1 a23c
00000340: ae12 3e3e e739 4b3d 3b6f d2bd ee8b 993c
00000350: 8f77 a9bd 1f10 9bbd ea9f 1c3a d4c4 adbc
00000360: d4ba 15be dfa7 7dbd 8d26 363e aab9 a43d
00000370: 9e14 0fbe a48d 33be 5579 f73d 9275 35be
00000380: c476 5abc 128a 6e3e c771 243e 0443 18bd
00000390: 6390 9fbd 7347 fbbd 392f 27be e3ac e13d
000003a0: 6527 3d3e 53e7 cbbd 9d38 903d ad34 093e
000003b0: 6899 753e ae6b ee3d 1430 b4be f29f 99bd
000003c0: bdb3 e23d 6bdc 3abc 8f57 b7bb 0f23 c83d
000003d0: 2a20 903d 263e a53d 22d6 f43d e4ac 75be
000003e0: 5a28 e83d c721 dfbb 036e 6fbd 0e6f e5bd
000003f0: 41c6 cabc af70 24be ff5a 1d3e 6c97 1cbd
-0.17208333 0.21570337 -0.22884648 0.09773536 0.017351948 -0.19511078 -0.0038287202 -0.15328738
0.10357008 -0.071943894 0.025805153 0.10979258 0.17360157 0.025494954 0.12699896 -0.23612607
-0.02019026 0.016290803 0.11647389 -0.004109971 0.06861625 0.009608397 -0.21624754 0.0024070702
0.30019623 0.2925896 0.27366203 -0.15491293 0.08212526 -0.025175361 -0.048493285 0.069479585
0.083659045 -0.19625905 0.1351544 -0.14149645 0.16373387 0.20282754 -0.056206405 -0.18346462
-0.002855212 0.09800564 -0.07395527 -0.11549675 -0.15012641 0.1599992 0.3073038 0.08898622
-0.13156492 -0.21038353 0.053355798 0.009160313 0.06978782 -0.062040623 0.012599215 -0.14170466
-0.16440187 -0.2215183 0.060545012 0.22555242 -0.31337458 -0.022515448 0.0011762916 -0.03632722
-0.11523451 0.095270984 0.07876683 -0.07229893 0.14719497 0.016553506 -0.10357976 0.040501263
-0.19313984 0.14380026 -0.0016238112 0.08673692 -0.045169394 0.09695988 -0.116870046 0.036856253
0.04256082 -0.024489455 0.03359698 -0.11898635 0.062347323 -0.11008053 0.07343906 0.02432052
-0.11053186 0.13134539 -0.045492437 0.048916418 -0.05706793 0.07156196 0.011931603 -0.15164988
-0.056983333 -0.14046812 -0.025583552 0.3104681 0.020827364 -0.093827076 0.05854437 0.057371918
-0.031662297 0.12867394 0.016243225 -0.015539003 -0.15440021 0.23702607 0.06619902 -0.18114349
0.30035296 0.2130645 -0.0899063 -0.14231442 -0.17036268 0.008027991 -0.2026396 0.0552423
0.20992309 0.10469017 0.08225627 -0.03509764 0.15874214 0.07069283 -0.1229368 -0.30010983
0.12140701 -0.10301723 0.2434337 -0.053068895 -0.10996025 -0.07812387 -0.023437876 0.08871204
0.2510016 0.19029136 0.007919156 -0.13848446 0.035297595 -0.006668338 -0.12260952 0.027677115
0.25746018 0.056925118 -0.020537313 0.07389433 0.31537926 -0.109920315 0.23537065 0.09589328
-0.24628805 -0.08346195 -0.12118523 0.16172186 0.083604895 0.04352914 0.123962805 0.13204402
-0.027852563 0.032271586 0.22157 0.03362238 -0.0063748057 -0.16725327 -0.0513112 0.29810584
0.30806255 0.002798176 0.11194337 0.26028907 -0.010649375 0.05213703 0.11894018 -0.14343737
0.09433671 0.0562118 -0.13432518 -0.22980492 0.049846314 0.09023784 -0.2480812 0.0705603
0.19267766 0.13581304 0.06815745 -0.2924206 0.11444718 -0.043970622 0.1732458 -0.08118869
0.005621067 -0.02332198 0.28145158 -0.20489009 -0.0092147235 0.13212761 0.0087746885 0.102740794
0.0493343 0.12724102 -0.035423514 0.05348477 0.1442184 0.10792941 -0.10244547 0.01985996
0.18561813 0.049615767 -0.10275122 0.018743481 -0.08274757 -0.07571434 0.0005974757 -0.021212019
-0.1462205 -0.061927672 0.17788143 0.08043225 -0.13972709 -0.175345 0.12083689 -0.17720631
-0.01333398 0.23294857 0.16059028 -0.037173286 -0.077912115 -0.12269487 -0.16326608 0.11019304
0.18472059 -0.09956231 0.07042048 0.13399 0.23984301 0.11641632 -0.3519293 -0.0750121
0.110694386 -0.011405091 -0.0055951546 0.09772312 0.07037385 0.080684945 0.11954905 -0.23991734
0.113358214 -0.0068094465 -0.058454525 -0.112028226 -0.024752738 -0.1605861 0.15366744 -0.038230345

ffn.1.bias f4 [64]
00000000: 9c39 803d c590 bb3c 9620 413d cad9 253d
00000010: b81c 093d 14ae 4b3d fa65 dd3c 7c20 2a3d
00000020: 4d94 5e3d 9ec6 343d b246 023d f250 e73c
00000030: dfb9 993d ed2e 113d 6614 b93d e970 b43d
00000040: d43d 863b be1f 293c c845 8a3c 9179 e9ba
00000050: f68b 783d 0724 2c3d dde6 99bc ae1a 0e3d
00000060: 798e c4bc d4a3 b9bc 6369 1f3d 6cc1 f63c
00000070: 3e96 303d 2bc9 cdbb 1427 083d 3ded 623d
00000080: 0a03 d03c 0df8 e63c bd9b 643d 147d 5f3d
00000090: a5a9 b93d a06e 683d 5e7c 7b3d 871f 143d
000000a0: b60d 443d 190a ba3b 89ef bd3c e263 833c
000000b0: f911 243d ce53 333d 99f0 053d 9bee b9bb
000000c0: c864 8d3a 1aa8 3b3d a98b 063d f090 0d3d
000000d0: 8a19 743c ebd7 ecba 0d28 853d 618d 403d
000000e0: 9db6 473d 35c2 2e3d 6a0f e43c 261d cb3d
000000f0: e52d 263c 2a1e 27bc de42 b13b 3729 e73c
0.06260988 0.02289618 0.047150217 0.040490903 0.033474654 0.04972656 0.027026165 0.041534886
0.05434065 0.04413473 0.0318057 0.02823684 0.07506155 0.035445143 0.09037094 0.088105984
0.004096726 0.010322509 0.016878977 -0.0017812719 0.060680352 0.042026546 -0.018786842 0.034693412
-0.023993718 -0.022661127 0.038918864 0.030121528 0.043112032 -0.0062800846 0.033240393 0.05540203
0.025392074 0.028194452 0.055812586 0.054562643 0.0906556 0.056746125 0.061397903 0.03616288
0.04786464 0.0056774733 0.023185508 0.016038839 0.040056203 0.043781094 0.032700155 -0.005674196
0.0010787481 0.04581461 0.032848034 0.03456205 0.014898667 -0.001806972 0.0650178 0.04700983
0.048758138 0.04266568 0.027839381 0.09917669 0.010142778 -0.010200063 0.0054095825 0.028217895

ffn.4.weight f4 [1, 64]
00000000: 8b99 fdbd 4529 cc3e cb3f c53d a34d 593e
00000010: 100b 543e f03c 03be 5c7f 84be 5bd7 52be
00000020: 29de e0bd 60ad 933d eeb8 4c3e abab 84be
00000030: d386 50be 3c47 a43d 7559 71be 54f7 35be
00000040: e28e ecbd fd70 40be e23c f43d 4885 23be
00000050: 4b13 4d3e 8363 32be 0a9b 9bbe 1183 103e
00000060: 84ac 11be efdf a2be 17bf 7dbe 38c8 99be
00000070: 810c a73d 36c1 d03d 5731 913e 5348 3b3e
00000080: 03d9 f4bd d919 50be f60a 34be d5b4 34be
00000090: 8c78 14be 4b02 47be fc56 253e 1e07 8fbd
000000a0: 2d66 b33e a300 6e3e 00a9 c23d 549e 193e
000000b0: 337d d5bd 5abf efbd 1ac9 2a3e 7642 0c3e
000000c0: 0760 153f 3b06 773e a5dc 6cbe 5f72 9bbe
000000d0: df36 193e 143c 933e 7246 0b3e 54fc 95be
000000e0: e83d fb3d 0c54 483e 3743 703e f1ee 10be
000000f0: e3ba 88bd 03c8 d33c 360b 1abe 6c95 813e
-0.123828016 0.39875236 0.09631308 0.21221022 0.20707345 -0.12816215 -0.25878417 -0.20589964
-0.10979874 0.07210803 0.1999242 -0.25912222 -0.20363931 0.080213994 -0.23569281 -0.1777013
-0.1155069 -0.18793102 0.11925675 -0.15968812 0.20026891 -0.17420773 -0.30391723 0.14112498
-0.14225966 -0.31811473 -0.24779926 -0.30035567 0.08156682 0.10193102 0.28357956 0.18289308
-0.11955454 -0.2032236 -0.17582306 -0.17647107 -0.1449911 -0.19434468 0.16146463 -0.06983779
0.3503889 0.2324243 0.095048904 0.15001804 -0.104242705 -0.11706419 0.16678277 0.13697228
0.5834965 0.2412347 -0.23131044 -0.30360696 0.14962338 0.28756773 0.13601092 -0.29294074
0.12267667 0.19563311 0.2346314 -0.14153649 -0.06676271 0.025852209 -0.15043339 0.25309312
