githubproject/lbdd/amse_build/mmodel14/check_01/fold_0/model_0/model.pt (torch, 127883 bytes, 8 tensors)

encoder.encoder.0.cached_zero_vector f4 [64]
000000 00 00 00 00 00 00 00 00 00 00 00 00 00 00 00 00
       0.0 0.0 0.0 0.0
000010 00 00 00 00 00 00 00 00 00 00 00 00 00 00 00 00
       0.0 0.0 0.0 0.0
000020 00 00 00 00 00 00 00 00 00 00 00 00 00 00 00 00
       0.0 0.0 0.0 0.0
000030 00 00 00 00 00 00 00 00 00 00 00 00 00 00 00 00
       0.0 0.0 0.0 0.0
000040 00 00 00 00 00 00 00 00 00 00 00 00 00 00 00 00
       0.0 0.0 0.0 0.0
000050 00 00 00 00 00 00 00 00 00 00 00 00 00 00 00 00
       0.0 0.0 0.0 0.0
000060 00 00 00 00 00 00 00 00 00 00 00 00 00 00 00 00
       0.0 0.0 0.0 0.0
000070 00 00 00 00 00 00 00 00 00 00 00 00 00 00 00 00
       0.0 0.0 0.0 0.0
000080 00 00 00 00 00 00 00 00 00 00 00 00 00 00 00 00
       0.0 0.0 0.0 0.0
000090 00 00 00 00 00 00 00 00 00 00 00 00 00 00 00 00
       0.0 0.0 0.0 0.0
0000a0 00 00 00 00 00 00 00 00 00 00 00 00 00 00 00 00
       0.0 0.0 0.0 0.0
0000b0 00 00 00 00 00 00 00 00 00 00 00 00 00 00 00 00
       0.0 0.0 0.0 0.0
0000c0 00 00 00 00 00 00 00 00 00 00 00 00 00 00 00 00
       0.0 0.0 0.0 0.0
0000d0 00 00 00 00 00 00 00 00 00 00 00 00 00 00 00 00
       0.0 0.0 0.0 0.0
0000e0 00 00 00 00 00 00 00 00 00 00 00 00 00 00 00 00
       0.0 0.0 0.0 0.0
0000f0 00 00 00 00 00 00 00 00 00 00 00 00 00 00 00 00
       0.0 0.0 0.0 0.0

encoder.encoder.0.W_i.weight f4 [64, 147]
000000 e9 96 93 bd 51 26 4d bd ae 90 22 bd ba 64 8d 3d
       -0.07206518 -0.05008537 -0.03968876 0.06903978
000010 82 91 2f 3d b2 46 08 be 5c ce 64 3d af b9 35 be
       0.042863376 -0.13308218 0.055860862 -0.17746614
000020 c7 95 e6 bc 18 a4 32 be e0 7f 87 3d 7c 6d 64 bd
       -0.028147591 -0.1744541 0.06616187 -0.055768475
000030 39 16 2e bd fd 25 2d bd 36 24 35 ba d0 d2 8d bd
       -0.042501662 -0.042272557 -0.0006909998 -0.06924975
000040 3b c1 87 3e a0 19 c7 3c e1 4e 41 bd 3b 12 e0 3c
       0.2651461 0.024304211 -0.047194365 0.027352443
000050 7d ce 6d 3d 1c 5b c6 bd ae a4 66 be 27 e4 f6 3d
       0.05805825 -0.096853465 -0.22523758 0.12055235
000060 36 15 d3 3d 7c 32 dd bd 37 1a 23 3c a2 3f 95 3d
       0.1030678 -0.10800645 0.009954981 0.072875276
000070 74 f2 3e bd 81 54 f9 3d 38 30 13 bc f4 5b 81 be
       -0.04661794 0.12174321 -0.008983664 -0.25265467
000080 fa 63 83 bc a2 40 8b 3c 73 8d ac bd 05 ce 94 bd
       -0.016038883 0.016998593 -0.08425417 -0.072658576
000090 2d 8b 26 bd 15 04 35 3c d7 9b 02 be b6 e3 b6 bc
       -0.040660072 0.0110483365 -0.1275476 -0.022325378
0000a0 fc 46 b8 3d 91 5f 84 3b a2 4c e5 bd d0 78 a3 bd
       0.08997914 0.0040397127 -0.11196257 -0.079820275
0000b0 46 0e 8a ba 13 5b 15 3d 93 db 0e be 96 42 80 3e
       -0.0010532818 0.03646381 -0.13950948 0.250508
0000c0 4d e6 6f bc bd 26 f7 bd f7 b9 1a 3e 3f 24 ce 3c
       -0.01464231 -0.120679356 0.15110002 0.025163768
0000d0 c7 d4 4a bd 5d 5b 26 be c0 98 5c 3d 2c f3 88 bd
       -0.049519327 -0.1624579 0.05385661 -0.06687006
0000e0 d7 b8 d1 3d 04 21 ca bd 33 c2 e6 bd a6 db f7 3d
       0.102403335 -0.098695785 -0.11267509 0.121024415
0000f0 4c d0 ce bc 69 40 2c be 0c 49 0c 3d c3 14 69 bd
       -0.025245808 -0.16821446 0.03424935 -0.056904566
000100 af 62 e0 3d 27 94 55 3e c9 93 b1 3d 96 ba 63 3d
       0.109563224 0.20857297 0.08670766 0.055597864
000110 e4 5b 93 bd ee c1 0b 3d 95 a1 1a be 54 d8 02 3e
       -0.07195261 0.034120493 -0.15100701 0.12777835
000120 16 91 36 be 7f c4 a2 bd e3 7b 34 3e 0d 2f 54 3d
       -0.17828783 -0.07947635 0.17625384 0.051802684
000130 00 a8 85 bd 5c 52 06 3e f1 49 e3 3c 6c ee 67 3c
       -0.06526184 0.13117355 0.027745219 0.014155965
000140 e2 a8 84 bd c1 0b 40 3e 35 60 d0 3d b4 f4 25 3c
       -0.06477524 0.18754484 0.101746 0.010129143
000150 9d d8 00 3e 9a 82 c2 3d f6 5c 18 3e b4 d7 b0 3c
       0.12582631 0.094975665 0.14879212 0.02158723
000160 2f 2c 3c 3e 50 cb 4e bd 3a 66 cd bd fc e8 96 3b
       0.1837623 -0.050486863 -0.10029264 0.0046054106
000170 c9 59 7e bd 74 71 3e bd f1 de 96 bd 7b 4e 30 be
       -0.062097345 -0.046494916 -0.073667414 -0.17217438
000180 5e 74 d9 3c bd bc bb 3b 4d b4 66 3c d6 78 e4 bd
       0.026544746 0.0057292865 0.014081073 -0.1115586
000190 1c 8c e0 3d eb a7 7b 3d 9c 9d 89 3d a7 ab b2 be
       0.10964224 0.061439436 0.06719515 -0.34896585
0001a0 05 05 68 3e 34 2f d0 3d 93 47 37 bd 2f 94 3f bd
       0.22658165 0.10165253 -0.044745993 -0.04677218
0001b0 17 2d 80 be 0a 9e ae 3d 09 4f 07 be 24 54 2a 3d
       -0.250344 0.08526237 -0.13213743 0.04158415
0001c0 1e f5 6d 3d e7 52 53 bb 05 76 95 3d 3d 08 51 be
       0.05809509 -0.0032245459 0.07297901 -0.20413299
0001d0 4c 35 4f 3e 9d 5f b0 3d bc 70 27 3e e2 bc 2f be
       0.20235175 0.08611987 0.16351599 -0.17161897
0001e0 42 54 4a 3e 3a cf 8a 3e fd 45 c6 bd 21 ff 98 3d
       0.19758704 0.27111226 -0.09681318 0.07470537
0001f0 7e 2b e0 ba 14 c6 40 bd c0 17 63 3e 8c 99 94 3d
       -0.0017102805 -0.047063902 0.22177029 0.07255849
000200 9c 93 4f be e2 90 c4 3d aa 00 1c 3d 25 db 2d be
       -0.20271152 0.09597947 0.03808657 -0.16978128
000210 d3 f5 dc 3d 96 22 05 bd c8 05 0d 3e e6 09 57 3d
       0.10789075 -0.032503687 0.13771737 0.052499674
000220 6a 22 90 bd c2 79 b7 bd c7 9b 9b bc 07 df aa be
       -0.07037814 -0.0895877 -0.018995179 -0.3337328
000230 bd bd 84 be ce 26 84 3d 14 65 8c 3d f0 4b 44 3e
       -0.2592601 0.06452714 0.068552166 0.19169593
000240 f4 78 38 bd 93 2d 23 be bf d0 86 3d d3 70 9d bc
       -0.045037225 -0.15935354 0.06582784 -0.019218838
000250 2c 68 64 be b0 54 c2 3d cb ef 2a 3d 8b 19 96 3b
       -0.22305363 0.09488809 0.04173259 0.0045806817
000260 74 ef 70 3d 5f 12 29 be ed d0 17 3e ce 64 b5 3d
       0.05882211 -0.16510914 0.14825793 0.088571176
000270 33 24 d5 3d 4f 8c 1c bd e4 a2 3d 3a d2 7b 80 3c
       0.10407295 -0.038219746 0.00072340504 0.015684042
000280 65 99 1f bd ee 68 04 3d 59 73 05 3d 4c 52 de bd
       -0.038964648 0.03232663 0.032580707 -0.10855541
000290 00 a6 57 be 4f 88 ae 3d 22 d3 04 bd 2d a3 08 be
       -0.21059418 0.085220926 -0.032427914 -0.13343497
0002a0 08 86 84 bc 42 b3 57 bd f9 d6 2b be 9e de 82 3e
       -0.016177192 -0.052661188 -0.16781224 0.25560468
0002b0 29 73 1f be 34 21 06 bd 7a f7 22 3e 7e 04 e8 3b
       -0.15571274 -0.03274651 0.15914717 0.0070806136
0002c0 ae de 1c 3e 67 36 4b bb 8e b4 14 bd 07 82 8c 3d
       0.1531932 -0.0031007768 -0.036305003 0.06860738
0002d0 e3 45 ca 3d 7f 32 17 be c9 33 08 3c aa a3 c1 3c
       0.09876611 -0.14765356 0.008313128 0.023637611
0002e0 9d e1 33 ba d8 b3 d6 3c 8e 93 88 3d 8c 0e 22 3d
       -0.0006861927 0.026208803 0.06668769 0.039564654
0002f0 51 b8 2d 3d ba e1 12 be eb fb 8b 3d f9 3a 28 bc
       0.042412106 -0.1434392 0.06835159 -0.010267966
000300 bb 3f af bd 09 06 e6 3d c6 61 03 bd 77 24 b1 3c
       -0.085570775 0.1123162 -0.032075666 0.021623833
000310 f5 89 21 bd 72 7f a5 bb 78 09 1c 3c c6 bb 2d be
       -0.039438207 -0.005050593 0.009523742 -0.16966161
000320 80 c3 0e bd 35 53 26 bd 96 99 ce 3b c1 14 be bb
       -0.034854412 -0.040606696 0.00630493 -0.005800814
000330 6a c4 24 3e 63 d5 1b bd 87 0a 7b 3b c4 76 0c be
       0.16090551 -0.0380453 0.0038305835 -0.1371718
000340 32 d3 30 bc 12 e2 2b 3d 2d 7b d7 3c 7f a3 83 bd
       -0.01079254 0.041963644 0.026303852 -0.06427669
000350 3d 9a 4a bd ca a3 bd bd 91 e2 08 3e ce 4d f4 bd
       -0.0494635 -0.09259756 0.13367678 -0.119289026
000360 f8 a1 3c 3e 6e 93 41 3e 81 94 10 3d 0d 8d 16 3e
       0.18421161 0.18903896 0.035297874 0.14702244
000370 ab f0 e4 3d 7e ff e3 3d 05 b5 9f bd 6f a4 bf 3a
       0.11178716 0.11132716 -0.077981986 0.0014621149
000380 33 de 9f bd 6c e3 13 be 3f 1c 3b 3e 37 f9 bd 3d
       -0.07806053 -0.14442223 0.18272494 0.092760496
000390 86 e2 a6 3c 7b 90 a8 3d 9e 41 33 bd 91 d5 b4 bc
       0.020371687 0.082306825 -0.04376375 -0.022074493
0003a0 78 18 b3 3d 42 00 27 3c 3f dd 2b 3d 84 32 80 3c
       0.087449014 0.010192933 0.041959044 0.015649088
0003b0 ef 8e dd bc 4d 88 97 bd b7 3f 10 bd e0 db cc bd
       -0.027045695 -0.07399044 -0.035217013 -0.10002875
0003c0 0f 41 1d be 3a ce 3f 3e 16 5b 32 bd 15 56 82 bd
       -0.15356849 0.18731013 -0.043543898 -0.06364075
0003d0 15 3d e4 bc 79 a8 5c 3c ac 78 91 3d b1 8c 5b 3d
       -0.027861157 0.013467901 0.071030945 0.05360097
0003e0 0e 54 ab bd fa f6 2a 3c 9a 0f d2 3c a6 1d f9 bc
       -0.083656415 0.01043486 0.025642205 -0.030409645
0003f0 fb 58 7b 3d 9c 40 06 be e6 e4 80 3d fb 95 36 3e
       0.061364155 -0.13110584 0.06293659 0.1783065

encoder.encoder.0.W_h.weight f4 [64, 64]
000000 f8 4d 86 be cb 10 06 bd 5e 2c 78 be f8 e6 c4 3d
       -0.2623136 -0.03273086 -0.24235675 0.09614366
000010 f8 f8 ae 3d 15 e2 28 3c b9 3e 17 be 2e 75 03 bd
       0.08543581 0.010307808 -0.1477002 -0.032094173
000020 ab 32 95 3d 55 5b b3 bc c6 b1 1b 3d a0 0a 85 bd
       0.07285055 -0.021894136 0.038011335 -0.06496167
000030 11 e6 e2 3d 86 2d 7a be ef 3e dc bd 90 e7 88 3d
       0.11079038 -0.24431428 -0.10754191 0.06684792
000040 15 00 cd bd ab f6 84 3b 23 44 2d 3c 81 f6 34 3d
       -0.10009781 0.0040577254 0.010575327 0.044180397
000050 c6 5b 5a 3c e5 43 f1 bd 21 58 2f bd b8 de 83 be
       0.013327545 -0.11780528 -0.042808656 -0.25755858
000060 be 30 6e be d8 bf c6 be 54 41 1b bb ff cd 10 be
       -0.23260781 -0.3881824 -0.0023690062 -0.14141081
000070 3e e2 f0 3d 7f 51 25 3e 63 1c d3 3d 5e 47 09 3e
       0.11761902 0.1614437 0.10308149 0.1340613
000080 2f f0 1c be 82 97 55 3e ef 4a b9 bd 81 a7 ad bd
       -0.15325998 0.20858577 -0.090474956 -0.084792145
000090 d6 d5 2d 3e 89 14 8d 3b f8 2f b3 3c 30 de 5e 3c
       0.16976103 0.0043054265 0.02187346 0.013602778
0000a0 1e 45 23 3e eb 73 3b be 68 46 39 bc 91 60 44 bd
       0.15944335 -0.18305938 -0.01130829 -0.047943655
0000b0 5d c3 c4 3d af cf 7e bd f6 3f ab bd ad e8 2a be
       0.09607575 -0.06220978 -0.08361809 -0.16690321
0000c0 a5 46 02 3e d3 8a 12 3e 7c 58 51 bd e7 83 79 bd
       0.12722261 0.1431077 -0.051109776 -0.060916808
0000d0 0f bc 1f 3d 70 cf fe bc bf 81 a6 bd 07 ba 46 bd
       0.038997706 -0.031104773 -0.08130216 -0.048517253
0000e0 d9 b1 3b 3b 8a 76 04 3e 39 28 8a ba fd 77 fd bc
       0.002863994 0.12935844 -0.0010540552 -0.030941004
0000f0 23 93 35 3d 4e 17 af bd f9 84 26 be fe 7e 3f 3e
       0.044329774 -0.08549367 -0.16261663 0.18700787
000100 ba bb 28 3e a1 cf 05 bd 13 07 a3 bb 0f dd 4d 3e
       0.16477862 -0.032668713 -0.0049752085 0.20103858
000110 82 94 82 be b1 83 95 3d 2a e3 bc 3d e6 bf d6 bd
       -0.25503927 0.07300509 0.092230156 -0.104858205
000120 da ee b7 3d 55 3a 21 be 04 4d 76 bd 87 28 8c ba
       0.08981104 -0.15744908 -0.06013204 -0.001069323
000130 37 98 82 bd 1d c0 3f be 10 77 29 3d d1 e5 e6 3d
       -0.06376689 -0.18725629 0.041373312 0.11274303
000140 74 dd 06 3e dd a4 b4 bb 83 65 a2 bd 0e 63 fb bd
       0.13170415 -0.0055128173 -0.07929518 -0.122747526
000150 e3 ed 16 3e fa fe 8f 3e 5f 7c be 3d 7f fc 80 bd
       0.14739184 0.2812422 0.09301066 -0.0629816
000160 7f 62 2c 3c 44 15 4f bc 51 91 4b 3d 31 5d 70 3d
       0.01052153 -0.012639347 0.04969913 0.058682624
000170 ea 85 00 3d 48 b6 94 3c 8b 48 df bc 48 d3 91 3d
       0.03137771 0.018153325 -0.02725627 0.07120377
000180 34 e3 35 3e b1 a8 e3 3d f6 ae e2 3e 42 86 49 3d
       0.17762452 0.1111616 0.4427411 0.049200304
000190 a2 55 f9 3a 6b 2a da bc ff a3 43 bd 98 3c 5b bd
       0.0019022713 -0.026631555 -0.04776382 -0.053524584
0001a0 10 98 4a 3e 15 d9 2f bd 06 51 0b 3e 3c c4 82 bd
       0.1978457 -0.042931635 0.13605127 -0.06385085
0001b0 ca 8d 69 3d 05 7a 91 bd 82 d8 03 be a4 c3 c1 bc
       0.057019986 -0.071033515 -0.1287556 -0.023652859
0001c0 90 4f a2 3c 49 da 85 be 92 67 39 3d 34 d6 41 bd
       0.019813329 -0.261431 0.045264788 -0.04732342
0001d0 b5 45 a0 3d e0 45 72 3e 0e 7c 4a 3e 82 9d cb bd
       0.078257956 0.23659468 0.19773886 -0.099421516
0001e0 95 14 1d 3d b2 ec 8d 3c 5a f0 9b be 18 20 c0 bb
       0.038349707 0.01732478 -0.3045681 -0.005863201
0001f0 c8 56 ff bd d3 f4 97 3d c0 19 0f 3e 1a 5a c8 bd
       -0.12467724 0.074197434 0.13974667 -0.097828105
000200 af 2b a8 bd 05 4b 0f be f9 b5 99 bd 3f a8 89 3e
       -0.08211457 -0.13993461 -0.07505412 0.26886174
000210 b4 91 4e bd 17 5f 20 bd 37 47 38 3e 63 12 be bc
       -0.050431922 -0.039153185 0.17995916 -0.023202127
000220 59 49 59 be 76 7b da bd b8 fc 7b 3d 1f 74 27 be
       -0.21219386 -0.106680796 0.06152031 -0.1635289
000230 90 d9 19 be 05 e8 67 bd cc d7 d9 bb fd 12 6d bd
       -0.150244 -0.056617755 -0.0066480394 -0.057879437
000240 ab 63 02 be 97 62 b6 bd 61 5f 65 3b c4 34 81 3d
       -0.12733333 -0.08905523 0.0034999477 0.06308892
000250 73 6c 30 3e a2 39 0c 3d 02 e4 b1 bc df 7f 41 3e
       0.1722887 0.03423465 -0.021715168 0.18896435
000260 50 b9 8d be c2 b4 2c bd b9 e6 86 3d 05 78 fa 3c
       -0.27680445 -0.04216457 0.065869756 0.030574808
000270 82 14 14 3e 50 22 02 3e 8a 9d 90 3a 40 e5 b1 3b
       0.14460948 0.12708402 0.0011033278 0.00542894
000280 a9 47 50 3e 80 09 fb 3d d7 a7 b8 3d ad c6 c9 bd
       0.20339836 0.12257671 0.09016388 -0.098523475
000290 73 1f 8f bd 65 a9 a2 be a9 0f df bd 8c e5 db bd
       -0.0698842 -0.31769863 -0.10891659 -0.10737142
0002a0 23 93 81 bd e5 54 9c bd 45 09 03 bd b2 b5 54 3d
       -0.06326892 -0.0763338 -0.031991262 0.05193109
0002b0 08 c1 33 be 13 73 dd 3e dd 52 8c 3e 45 83 d1 3d
       -0.17554104 0.43251857 0.2740697 0.10230116
0002c0 19 75 a3 3d 53 43 2d bd c1 d2 7b 3e 72 24 ae 3c
       0.07981319 -0.042300534 0.24592115 0.021257613
0002d0 ce ba 00 3e da 0c b6 3c 11 b3 39 bd 53 07 bf bd
       0.1257126 0.022222925 -0.045336787 -0.09327569
0002e0 4c 37 8d bd fe a8 1d 3e c4 d5 96 bb e4 0a 66 3d
       -0.06895313 0.15396497 -0.0046031196 0.05616273
0002f0 bb 1f 09 3b 6b 3c 1c 3e 1e 6e 04 3e 59 bc 91 3d
       0.0020923454 0.15257423 0.12932631 0.071160026
000300 48 48 9c b9 3b b0 1d 3e 6a 00 3e be e6 0c ce 3d
       -0.00029808492 0.15399258 -0.18554845 0.10061054
000310 e6 c6 08 3e 20 33 8b 3c 1c 0b bf 3c 84 ac 24 be
       0.13357124 0.016992152 0.023320727 -0.16081434
000320 29 41 cb 3c 5f 05 8b 3c ed ad 9d bd cd 98 82 3d
       0.024811344 0.016970335 -0.07699189 0.06376801
000330 83 44 e2 3c 2d 40 d5 be 24 e3 a7 bd 7f a8 00 be
       0.02762056 -0.41650525 -0.081976205 -0.12564276
000340 f9 12 28 be 1a db d6 bd 64 ee b4 3e 4a 74 4d be
       -0.16413487 -0.10491009 0.35338128 -0.20063892
000350 55 df 08 3e ac c7 72 3d 7b 62 d7 3d 82 1d 70 3d
       0.13366444 0.059272453 0.105168305 0.05862189
000360 74 e0 85 3e b4 58 8a 3d 72 88 0d 3d 2a a3 1c 3d
       0.26147807 0.067552 0.034553953 0.038241543
000370 8e 36 70 be d6 6d d2 bd 3b e7 04 3e 5c 38 96 3d
       -0.23458311 -0.10274856 0.12978832 0.073349684
000380 9b d1 97 bc 2a 35 2d be da 29 c7 bd 54 01 52 bd
       -0.018532565 -0.16914812 -0.097247794 -0.051270798
000390 ef b2 c7 3c e9 b8 2a bd 91 af 43 bd c9 06 47 3d
       0.024377314 -0.04168025 -0.047774855 0.048590455
0003a0 0f 7b 6e 3e e5 8d 27 3e 0e 20 84 3e 71 8c 61 3d
       0.2328913 0.16362722 0.25805706 0.055065576
0003b0 aa a4 1f 3c 78 96 85 3d b3 21 2c be c6 43 8e bd
       0.009743849 0.0652284 -0.1680973 -0.069465205
0003c0 1b 51 b2 bd 99 a2 f5 3d 84 1c 22 be 00 d6 1f be
       -0.08706876 0.11993904 -0.1583119 -0.15608978
0003d0 d6 42 dd bd bc ee 8a 3d b9 f7 23 be 6e 51 1b bd
       -0.108037636 0.06783816 -0.16012467 -0.037919454
0003e0 ca b3 bd bd b3 96 48 be cd 95 2f 3d ec 7f fd ba
       -0.09262808 -0.19588737 0.04286747 -0.0019340492
0003f0 e2 4b d0 3b 5b 08 13 3e a6 0d 8f 3c 30 e3 0e be
       0.006356702 0.14358656 0.017462563 -0.13953853

encoder.encoder.0.W_o.weight f4 [64, 197]
000000 e9 fa 19 be 3b 0f 82 bd 4c 93 a3 3c 18 37 b9 bd
       -0.15037121 -0.06350561 0.019967698 -0.090437114
000010 12 45 9a bd c7 03 65 be 4e ee 45 bd f9 68 10 3d
       -0.07532705 -0.22364722 -0.04832297 0.03525636
000020 af 79 f9 3c 66 ce 96 3c 68 74 8e 3d 54 d1 d1 bd
       0.030453531 0.018408965 0.069557965 -0.10245004
000030 a3 0d a2 bd 65 3d 2a be 23 40 9b 3d 61 98 c0 bd
       -0.07912757 -0.16624983 0.075805925 -0.09404064
000040 18 41 41 3d c5 9d dc bd 36 5a 92 bd 34 da ed bc
       0.04718122 -0.1077228 -0.071461126 -0.029034711
000050 a2 d4 fd bc 56 cc 55 bd 5c b9 3a bd ea e2 6d 3d
       -0.03098518 -0.052196823 -0.04558693 0.05807773
000060 4c b3 0d 3e 5f 47 cf bd 9c ca 5b 3d 5f 99 e3 3d
       0.13837928 -0.10121035 0.05366002 0.111132376
000070 bf bf 17 be 16 3e 6a bd be de 8e 3d 1a 7d b5 3d
       -0.14819239 -0.057188116 0.069760785 0.08861752
000080 b9 dc 8c bc fa ea 1a bd c7 6e 85 3c 4e 31 ab 3d
       -0.017195093 -0.037821747 0.016288174 0.083590135
000090 3e 74 07 bd 73 a1 e1 bc b9 5f 7f 3d 25 eb b7 bd
       -0.03306984 -0.027542805 0.062347148 -0.08980397
0000a0 53 33 bb bc 71 bc 68 bd 3e 16 41 bb 1e c0 9f bd
       -0.022851622 -0.056820337 -0.002946272 -0.07800315
0000b0 43 18 ff bc 76 2a a2 3d 61 cf 17 bc 4c 99 0e be
       -0.031139499 0.07918255 -0.009265752 -0.13925666
0000c0 71 03 00 3e 2a dd 94 bd 90 5b 1b bd fb 06 e3 bd
       0.12501313 -0.07268746 -0.037929118 -0.11085316
0000d0 ce 24 b0 bd 5b d6 a6 b9 32 89 bd 3d 4d a4 68 3e
       -0.0860077 -0.00031821695 0.092546836 0.22718926
0000e0 d0 d4 6d bd ba e2 77 3a b9 ff 09 3d 69 b0 40 bd
       -0.058064282 0.0009456087 0.03369114 -0.047043238
0000f0 e0 3a df bd 32 75 cf bd 20 88 96 3c 61 9b 09 bd
       -0.108999014 -0.10129775 0.018375456 -0.033595446
000100 1a 04 bc 3d 20 2b 17 bd a9 3d 2b be b1 76 42 bc
       0.0918047 -0.03690636 -0.1672274 -0.011869119
000110 e9 31 3b bd 91 9b 84 bc 48 5c 70 ba c5 c1 9b bd
       -0.045701895 -0.016187461 -0.00091690244 -0.07605318
000120 58 c1 b2 bd 28 56 3a 3d b4 59 df bb 26 5c 39 3e
       -0.08728284 0.04549232 -0.0068161134 0.18101558
000130 6f 65 36 3e 95 36 0e be b2 3a 94 bd e8 97 86 3c
       0.17812131 -0.13888009 -0.07237758 0.016429856
000140 a5 3a 09 be e7 06 0e 3d b7 4c 77 3b 61 e3 09 3d
       -0.13401277 0.03467455 0.0037734935 0.03366411
000150 a5 da 06 3e 7b 57 18 3b b1 3e e8 3c 2c 2a 98 3d
       0.13169344 0.0023245502 0.028350206 0.07429919
000160 01 31 46 3d f3 f1 14 bc 51 e0 14 bc 66 b2 db 3c
       0.048386578 -0.009090888 -0.009086684 0.026818465
000170 d3 7b c7 3c 55 c3 32 bd e5 c1 e6 bd 67 e9 8e 3d
       0.024351036 -0.043643314 -0.11267451 0.06978112
000180 90 bf 9f bd 1f f8 6c bd 36 ad f5 bd bc 18 e2 bb
       -0.078002095 -0.057853814 -0.11995928 -0.006899921
000190 73 4d cc 3d 31 21 c0 bc fc 7c 7f bd ad b2 4b be
       0.0997571 -0.023453327 -0.062375054 -0.19892378
0001a0 05 84 e3 bd 81 9b cd 3d e7 d0 6a 3d 37 a9 ea bd
       -0.11109165 0.10039426 0.05732813 -0.114580564
0001b0 2f bd 12 3e 0c b0 41 3e e3 0d f3 3d 87 ee b4 3c
       0.1432998 0.18914813 0.11867883 0.022086395
0001c0 df 73 a9 3d ac b3 c9 3c 20 35 f6 bd 7c 82 f1 3d
       0.08274054 0.024621807 -0.120218515 0.11792466
0001d0 68 91 11 3e 8e 2a ac 3c cf 05 f1 3c 84 69 89 be
       0.14215624 0.021016385 0.029421715 -0.26838315
0001e0 b2 09 8e bc 27 12 a8 3c 90 e6 ad bd 44 63 4e 3d
       -0.017338607 0.020516468 -0.08491242 0.050387636
0001f0 b1 c6 a3 3d ef bb d9 bd 60 35 c3 3d ec 1c d7 bc
       0.07996882 -0.106315486 0.09531665 -0.026258908
000200 66 aa b2 bd 85 e4 0a 3e 25 67 61 3d ed ea 6b 3d
       -0.08723907 0.13563736 0.055030007 0.05759709
000210 61 8d d1 bd 51 3e 9c bc 40 39 23 bc 77 c2 b5 bd
       -0.10232044 -0.019072684 -0.00996238 -0.08874982
000220 b4 37 13 bd a2 21 99 3c 51 10 55 bd 05 b7 89 3c
       -0.035941795 0.018692795 -0.052017514 0.016810903
000230 42 2b 73 be 8e da 58 bd c8 69 8e 3c 5b 3b c2 bd
       -0.2374697 -0.052942805 0.017384425 -0.094839774
000240 12 66 1d bd 99 a8 7c bc fb 9c 0c bd 52 6d 04 be
       -0.03842742 -0.015421056 -0.034329396 -0.12932327
000250 b1 0d 83 3d 1c c0 48 3d ad 4e 8b 3d a0 0f 8c bd
       0.06399096 0.049011335 0.068021156 -0.06838918
000260 4e 66 f0 bd 9b 43 6a bb db c1 bd 3d ea 03 9d bd
       -0.11738263 -0.0035745862 0.092654906 -0.07666762
000270 79 c4 bf bd 93 65 d3 3d 37 ff 01 be 64 ea 9c be
       -0.09363646 0.10322108 -0.12695013 -0.30647576
000280 af 6b d9 3c 07 91 c1 bd ac 64 4e 3d 54 20 f5 bc
       0.026540605 -0.0945149 0.050388977 -0.029922642
000290 28 af 74 3d 01 eb c3 3c 6c 4d f4 bd 92 68 2f 3e
       0.059737355 0.02391577 -0.119288296 0.17129734
0002a0 e2 48 01 3d b5 ee 83 bd ae ed 05 3c 01 38 20 3d
       0.031563647 -0.06442014 0.008174343 0.03911591
0002b0 30 d4 24 be ae 86 1d 3d 51 8a d6 bd b9 5b 86 bd
       -0.16096568 0.03845852 -0.104756005 -0.065604635
0002c0 bf 16 9c bc 01 41 84 3c 22 31 0a bd b2 2a 94 3d
       -0.019053815 0.016144278 -0.033738263 0.07234706
0002d0 93 69 db 3d d0 8f ee bd 1b c0 3d 3d ac eb 0f 3e
       0.10713496 -0.11648524 0.046325784 0.14054745
0002e0 0d bf 3e be ca bf 9b bd 70 8e 3b bc 8a 14 43 bc
       -0.18627568 -0.0760494 -0.011447534 -0.011906752
0002f0 34 14 6c 3d 8d 00 99 bd 52 d4 9e bd 85 73 95 3d
       0.057636455 -0.07470808 -0.07755341 0.07297424
000300 3b bf b4 3d e2 79 79 bd 67 81 64 bd 78 4f b5 3d
       0.08825537 -0.060907252 -0.05578747 0.08853048
000310 f1 9a c8 bb 9a 35 17 3d 6a 25 92 3d aa 94 a2 bd
       -0.006121986 0.036916353 0.071360424 -0.07938512
000320 ce 33 80 3d 35 9b 2a 3d f5 0d a7 3d 75 96 e5 3b
       0.06259881 0.041651923 0.08156959 0.0070064613
000330 97 38 63 3d 1a d4 25 3e f6 2a 0b bd 70 b2 33 bd
       0.05547389 0.16194192 -0.033976518 -0.043871343
000340 4b 91 58 bd b3 b3 66 3e e5 2c aa bc db 0c 98 3d
       -0.052872937 0.22529487 -0.02077336 0.07424327
000350 bf 25 5e 3e 97 23 92 3d fc 57 0a be 1b ab ae 3d
       0.21694086 0.071356945 -0.13510126 0.085287295
000360 69 c2 0f 3c 58 96 34 be ff 3f 8d 3d c6 be 76 bd
       0.008774378 -0.17635477 0.06896972 -0.06024053
000370 ce 0a 9d bd 21 c4 5b 3d 54 53 f3 3c 11 69 33 3d
       -0.076680765 0.05365384 0.02970282 0.04380137
000380 61 59 07 be d7 2b 1d 3d 08 a6 98 3d 0b c6 e3 3c
       -0.13217689 0.038371887 0.07453543 0.027804395
000390 80 c6 09 3d d3 2b 6c 3d 4a de 6c bd b3 83 ab 3d
       0.03363657 0.05765898 -0.05782918 0.08374729
0003a0 39 55 8f 3c 21 10 a7 3c c4 7f 83 3d 65 eb f9 3c
       0.017496692 0.020393433 0.06420854 0.030507753
0003b0 f2 c3 21 be 50 b1 05 3e cf 78 03 3e 92 c3 00 be
       -0.15797403 0.1305592 0.12839054 -0.12574604
0003c0 cf 72 a8 bc 46 ce 89 bd 0e a9 d6 3c 8b 63 83 bc
       -0.020562558 -0.06728797 0.026203658 -0.016038677
0003d0 8f 26 95 3d 80 ac 6e 3d 50 3c 36 be ff 05 c6 bd
       0.07282745 0.058269978 -0.17796445 -0.096691124
0003e0 c7 92 08 bd af 2f ca bd ad 8e 02 3d d9 f8 59 bd
       -0.033343103 -0.09872376 0.031874347 -0.053215835
0003f0 e2 e1 6a 3d 17 7d 94 3d 01 95 8e bd b2 c3 a7 bc
       0.057344325 0.072504215 -0.06962014 -0.020479057

encoder.encoder.0.W_o.bias f4 [64]
000000 0f 31 8d bc 64 35 73 bb 23 fc 0f bd bb c7 36 3c
       -0.017235307 -0.003711068 -0.035152566 0.011156018
000010 73 c5 69 bb a1 b3 18 bb a4 b1 c9 3b b5 12 08 bd
       -0.0035670667 -0.0023300427 0.0061552096 -0.033220965
000020 a3 86 4a bb d1 8c 9e bc 3d a1 cd bc fe ec f2 bb
       -0.0030903004 -0.019354256 -0.025101298 -0.0074135056
000030 e5 24 0b 3c f0 bd ea bc 6b 79 e7 bb da a7 28 bd
       0.008492683 -0.028655022 -0.0070640347 -0.0411757
000040 a7 67 2d bc e5 52 48 3c 99 3d df bc 8a 53 67 bc
       -0.010583795 0.012226795 -0.027251052 -0.014119038
000050 83 73 70 bc eb a9 50 3b c8 9f ac bc b9 fc 91 bc
       -0.014675978 0.003183956 -0.021072283 -0.017820703
000060 6e c6 36 bb 8d 76 58 bc 01 78 49 bb 68 a4 f3 3c
       -0.002788927 -0.013211858 -0.0030741694 0.029741481
000070 1d a4 52 bc 62 25 22 bc 2e 0e 02 3c d8 cc 2f 3b
       -0.0128565105 -0.009896608 0.007937951 0.0026824977
000080 55 14 e4 bc ae c2 f8 bc 74 85 8a bc f7 63 bf bc
       -0.027841726 -0.030366268 -0.016909339 -0.023363097
000090 6b f7 63 bc bb 37 e3 bb d7 85 01 3c 10 2f 76 bc
       -0.0139139695 -0.006934134 0.007905445 -0.015025869
0000a0 de b3 61 bc d0 86 53 bc f2 d2 16 bb e1 0d 98 bc
       -0.013775794 -0.01291056 -0.0023013917 -0.018561305
0000b0 86 c1 01 bd b8 ea 46 bc cb 4b 2c 3c 9c fb 57 bc
       -0.0316787 -0.012140922 0.010516117 -0.013182547
0000c0 e6 c1 56 bc 9f 5f 8d 3c a8 e1 9f 3c e5 be b6 bb
       -0.013107752 0.01725751 0.019516781 -0.0055769556
0000d0 02 6f e1 3b 48 bf e5 bc 15 1d a6 3b 77 23 7e bc
       0.0068796882 -0.028045312 0.005069385 -0.015511385
0000e0 12 27 00 bc 00 2b ed 3b 25 aa 6b bc 6c ad c5 3c
       -0.007821815 0.007237792 -0.014383827 0.024130546
0000f0 32 82 40 bc 78 21 30 3c c9 9a eb bc c0 64 35 3b
       -0.011749791 0.010750167 -0.02876033 0.002767846

ffn.1.weight f4 [64, 64]
000000 f3 09 19 be a2 b0 4e 3e 19 83 71 be e1 9b 65 be
       -0.14945202 0.20184568 -0.23585166 -0.22422744
000010 7a cf 78 3d 47 cf fc bd 48 2a 1b 3c f2 52 cb bd
       0.06074474 -0.123442225 0.00947053 -0.0992793
000020 94 f2 ef 3d eb d7 bf bd 26 b5 97 3c c4 97 0a 3e
       0.1171619 -0.09367355 0.018518995 0.13534456
000030 9a 96 3e 3e 63 ca ba b9 b5 0f be 3d 73 74 7b be
       0.18612137 -0.00035627474 0.0928034 -0.2455614
000040 bd 9f a5 be 1c 0e ca 3c 68 25 e6 3c 85 b6 ce bd
       -0.32348433 0.024664931 0.028094009 -0.100934066
000050 ad 94 56 3d 5c 78 db 3c 01 23 af be 23 5c 47 3e
       0.052387882 0.02679079 -0.34206393 0.19468741
000060 7c 81 81 3e 48 2e e2 3d dd 39 90 3e 19 1f f6 be
       0.252941 0.11043984 0.28169146 -0.480706
000070 40 70 25 3e 46 93 65 3d 71 ef ad be ea a7 c7 3d
       0.16156101 0.056048654 -0.33971742 0.09748824
000080 5e 71 30 3e 9b 9c ef bd 14 b1 68 3e b5 cb 71 be
       0.17230746 -0.11699792 0.227238 -0.23612864
000090 c3 ac ca 3d d8 f0 9a 3a 6b 56 0a bd cf 21 65 bc
       0.09896233 0.0011821045 -0.03377382 -0.013985111
0000a0 d2 1a 58 bc 7c a6 3d 3e f1 bd 0d 3e cd 9f 39 be
       -0.013189988 0.1852054 0.13841988 -0.18127365
0000b0 55 08 78 bd 83 30 89 3e ca 4c b1 3e 9f de 52 3e
       -0.06055482 0.26794824 0.34628898 0.20592736
0000c0 3b d3 b3 bd 74 03 16 bd 36 b0 eb 3d 1c 56 d8 bc
       -0.087805234 -0.036624387 0.11508219 -0.026408248
0000d0 40 30 06 3d f9 5d 84 bd fe 49 89 bc 77 c4 26 bd
       0.03276086 -0.06463236 -0.016758915 -0.040714707
0000e0 f3 11 81 3d 7e 4b 35 bd 57 18 47 3c 03 57 c0 3e
       0.06302252 -0.044261448 0.012151799 0.37566385
0000f0 66 4c bc be df e7 a7 3d 35 81 bd 3d 46 8a d3 3c
       -0.36777037 0.08198523 0.0925316 0.02582277
000100 e7 03 14 be c2 b1 bf 3d ee fc d0 3d 63 5c ce 3d
       -0.14454614 0.093600765 0.102044925 0.10076215
000110 c4 ec 01 3e 31 42 62 bd 92 76 33 be dc 1c 9a 3d
       0.12687975 -0.055238906 -0.175257 0.07525036
000120 3f 7d 4c be 09 68 30 3e 11 65 6e 3d 65 87 98 3d
       -0.19969653 0.17227186 0.058201853 0.074476995
000130 6a 62 84 bd 84 88 12 3e 51 51 35 be f6 93 5e 3c
       -0.064640835 0.14309889 -0.17706801 0.013585081
000140 d8 cb 98 3d 2d 94 1f bd 2f 7c 91 3d e5 0c 08 be
       0.07460755 -0.03895967 0.07103764 -0.13286169
000150 da ff df 3d 4b d0 32 be f8 c8 f5 3d f4 d6 9e bd
       0.10937472 -0.1746227 0.12001222 -0.07755843
000160 7c a0 0c be df ad 2f 3e bc b0 25 bd cd 5a 1c 3d
       -0.13733095 0.1715617 -0.04045175 0.038172532
000170 e8 0d 92 bd ad 4a 99 3d 7a 5a cd bc b7 15 5c be
       -0.07131559 0.074849464 -0.025067557 -0.21492659
000180 6e bc 2c bd 9a f1 f2 bd 84 14 e8 bd 86 30 7e 3e
       -0.042171888 -0.11862488 -0.11332038 0.24823198
000190 10 9f 0e 3c 4a 7f 47 bd 80 b0 3d 3d dd 5b f9 3c
       0.008704916 -0.048705377 0.0463109 0.030439312
0001a0 45 e4 0d bd f1 51 38 3e b5 70 02 be 9e 0b 1f 3d
       -0.034641523 0.18000008 -0.12738307 0.03882944
0001b0 c9 4f e6 bd d6 98 33 3e b9 f9 b7 3d 96 c6 81 be
       -0.112456866 0.17538771 0.08983178 -0.25346822
0001c0 fe 61 a3 3e b1 64 b4 3d c6 fd ad bd 0d 96 70 be
       0.319107 0.08808268 -0.08495669 -0.2349474
0001d0 85 39 84 be 5c c3 b3 3d 98 ae 6b be f5 99 9d 3c
       -0.25825134 0.08777496 -0.23015821 0.019238451
0001e0 bf b9 13 3e 16 12 29 bd 01 76 f4 3d 80 30 5e bd
       0.14426325 -0.041277014 0.1193657 -0.054245472
0001f0 15 42 f5 3d 69 1c 61 3d 49 5d 0a be 6e 03 9b be
       0.11975495 0.054958735 -0.13512148 -0.30276054
000200 55 0c 79 3c 8b 48 c0 bd e4 17 75 3e 1c 1e 90 3e
       0.015200694 -0.093888365 0.23934895 0.28147972
000210 2d f9 13 be d3 da 2c be be 2d 92 bd cc d5 ae 3d
       -0.14450522 -0.1688035 -0.07137631 0.08536872
000220 a3 ef 34 3e d4 be 4b 3e 44 06 28 3d 3f fa 25 be
       0.17669539 0.19897014 0.0410216 -0.16208743
000230 96 3b ae 3d 29 a4 3a 3d dd d1 17 be fd 5d 53 bc
       0.08507459 0.04556671 -0.1482615 -0.0129008265
000240 9b 6b 94 3e ff 5b bc 3d 5c 50 86 3c 22 fd 10 bd
       0.28988346 0.09197234 0.01639574 -0.035397656
000250 0d 69 b7 3e 38 2f 7a be 7e 09 96 3e 94 72 0d be
       0.35822335 -0.24432075 0.29304117 -0.1381324
000260 8b 00 8a be e6 32 40 3c ad 27 a6 bd a0 45 88 3e
       -0.2695354 0.011730885 -0.08113036 0.2661562
000270 6f 1f a6 3d 49 4e 2c 3d 45 c2 02 3e 83 9d 8b 3d
       0.08111464 0.042066846 0.1276942 0.06817152
000280 87 20 e8 bc 55 7a 64 3d b3 e3 b6 3d 6e 46 0b 3d
       -0.028335823 0.055780727 0.08930149 0.034002714
000290 19 55 19 3c 96 d0 5a bc da ef a8 bd b1 58 4f 3e
       0.009358668 -0.013355395 -0.08248873 0.20248677
0002a0 6a a8 92 3e 13 fb 29 3d d9 59 37 be 58 51 98 3e
       0.28644115 0.04149921 -0.17905368 0.2974956
0002b0 ad c0 84 bc 05 fc a0 b9 07 a6 ad 3d b3 11 7b be
       -0.016205156 -0.00030705347 0.08478933 -0.2451847
0002c0 6c b9 8f 3d 41 df 2e be 8a 54 1e be 6d 4d 80 be
       0.07017788 -0.17077352 -0.15461937 -0.2505907
0002d0 bc da 54 3d 06 f2 e9 3d bb df 79 be 7c 0e 48 3d
       0.051966414 0.114231154 -0.24401753 0.04884194
0002e0 0d cf 1f 3d b8 6e e5 bd cc a1 9b 3d b8 79 9e be
       0.03901582 -0.112027586 0.0759922 -0.3095224
0002f0 e7 77 16 3e da f5 af 3d 56 ff fa 3d 94 76 b2 bd
       0.14694177 0.08591814 0.12255733 -0.08714023
000300 84 c5 a1 bd f7 c3 30 bd cd 43 93 3e 9c 8a cb bb
       -0.07899001 -0.043155637 0.28762665 -0.006211592
000310 6c e9 03 bd 4d 1c 25 3e 48 ac ab 3c 39 a8 c3 3d
       -0.03220503 0.16124077 0.020956174 0.0955357
000320 7e 96 90 3c 38 06 06 3e 7d fd 4e bd 08 1b 69 3d
       0.017649885 0.1308831 -0.050534714 0.056910545
000330 ad ee 06 3e c4 ca bd 3d 1e cf c9 bd 30 64 42 3c
       0.13176985 0.0926719 -0.098539576 0.011864707
000340 88 05 81 3e 86 c2 4f 3d c2 44 c5 bd b5 e0 2e bb
       0.25199533 0.05072262 -0.09632255 -0.0026684229
000350 00 c0 95 bd af 4a 51 be 42 d3 85 3d a7 46 31 be
       -0.07312012 -0.20438646 0.06534435 -0.17312108
000360 0d 7d 07 be 4d f1 90 3d d6 07 16 3e 96 35 88 3e
       -0.13231297 0.070772745 0.14651427 0.26603383
000370 28 db f4 bd 43 04 33 be e7 0e 74 3e e4 ea 39 be
       -0.11955863 -0.17482094 0.2383381 -0.1815601
000380 7c dc b4 bc 5b e0 6e 3e 89 35 92 3d 4d 22 79 3d
       -0.022077791 0.23327772 0.07139117 0.060823727
000390 a9 71 0d bd b1 d2 87 3d ea 0a 24 be a7 83 82 3d
       -0.034532223 0.06631983 -0.16019788 0.06372767
0003a0 1f 18 30 3e ee 04 8e bd 88 4a 11 be be f8 ff 3d
       0.17196701 -0.06934534 -0.14188588 0.12498616
0003b0 a1 d4 6a 3e a7 37 bf 3d e5 9e b7 be 98 56 e6 bd
       0.22932674 0.09336787 -0.35863414 -0.11246985
0003c0 0c 32 b2 3d 9c 5a 38 be d9 2a 8c bc 2d c9 3d 3e
       0.08700952 -0.18003315 -0.017110275 0.18533774
0003d0 4d f7 af 3d a2 46 81 3d c7 9a 2c 3e 55 01 7f be
       0.08592091 0.063123 0.16855918 -0.24902852
0003e0 d0 79 bd 3c 25 21 4a be a8 67 90 bc 5d 29 e0 bd
       0.023129374 -0.19739206 -0.017627552 -0.109453894
0003f0 ff 6e f2 3d c1 0f b3 bd ce fe 4d 3d 8a 97 b8 3b
       0.11837577 -0.08743239 0.05029183 0.0056332992

ffn.1.bias f4 [64]
000000 05 9e a2 3d 21 8d ae 3c 95 6f 1e 3d 06 7c 4f 3d
       0.07940296 0.02130753 0.03868063 0.050655387
000010 60 5b ae 3c f5 61 36 3d 1f 90 d0 3c af 59 c8 3c
       0.021283805 0.044527013 0.025459347 0.024456827
000020 b9 dc 9e 3d de 38 24 3d b2 16 66 3d 61 ec 12 3d
       0.07756943 0.040093295 0.056173988 0.03586996
000030 14 f7 99 3d 4d 12 65 3d 75 3c 90 3d 43 bc 9e 3d
       0.075178295 0.055925656 0.07042781 0.07750752
000040 7b 98 b0 3c 1f 9d a7 3a 8a a0 8e 3c 66 64 83 bb
       0.021557083 0.0012787915 0.017410535 -0.004009771
000050 ef 74 92 3d 77 5d 2a 3d 59 a7 c1 bc 40 68 19 3d
       0.071512096 0.04159304 -0.023639368 0.037452936
000060 81 6b 38 3d 06 f7 7e 3d 1c 05 0c 3d 92 58 fc 3c
       0.0450244 0.0622473 0.03418456 0.030803952
000070 d4 6a 1f 3d 1d 12 cd 3c 26 ef 27 3d c1 40 22 3d
       0.03892024 0.025033051 0.040999554 0.039612535
000080 e6 41 4f 3d 67 74 9e 3c 9f 80 64 3d 8c f7 75 3d
       0.050599955 0.019342614 0.055786725 0.060050532
000090 03 93 bf 3d 69 1b 24 3d 43 0f 80 3d 47 b3 4c 3c
       0.09354212 0.040065203 0.06252911 0.012493915
0000a0 6d 76 77 3d 62 a9 f2 3c e1 95 a3 3c b5 b5 f2 bb
       0.060415674 0.029621784 0.019968929 -0.007406915
0000b0 9b 14 87 3d 1d dd 13 3d 97 b9 62 3d c7 64 72 3c
       0.06595727 0.036099542 0.055352774 0.014794535
0000c0 b7 e8 19 3d 04 23 fe 3c db 4d 1c 3d e7 c3 19 3d
       0.03757545 0.031022556 0.038160186 0.037540343
0000d0 45 0c 8f 3c 1a 8d 0f 3d 57 12 d0 3a 75 22 12 3d
       0.017461905 0.035046674 0.0015874606 0.035677392
0000e0 ec ed 6c 3d ab 89 10 3d 22 6b 4e 3c 09 81 9e 3d
       0.057844087 0.03528754 0.012598785 0.07739455
0000f0 1a 61 8a 3b 87 17 d6 3c be d6 e8 bb 47 41 28 3d
       0.004223001 0.026134266 -0.0071056774 0.04107788

ffn.4.weight f4 [1, 64]
000000 26 6b 55 be 40 32 fd 3e 50 92 f1 3d 1c 36 78 3e
       -0.20841655 0.494524 0.11795485 0.24239391
000010 33 bc 84 3e 06 88 30 be 8f 64 97 be 64 60 43 be
       0.25924835 -0.17239389 -0.29568908 -0.19079739
000020 b5 1d 26 3e 21 d5 8a 3d 6a 01 69 3e 59 fd 95 be
       0.1622227 0.06778932 0.22754446 -0.2929485
000030 60 5a 92 be 59 ea 9b 3d 06 cb 8c be 9f 81 61 be
       -0.28584576 0.07613058 -0.27498645 -0.22022103
000040 3e 16 4b be 83 26 4a be 81 9d 07 3e f7 e7 42 be
       -0.19832703 -0.19741254 0.13243677 -0.190338
000050 a5 37 52 3e 09 12 66 be 05 55 a2 be 23 dd 59 3e
       0.20529039 -0.22467817 -0.3170549 0.21275763
000060 8f 1f 49 be 9f 95 f2 be 4c 26 95 be 0f 51 af be
       -0.19640945 -0.47379777 -0.2913078 -0.3424153
000070 5e ef ed bd 45 ce bf 3d fb f1 a7 3e c8 4a 71 3e
       -0.11617921 0.09365515 0.32801804 0.23563683
000080 41 9d 80 be a2 56 5c be 87 9d 94 be 7d 91 90 be
       -0.25119975 -0.21517423 -0.29026434 -0.28236
000090 e1 b8 60 be 38 9a 80 be 41 36 10 3e c1 41 69 3d
       -0.21945526 -0.2511766 0.14083196 0.056947473
0000a0 7b 23 ce 3e 2a f0 8d 3e d3 bf e4 3d 99 03 1b 3e
       0.40261444 0.27722293 0.111694 0.15138091
0000b0 8f cd 82 be 29 d6 ec bd 80 c6 72 3e 5b 25 2e 3e
       -0.25547454 -0.11564285 0.23708534 0.17006437
0000c0 93 a2 24 3f 35 7d 97 3e e2 9a 9f be 1e 3e bf be
       0.6431057 0.29587713 -0.31172854 -0.3735208
0000d0 90 89 4d 3e 74 c8 ba 3e 9b 97 06 3d 08 6a 93 be
       0.20072007 0.3648106 0.032859426 -0.28791833
0000e0 a3 1b 3e 3e 66 cb 7c 3e f4 17 71 3e bb f4 5e be
       0.1856523 0.24686965 0.23544294 -0.21773045
0000f0 d0 f1 c8 bd dd ef 7b 3d 9c f3 3f be ff 5c 93 3e
       -0.09811747 0.06150805 -0.18745273 0.28781888
