githubproject/lbdd/amse_build/mmodel14/checkpoints_2_folds/fold_1/model_0/model.pt (torch, 127883 bytes, 8 tensors)

encoder.encoder.0.cached_zero_vector f4 [64]
0.0 0.0 0.0 0.0 0.0 0.0 0.0 0.0
0.0 0.0 0.0 0.0 0.0 0.0 0.0 0.0
0.0 0.0 0.0 0.0 0.0 0.0 0.0 0.0
0.0 0.0 0.0 0.0 0.0 0.0 0.0 0.0
0.0 0.0 0.0 0.0 0.0 0.0 0.0 0.0
0.0 0.0 0.0 0.0 0.0 0.0 0.0 0.0
0.0 0.0 0.0 0.0 0.0 0.0 0.0 0.0
0.0 0.0 0.0 0.0 0.0 0.0 0.0 0.0
00000000: 0000 0000 0000 0000 0000 0000 0000 0000
00000010: 0000 0000 0000 0000 0000 0000 0000 0000
00000020: 0000 0000 0000 0000 0000 0000 0000 0000
00000030: 0000 0000 0000 0000 0000 0000 0000 0000
00000040: 0000 0000 0000 0000 0000 0000 0000 0000
00000050: 0000 0000 0000 0000 0000 0000 0000 0000
00000060: 0000 0000 0000 0000 0000 0000 0000 0000
00000070: 0000 0000 0000 0000 0000 0000 0000 0000
00000080: 0000 0000 0000 0000 0000 0000 0000 0000
00000090: 0000 0000 0000 0000 0000 0000 0000 0000
000000a0: 0000 0000 0000 0000 0000 0000 0000 0000
000000b0: 0000 0000 0000 0000 0000 0000 0000 0000
000000c0: 0000 0000 0000 0000 0000 0000 0000 0000
000000d0: 0000 0000 0000 0000 0000 0000 0000 0000
000000e0: 0000 0000 0000 0000 0000 0000 0000 0000
000000f0: 0000 0000 0000 0000 0000 0000 0000 0000

encoder.encoder.0.W_i.weight f4 [64, 147]
-0.07206518 -0.05008537 -0.03968876 0.06903978 0.045412935 -0.26464236 0.1395816 -0.20532393
0.046832927 -0.1744541 0.06616187 -0.055768475 -0.042501662 -0.06330685 0.017599454 0.03817899
0.110412404 0.024304211 -0.047194365 0.027352443 0.05805825 -0.096853465 -0.22523758 0.12055235
0.1030678 -0.10800645 0.009954981 0.072875276 -0.04661794 0.12174321 -0.008983664 -0.25265467
-0.016038883 0.026525158 -0.0058700847 -0.072658576 -0.040660072 0.0110483365 -0.1275476 -0.022325378
0.08997914 0.0040397127 -0.11196257 -0.079820275 -0.0010532818 0.03646381 -0.13950948 0.250508
-0.01464231 -0.120679356 0.15110002 0.025163768 -0.023953544 -0.1624579 0.05385661 -0.06687006
0.102403335 -0.098695785 -0.11267509 0.121024415 -0.025245808 -0.16821446 0.03424935 -0.056904566
0.109563224 0.20857297 0.08670766 0.055597864 -0.07195261 0.034120493 -0.15100701 0.12777835
-0.17828783 -0.07947635 0.17625384 0.051802684 -0.06526184 0.13117355 0.027745219 0.014155965
-0.06477524 0.18754484 0.101746 0.010129143 0.12582631 0.094975665 0.14879212 0.02158723
0.1837623 -0.050486863 -0.10029264 0.0046054106 -0.062097345 -0.046494916 -0.073667414 -0.17217438
0.026544746 0.0057292865 0.014081073 -0.1115586 0.10964224 0.061439436 -0.045769885 0.018722106
0.16671413 0.11822705 -0.07633129 -0.04677218 -0.30798 0.08526237 0.13566796 0.04158415
-0.012809171 0.015323981 0.03489785 -0.045089267 0.22915539 0.08611987 0.16351599 -0.13476314
0.08491005 0.24879988 -0.09681318 0.07470537 -0.0017102805 0.31948605 0.18124184 0.048160065
-0.2342969 0.09597947 0.03808657 -0.30791575 0.06534466 -0.032503687 0.13324212 -0.020856423
-0.05753841 -0.14473681 0.078333944 -0.45707965 -0.25923145 0.06452714 0.024535803 0.1151846
-0.045037225 -0.15935354 0.06582784 -0.019218838 -0.22305363 0.09488809 0.04173259 0.15101661
0.05218879 0.020035222 0.06286196 -0.13509707 0.10407295 -0.038219746 0.00072340504 0.015684042
-0.07031646 0.058421094 -0.23389202 0.037000384 -0.21059418 0.085220926 -0.032427914 -0.13343497
-0.016177192 -0.052661188 -0.16781224 0.25560468 -0.15571274 -0.03274651 0.15914717 0.0070806136
0.1531932 -0.0031007768 -0.036305003 0.06860738 0.32918373 0.0062235454 0.008313128 0.023637611
-0.0006861927 0.026208803 0.06668769 0.039564654 0.042412106 -0.1434392 0.06835159 -0.010267966
-0.085570775 0.1123162 -0.032075666 0.021623833 -0.039438207 -0.005050593 0.009523742 -0.16776574
-0.034854412 -0.040606696 0.00630493 -0.005800814 0.16090551 -0.0380453 0.0038305835 -0.1371718
-0.01079254 0.041963644 0.026303852 -0.06427669 -0.0494635 -0.09259756 0.13367678 -0.119289026
0.18421161 0.18903896 0.035297874 0.14702244 0.11178716 0.11132716 -0.077981986 0.0014621149
-0.07806053 -0.14442223 0.18272494 0.092760496 0.020371687 0.082306825 -0.04376375 -0.022074493
0.087449014 0.010192933 0.041959044 0.015649088 -0.027045695 -0.07399044 -0.035217013 -0.10002875
-0.15356849 0.18731013 -0.043543898 -0.06364075 -0.027861157 0.013467901 0.071030945 0.05360097
-0.083656415 -0.013556478 0.036326777 -0.008853291 0.030917482 -0.1470007 0.06293659 0.14760123
00000000: e996 93bd 5126 4dbd ae90 22bd ba64 8d3d
00000010: ea02 3a3d 347f 87be 7bee 0e3e 7040 52be
00000020: e2d3 3f3d 18a4 32be e07f 873d 7c6d 64bd
00000030: 3916 2ebd 06a7 81bd bb2c 903c 9361 1c3d
00000040: e61f e23d a019 c73c e14e 41bd 3b12 e03c
00000050: 7dce 6d3d 1c5b c6bd aea4 66be 27e4 f63d
00000060: 3615 d33d 7c32 ddbd 371a 233c a23f 953d
00000070: 74f2 3ebd 8154 f93d 3830 13bc f45b 81be
00000080: fa63 83bc 4a4b d93c d759 c0bb 05ce 94bd
00000090: 2d8b 26bd 1504 353c d79b 02be b6e3 b6bc
000000a0: fc46 b83d 915f 843b a24c e5bd d078 a3bd
000000b0: 460e 8aba 135b 153d 93db 0ebe 9642 803e
000000c0: 4de6 6fbc bd26 f7bd f7b9 1a3e 3f24 ce3c
000000d0: 393a c4bc 5d5b 26be c098 5c3d 2cf3 88bd
000000e0: d7b8 d13d 0421 cabd 33c2 e6bd a6db f73d
000000f0: 4cd0 cebc 6940 2cbe 0c49 0c3d c314 69bd
00000100: af62 e03d 2794 553e c993 b13d 96ba 633d
00000110: e45b 93bd eec1 0b3d 95a1 1abe 54d8 023e
00000120: 1691 36be 7fc4 a2bd e37b 343e 0d2f 543d
00000130: 00a8 85bd 5c52 063e f149 e33c 6cee 673c
00000140: e2a8 84bd c10b 403e 3560 d03d b4f4 253c
00000150: 9dd8 003e 9a82 c23d f65c 183e b4d7 b03c
00000160: 2f2c 3c3e 50cb 4ebd 3a66 cdbd fce8 963b
00000170: c959 7ebd 7471 3ebd f1de 96bd 7b4e 30be
00000180: 5e74 d93c bdbc bb3b 4db4 663c d678 e4bd
00000190: 1c8c e03d eba7 7b3d 3479 3bbd 1a5f 993c
000001a0: 1cb7 2a3e 0621 f23d 9453 9cbd 2f94 3fbd
000001b0: 8eaf 9dbe 0a9e ae3d 8bec 0a3e 2454 2a3d
000001c0: 8fdd 51bc 6f11 7b3c 0cf1 0e3d 86af 38bd
000001d0: b6a7 6a3e 9d5f b03d bc70 273e 59ff 09be
000001e0: 52e5 ad3d 65c5 7e3e fd45 c6bd 21ff 983d
000001f0: 7e2b e0ba ad93 a33e 7697 393e 7d43 453d
00000200: 87eb 6fbe e290 c43d aa00 1c3d 22a7 9dbe
00000210: 6cd3 853d 9622 05bd 9f70 083e 17db aabc
00000220: 65ad 6bbd e335 14be 8c6d a03d 5806 eabe
00000230: fcb9 84be ce26 843d 4fff c83c e7e5 eb3d
00000240: f478 38bd 932d 23be bfd0 863d d370 9dbc
00000250: 2c68 64be b054 c23d cbef 2a3d 19a4 1a3e
00000260: eac3 553d e820 a43c c5bd 803d e356 0abe
00000270: 3324 d53d 4f8c 1cbd e4a2 3d3a d27b 803c
00000280: 1402 90bd f54a 6f3d 6481 6fbe b78d 173d
00000290: 00a6 57be 4f88 ae3d 22d3 04bd 2da3 08be
000002a0: 0886 84bc 42b3 57bd f9d6 2bbe 9ede 823e
000002b0: 2973 1fbe 3421 06bd 7af7 223e 7e04 e83b
000002c0: aede 1c3e 6736 4bbb 8eb4 14bd 0782 8c3d
000002d0: c58a a83e e2ee cb3b c933 083c aaa3 c13c
000002e0: 9de1 33ba d8b3 d63c 8e93 883d 8c0e 223d
000002f0: 51b8 2d3d bae1 12be ebfb 8b3d f93a 28bc
00000300: bb3f afbd 0906 e63d c661 03bd 7724 b13c
00000310: f589 21bd 727f a5bb 7809 1c3c c8ca 2bbe
00000320: 80c3 0ebd 3553 26bd 9699 ce3b c114 bebb
00000330: 6ac4 243e 63d5 1bbd 870a 7b3b c476 0cbe
00000340: 32d3 30bc 12e2 2b3d 2d7b d73c 7fa3 83bd
00000350: 3d9a 4abd caa3 bdbd 91e2 083e ce4d f4bd
00000360: f8a1 3c3e 6e93 413e 8194 103d 0d8d 163e
00000370: abf0 e43d 7eff e33d 05b5 9fbd 6fa4 bf3a
00000380: 33de 9fbd 6ce3 13be 3f1c 3b3e 37f9 bd3d
00000390: 86e2 a63c 7b90 a83d 9e41 33bd 91d5 b4bc
000003a0: 7818 b33d 4200 273c 3fdd 2b3d 8432 803c
000003b0: ef8e ddbc 4d88 97bd b73f 10bd e0db ccbd
000003c0: 0f41 1dbe 3ace 3f3e 165b 32bd 1556 82bd
000003d0: 153d e4bc 79a8 5c3c ac78 913d b18c 5b3d
000003e0: 0e54 abbd fd1b 5ebc 63cb 143d 650d 11bc
000003f0: a946 fd3c 5a87 16be e6e4 803d c724 173e

encoder.encoder.0.W_h.weight f4 [64, 64]
-0.2702788 -0.019470602 -0.3424006 0.2899436 0.014933492 -0.110020034 -0.13633257 -0.08978736
-0.025954697 -0.076411135 0.09106592 -0.16894655 0.23751234 -0.22598514 0.08064148 0.038866494
-0.15387218 0.15304352 0.0694381 0.10702484 0.067209154 -0.27442077 0.02961267 -0.17297684
-0.2532954 -0.34361476 -0.02514765 -0.2307465 0.24428429 0.11473435 0.11803772 0.19341847
-0.15162864 0.28554386 -0.03665444 -0.21656893 0.21447164 0.09715013 0.01481392 0.07986662
0.1890927 -0.15118739 -0.08298451 0.22190145 0.25558087 -0.10951378 0.05571865 -0.103422746
0.119950294 0.18482544 -0.021099215 -0.13336591 -0.083512776 0.01009238 0.15633821 -0.15460368
0.19024898 0.06541804 0.055582155 0.046370454 -0.03948597 0.11559979 -0.23590751 0.10521214
0.21835764 -0.029373303 -0.025749618 0.25708044 -0.31453583 0.039278492 0.03256734 -0.10453598
0.09226666 -0.24182156 -0.062524065 -0.0021668307 -0.040461913 -0.18142422 0.13921843 0.13732046
0.11078779 0.01740352 -0.0831369 -0.14271127 0.08887399 0.27910283 0.13652052 -0.045831375
0.01112268 -0.012395153 0.023322962 0.07810513 0.030810917 0.028962241 -0.07596971 0.06423774
0.15463038 0.081449494 0.5035711 0.034172367 -0.050475325 -0.048129536 -0.03981946 -0.0807949
0.16652158 -0.06539255 0.15099783 0.060499497 0.021345705 -0.20664762 -0.18995501 0.048684623
0.046293866 -0.24955547 0.058988716 -0.040721152 -0.01889185 0.29450998 0.2833013 -0.0796694
0.029705323 0.022716712 -0.2929454 -0.049490348 -0.11996208 0.042981237 0.12843047 -0.13866119
0.057398327 -0.09289242 0.007949166 0.34110996 -0.029775726 -0.034712993 0.18768466 -0.058187205
-0.18244268 -0.1704794 0.0858107 -0.17778479 -0.13630377 -0.05448636 0.008362682 -0.0374274
-0.12379677 -0.09976512 0.04197277 0.0914352 0.1911015 0.012070049 -0.026646085 0.20980951
-0.27053237 -0.05431853 0.11151868 0.051759988 0.13068728 0.15696844 0.013285087 0.01776842
0.22053261 0.12464596 0.08690823 -0.03402963 -0.086126566 -0.25373986 -0.043468125 -0.13106208
-0.20005459 -0.001474872 -0.063996285 -0.040122095 -0.14232692 0.46725574 0.3142206 0.1056412
0.07976928 -0.029658291 0.22080755 0.013707575 0.13300656 -0.014423643 -0.069400996 -0.11601473
-0.07744215 0.15172392 0.005226869 0.13362375 -0.031688385 0.18416849 0.116858035 0.0916165
-0.041170098 0.122892916 -0.38009807 0.23825078 0.04539838 0.1228539 -0.02964964 -0.268373
-0.05096328 -0.12698536 -0.040177606 -0.04117293 0.109018356 -0.38453493 0.13466603 -0.2092907
-0.30793414 -0.12864716 0.33444127 -0.028101912 0.16093503 -0.035680212 0.16232601 0.09015997
0.18024136 0.051478527 -0.04197785 -0.10612296 -0.17822681 -0.10655864 0.029070267 0.069358766
3.0982905e-05 -0.22418837 -0.08974208 -0.11446243 0.011940179 0.009718252 -0.028123936 0.20023182
0.2870337 0.16174181 0.16630259 0.19149427 0.0961566 -0.005834168 -0.10472631 -0.026589382
-0.10160743 0.061183903 -0.26587114 -0.2241384 -0.17242947 0.022507014 -0.11978831 -0.10644221
0.0036972808 -0.23882443 0.027134344 -0.051718365 -0.07096168 0.13755654 -0.057787098 -0.17018428
00000000: fc61 8abe d080 9fbc 224f afbe 7d73 943e
00000010: 9bab 743c 2f52 e1bd c49a 0bbe 6fe2 b7bd
00000020: f29e d4bc 717d 9cbd c580 ba3d 5300 2dbe
00000030: 6f36 733e a668 67be 5c27 a53d 7932 1f3d
00000040: ab90 1dbe 71b7 1c3e 9035 8e3d d72f db3d
00000050: f4a4 893d e180 8cbe 4596 f23c d720 31be
00000060: efaf 81be 46ee afbe 7202 cebc cf48 6cbe
00000070: a925 7a3e d8f9 ea3d c3bd f13d 7e0f 463e
00000080: 8a44 1bbe ce32 923e f722 16bd 3fc4 5dbe
00000090: 749e 5b3e a6f6 c63d 15b6 723c 1c91 a33d
000000a0: 84a1 413e ded0 1abe c8f3 a9bd 223a 633e
000000b0: 7fdb 823e c348 e0bd 3d39 643d 4ecf d3bd
000000c0: 80a8 f53d e142 3d3e 43d8 acbc 1391 08be
000000d0: bf08 abbd 835a 253c 2017 203e 6d50 1ebe
000000e0: a1d0 423e e5f9 853d 1daa 633d f2ee 3d3d
000000f0: 0abc 21bd 95bf ec3d bd91 71be 7679 d73d
00000100: 2599 5f3e 48a0 f0bc ddf0 d2bc 0ca0 833e
00000110: d70a a1be 7ce2 203d 5565 053d f616 d6bd
00000120: 4df6 bc3d 12a0 77be 9e0c 80bd 6301 0ebb
00000130: 64bb 25bd 45c7 39be 478f 0e3e bc9d 0c3e
00000140: b5e4 e23d d491 8e3c ae43 aabd e722 12be
00000150: 9103 b63d 91e6 8e3e 09cc 0b3e aeb9 3bbd
00000160: e73b 363c 0a15 4bbc cc0f bf3c 95f5 9f3d
00000170: 2d67 fc3c 3942 ed3c 0296 9bbd 148f 833d
00000180: 6d57 1e3e fece a63d 09ea 003f 53f8 0b3d
00000190: 37bf 4ebd 7a23 45bd bb19 23bd cc77 a5bd
000001a0: a284 2a3e 87ec 85bd 2d9f 1a3e 52ce 773d
000001b0: 30dd ae3c 6f9b 53be 9183 42be 8769 473d
000001c0: a39e 3d3d 788b 7fbe 279e 713d 39cb 26bd
000001d0: 15c3 9abc 03ca 963e de0c 913e b629 a3bd
000001e0: 9458 f33c 6618 ba3c f1fc 95be 64b6 4abd
000001f0: aeae f5bd 180d 303d 4783 033e 33fd 0dbe
00000200: 821a 6b3d 623e bebd 383d 023c f7a5 ae3e
00000210: 39ec f3bc 362f 0ebd 6830 403e b555 6ebd
00000220: 41d2 3abe 2792 2ebe 85bd af3d 370d 36be
00000230: 3793 0bbe 172d 5fbd a103 093c 794d 19bd
00000240: 2989 fdbd a851 ccbd a4eb 2b3d 6142 bb3d
00000250: 1db0 433e 74c1 453c e448 dabc 4ed8 563e
00000260: 3883 8abe 1b7d 5ebd e863 e43d 4802 543d
00000270: e3d2 053e 56bc 203e b2a9 593c 148f 913c
00000280: 4dd3 613e 6246 ff3d f1fc b13d a762 0bbd
00000290: 2063 b0bd 31ea 81be a20b 32bd 2335 06be
000002a0: 1cdb 4cbe 7e50 c1ba 7c10 83bd 1157 24bd
000002b0: 26be 11be 253c ef3e 86e1 a03e 6a5a d83d
000002c0: 145e a33d f2f5 f2bc 601b 623e bd95 603c
000002d0: df32 083e 2551 6cbc 1c22 8ebd 2199 edbd
000002e0: fd99 9ebd 845d 1b3e 2846 ab3b aad4 083e
000002f0: aecb 01bd aa96 3c3e 4453 ef3d 6ea1 bb3d
00000300: faa1 28bd 48af fb3d 379c c2be 03f8 733e
00000310: a7f3 393d d39a fb3d cde3 f2bc 3068 89be
00000320: dfbe 50bd 7308 02be 4691 24bd f2a4 28bd
00000330: 0445 df3d c3e1 c4be e4e5 093e 4d50 56be
00000340: 8ba9 9dbe 15bc 03be e33b ab3e fb35 e6bc
00000350: 27cc 243e 6a25 12bd ca38 263e caa5 b83d
00000360: 3191 383e 26db 523d f7f0 2bbd ff56 d9bd
00000370: 1781 36be 6b3b dabd c524 ee3c f80b 8e3d
00000380: a4f3 0138 a391 65be b2ca b7bd 476b eabd
00000390: bea0 433c 4e39 1f3c 2b64 e6bc 9209 4d3e
000003a0: 15f6 923e a59f 253e 3a4b 2a3e 1317 443e
000003b0: c0ed c43d 8c2c bfbb bf7a d6bd fad1 d9bc
000003c0: 8e17 d0bd f99b 7a3d 4320 88be 8984 65be
000003d0: 5a91 30be a160 b83c 9353 f5bd 60fe d9bd
000003e0: 144e 723b 648e 74be d848 de3c a3d6 53bd
000003f0: 5b54 91bd 9fdb 0c3e 2ab2 6cbd ca44 2ebe

encoder.encoder.0.W_o.weight f4 [64, 197]
-0.15037121 -0.06350561 0.019967698 -0.090437114 -0.07532705 -0.19330458 -0.1286511 0.08589547
0.16534624 0.018408965 0.069557965 -0.10245004 -0.07912757 -0.088903435 0.021772465 0.007846187
-0.010177011 -0.1077228 -0.071461126 -0.029034711 -0.03098518 -0.052196823 -0.04558693 0.05807773
0.13837928 -0.10121035 0.05366002 0.111132376 -0.14819239 -0.057188116 0.069760785 0.08861752
-0.017195093 -0.037821747 0.030267706 0.083590135 -0.03306984 -0.027542805 0.062347148 -0.08980397
-0.022851622 -0.056820337 -0.002946272 -0.07800315 -0.031139499 0.07918255 -0.009265752 -0.13925666
0.12501313 -0.07268746 -0.037929118 -0.11085316 -0.07779443 -0.00031821695 0.092546836 0.22718926
-0.058064282 0.0009456087 0.03369114 -0.047043238 -0.108999014 -0.10129775 0.018375456 -0.033595446
0.0918047 -0.03690636 -0.1672274 -0.011869119 -0.045701895 -0.016187461 -0.00091690244 -0.07605318
-0.08728284 0.04549232 -0.0068161134 0.18101558 0.17812131 -0.13888009 -0.07237758 0.016429856
-0.13401277 0.03467455 0.0037734935 0.03366411 0.13169344 0.0023245502 0.028350206 0.07429919
0.048386578 -0.009090888 -0.009086684 0.026818465 0.024351036 -0.043643314 -0.11267451 0.06978112
-0.078002095 -0.057853814 -0.11995928 -0.006899921 0.0997571 -0.023453327 -0.042526543 -0.17855898
-0.086137176 0.15187515 0.03678767 -0.114580564 0.14108978 0.18914813 0.041480288 0.022086395
0.122629225 0.024621807 -0.09394279 0.26098418 0.2873582 0.021016385 0.029421715 -0.23750468
0.020613892 0.010955036 -0.064830706 0.050387636 0.07996882 -0.1419041 0.12456689 0.02320622
-0.10777954 0.13563736 0.055030007 0.07932894 -0.06680792 0.15067959 0.086152606 -0.10455852
-0.017653218 -0.044942938 -0.13843544 0.059641216 -0.21144198 -0.15204363 -0.021963645 -0.059410665
-0.08265064 0.068706706 -0.055725563 -0.049178824 0.10887744 0.062834226 0.059952635 -0.049822554
-0.1524604 0.061404184 0.10743189 0.030821221 -0.058751963 0.15889937 -0.15859453 -0.2248529
0.044128656 -0.020505283 -0.015066855 -0.019710848 0.118720986 0.024923084 -0.036626387 0.312926
-0.02488129 -0.1135463 0.024248648 0.048690517 -0.1356546 0.13912912 -0.08255886 -0.049324557
0.118821934 0.057192504 -0.17767288 0.03328664 0.29674837 -0.19113107 0.099167205 0.17057367
-0.18290588 -0.11629876 0.05694264 -0.070255406 0.078638926 0.02683157 -0.06288474 0.052638475
0.058991283 -0.10000723 0.0008956334 0.13254172 0.07799414 0.036916353 0.071360424 -0.07938512
0.06259881 0.018410375 0.089823194 0.060397975 -0.022807302 0.1425627 -0.033976518 -0.043871343
-0.052872937 0.22529487 -0.05359676 0.10073625 0.27669293 0.12531051 -0.13510126 0.085287295
0.008774378 -0.17635477 0.06896972 -0.06024053 -0.076680765 0.05365384 0.02970282 0.04380137
-0.13217689 0.038371887 0.07453543 0.027804395 0.03363657 0.05765898 0.009325381 -0.039656524
0.017496692 0.020393433 0.06420854 0.030507753 -0.15797403 0.1305592 0.12839054 -0.12574604
-0.020562558 -0.06728797 0.026203658 -0.016038677 0.07282745 0.058269978 -0.17796445 -0.096691124
-0.033343103 -0.17685175 0.031874347 -0.053215835 0.057344325 0.072504215 -0.06962014 -0.020479057
00000000: e9fa 19be 3b0f 82bd 4c93 a33c 1837 b9bd
00000010: 1245 9abd a3f1 45be 1dbd 03be f7e9 af3d
00000020: 8650 293e 66ce 963c 6874 8e3d 54d1 d1bd
00000030: a30d a2bd 0113 b6bd 2b5c b23c 4b8d 003c
00000040: 7abd 26bc c59d dcbd 365a 92bd 34da edbc
00000050: a2d4 fdbc 56cc 55bd 5cb9 3abd eae2 6d3d
00000060: 4cb3 0d3e 5f47 cfbd 9cca 5b3d 5f99 e33d
00000070: bfbf 17be 163e 6abd bede 8e3d 1a7d b53d
00000080: b9dc 8cbc faea 1abd fbf3 f73c 4e31 ab3d
00000090: 3e74 07bd 73a1 e1bc b95f 7f3d 25eb b7bd
000000a0: 5333 bbbc 71bc 68bd 3e16 41bb 1ec0 9fbd
000000b0: 4318 ffbc 762a a23d 61cf 17bc 4c99 0ebe
000000c0: 7103 003e 2add 94bd 905b 1bbd fb06 e3bd
000000d0: b052 9fbd 5bd6 a6b9 3289 bd3d 4da4 683e
000000e0: d0d4 6dbd bae2 773a b9ff 093d 69b0 40bd
000000f0: e03a dfbd 3275 cfbd 2088 963c 619b 09bd
00000100: 1a04 bc3d 202b 17bd a93d 2bbe b176 42bc
00000110: e931 3bbd 919b 84bc 485c 70ba c5c1 9bbd
00000120: 58c1 b2bd 2856 3a3d b459 dfbb 265c 393e
00000130: 6f65 363e 9536 0ebe b23a 94bd e897 863c
00000140: a53a 09be e706 0e3d b74c 773b 61e3 093d
00000150: a5da 063e 7b57 183b b13e e83c 2c2a 983d
00000160: 0131 463d f3f1 14bc 51e0 14bc 66b2 db3c
00000170: d37b c73c 55c3 32bd e5c1 e6bd 67e9 8e3d
00000180: 90bf 9fbd 1ff8 6cbd 36ad f5bd bc18 e2bb
00000190: 734d cc3d 3121 c0bc 5030 2ebd 2ad8 36be
000001a0: b068 b0bd 2985 1b3e abae 163d 37a9 eabd
000001b0: d779 103e 0cb0 413e 3ce7 293d 87ee b43c
000001c0: 0825 fb3d acb3 c93c 1465 c0bd b89f 853e
000001d0: 9d20 933e 8e2a ac3c cf05 f13c 6d34 73be
000001e0: 77de a83c c07c 333c f6c5 84bd 4463 4e3d
000001f0: b1c6 a33d 4f4f 11be ed1c ff3d f81a be3c
00000200: 85bb dcbd 85e4 0a3e 2567 613d 3677 a23d
00000210: 97d2 88bd c04b 1a3e c770 b03d c722 d6bd
00000220: 7b9d 90bc 1616 38bd 05c2 0dbe 594a 743d
00000230: 3f84 58be 53b1 1bbe 1aed b3bc 9958 73bd
00000240: bd44 a9bd 1ab6 8c3d 7d40 64bd bc6f 49bd
00000250: 23fb de3d 3baf 803d e590 753d bc12 4cbd
00000260: 941e 1cbe f482 7b3d 4005 dc3d c97c fc3c
00000270: e6a5 70bd 84b6 223e 9b66 22be d73f 66be
00000280: 40c0 343d b2fa a7bc f8da 76bc a578 a1bc
00000290: fd23 f33d 7f2b cc3c 8d05 16bd d637 a03e
000002a0: d9d3 cbbc f68a e8bd 1aa5 c63c b56f 473d
000002b0: 0ae9 0abe dd77 0e3e 9f14 a9bd 8c08 4abd
000002c0: ea58 f33d b042 6a3d e1ef 35be 9257 083d
000002d0: 67ef 973e ddb7 43be 2d18 cb3d ddaa 2e3e
000002e0: ae4b 3bbe 0b2e eebd b03c 693d 11e2 8fbd
000002f0: 720d a13d e1cd db3c b7c9 80bd 719b 573d
00000300: d8a0 713d 97d0 ccbd f1c8 6a3a 04b9 073e
00000310: 64bb 9f3d 9a35 173d 6a25 923d aa94 a2bd
00000320: ce33 803d 5bd1 963c 39f5 b73d de63 773d
00000330: 61d6 babc f5fb 113e f62a 0bbd 70b2 33bd
00000340: 4b91 58bd b3b3 663e 4788 5bbd cf4e ce3d
00000350: b2aa 8d3e 6651 003e fc57 0abe 1bab ae3d
00000360: 69c2 0f3c 5896 34be ff3f 8d3d c6be 76bd
00000370: ce0a 9dbd 21c4 5b3d 5453 f33c 1169 333d
00000380: 6159 07be d72b 1d3d 08a6 983d 0bc6 e33c
00000390: 80c6 093d d32b 6c3d 7cc9 183c e16e 22bd
000003a0: 3955 8f3c 2110 a73c c47f 833d 65eb f93c
000003b0: f2c3 21be 50b1 053e cf78 033e 92c3 00be
000003c0: cf72 a8bc 46ce 89bd 0ea9 d63c 8b63 83bc
000003d0: 8f26 953d 80ac 6e3d 503c 36be ff05 c6bd
000003e0: c792 08bd a018 35be ad8e 023d d9f8 59bd
000003f0: e2e1 6a3d 177d 943d 0195 8ebd b2c3 a7bc

encoder.encoder.0.W_o.bias f4 [64]
0.020354183 -0.0043299664 -0.010096329 0.018294267 -0.007469908 -0.00091623137 0.015448735 -0.012589255
-0.027877858 -0.004625293 -0.019195605 0.0141253965 0.019253043 0.00082782866 -0.03545785 -0.032984413
0.008180187 0.015376962 -0.012694524 0.010691413 0.005594438 -0.019892061 -0.022549568 -0.00958465
0.00784816 -0.019234389 0.015741944 0.010367169 -0.0009329478 -0.00054791034 0.023903824 -0.015690245
-0.02001489 -0.021900592 0.01638155 0.017926142 -0.0127497595 0.013071456 0.0035088721 0.01386157
-0.011484346 0.0085617155 -0.011026493 0.007540348 0.004302091 -0.02421089 0.013090715 0.0053237253
0.008292784 0.024315827 0.037327267 0.0013220096 0.015765537 0.0065541277 0.013479058 -0.00019669911
-0.007034632 0.015010984 0.0010581522 0.036755294 0.03207138 0.026964815 -0.03280329 -0.009198133
00000000: d1bd a63c 64e2 8dbb 136b 25bc dcdd 953c
00000010: 21c6 f4bb 3f2f 70ba b11c 7d3c 2a43 4ebc
00000020: 1b60 e4bc c58f 97bb 1a40 9dbc 356e 673c
00000030: 8fb8 9d3c a402 593a 403c 11bd aa1a 07bd
00000040: 3106 063c a7ef 7b3c b1fc 4fbc 092b 2f3c
00000050: 8c51 b73b adf4 a2bc dfb9 b8bc f008 1dbc
00000060: 9295 003c 7091 9dbc 40f5 803c 0fdb 293c
00000070: 1191 74ba a4a1 0fba f4d1 c33c d488 80bc
00000080: 44f6 a3bc df68 b3bc 9a32 863c d8d9 923c
00000090: 5ee4 50bc a929 563c 1bf5 653b a31b 633c
000000a0: d728 3cbc 7046 0c3c 77a8 34bc 0615 f73b
000000b0: 8ef8 8c3b eb55 c6bc 707a 563c a572 ae3b
000000c0: 75de 073c fc31 c73c 7ae4 183d 4847 ad3a
000000d0: ba26 813c 02c4 d63b 44d7 5c3c 0441 4eb9
000000e0: c582 e6bb a1f0 753c b2b1 8a3a b88c 163d
000000f0: 485d 033d 51e5 dc3c be5c 06bd c4b3 16bc

ffn.1.weight f4 [64, 64]
0.013482026 0.23710434 -0.10788998 -0.14812325 0.04336346 -0.20917377 -0.08921132 -0.04783622
0.08292525 -0.07144889 0.1290159 0.00049936236 -0.033800814 0.0722511 -0.008238799 -0.17990735
0.018051066 -0.06257418 0.23108645 0.10083986 -0.058074653 -0.16640727 -0.16188502 0.14343141
0.1706171 0.16865776 0.19908233 -0.046833202 -0.028115764 -0.120306306 0.050484434 -0.023201296
0.19413412 -0.07033568 0.33835417 0.07453039 0.03941213 0.23190987 -0.106620245 -0.13511448
0.04527392 0.08292456 -0.088694654 -0.075379126 -0.07068544 0.23664019 0.19890329 -0.022122625
0.031966247 -0.046403777 0.019816896 0.054810192 -0.058844935 0.044263747 -0.075063944 -0.12313381
-0.045804597 -0.16301194 0.10478406 0.18556769 -0.17850481 -0.09436516 0.064364836 -0.18838397
-0.081579335 0.1325164 0.0568969 -0.009693895 0.23134837 0.012134553 -0.11158023 0.0066568647
-0.15170892 0.13804059 -0.00486471 0.045118447 -0.1063607 0.031724136 -0.0786741 0.024912506
0.022034794 -0.048615143 0.007730073 -0.17316861 0.032864947 -0.13138135 0.054439817 0.00916438
-0.09565176 0.18114865 -0.038174488 0.014308039 -0.070965685 0.024729246 -0.06778384 -0.16680185
-0.05973465 -0.17214787 -0.061680254 0.26279232 0.06917313 -0.032201387 0.045456138 0.017773394
-0.04055235 0.1049273 -0.028899508 -0.038111303 -0.18563074 0.2430102 0.18124437 -0.21771197
0.25765842 0.22350399 -0.09079539 -0.14523618 -0.20014676 -0.016536234 -0.17999436 0.072452456
0.23571262 0.05852088 0.036426798 -0.04953119 0.10913452 0.09316032 -0.13286658 -0.2944346
0.10973998 -0.06549581 0.19851983 0.04205811 0.010119335 -0.052703816 0.0130729955 0.030986393
0.31230503 0.11443195 0.001627369 -0.17215009 0.035660837 -0.10817659 -0.060125694 0.018051185
0.17707722 0.056145307 -0.05549514 -0.021550072 0.27401143 -0.16134544 0.18474855 0.0109743
-0.22667305 0.023354977 -0.051298697 0.11486493 0.10907905 0.04751059 0.06715071 0.14346789
-0.047156315 -0.025379034 0.15605444 0.033750672 0.06455911 -0.09181016 -0.05219121 0.15121613
0.2974089 -0.038474135 -0.0067454264 0.25828764 -0.07228211 0.053219166 0.14285585 -0.14038076
0.030110449 0.0061285635 -0.123196386 -0.17264855 0.10330351 0.025575016 -0.16861942 0.12282611
0.15562202 -0.030967606 -0.016929224 -0.31848213 0.11067426 0.03757468 0.115589224 -0.0063344017
0.008377852 -0.015319445 0.25202104 -0.26537928 0.08428769 0.16456679 0.010533428 0.097484425
0.10643503 0.09224972 -0.03057008 0.033699393 0.08857719 0.008028507 -0.03953511 0.0152409375
0.1882475 0.014895015 -0.11922364 -0.022221074 -0.14138743 -0.12809499 -0.019862164 -0.05190945
-0.11434364 0.0126805175 0.22462888 0.042486105 -0.15931489 -0.18116695 0.14567657 -0.16858849
-0.018411772 0.20772232 0.11789082 0.031643406 -0.07027257 -0.045378722 -0.18843377 0.021199897
0.17121336 -0.1254688 -0.05712575 0.14790139 0.21123481 0.11917533 -0.32571182 -0.09007461
0.08483226 0.020636896 -0.0038342702 0.17100285 0.10400731 0.038069166 0.17145427 -0.21479976
0.11796004 -0.096990086 -0.09768229 -0.09823395 -0.013017926 -0.17057924 0.030534536 -0.0030621
00000000: b7e3 5c3c 7bcb 723e 6cf5 dcbd 9fad 17be
00000010: e29d 313d a631 56be 6db4 b6bd eaef 43bd
00000020: b7d4 a93d cc53 92bd be1c 043e a4e7 023a
00000030: b972 0abd 62f8 933d 07fc 06bc a239 38be
00000040: d4df 933c e426 80bd eda1 6c3e 2185 ce3d
00000050: b0df 6dbd ab66 2abe 30c5 25be afdf 123e
00000060: 40b6 2e3e 9fb4 2c3e 3ddc 4b3e 2cd4 3fbd
00000070: 0853 e6bc 2763 f6bd c4c8 4e3d a510 bebc
00000080: 18cb 463e 270c 90bd c23c ad3e 64a3 983d
00000090: 9d6e 213d c879 6d3e b75b dabd 735b 0abe
000000a0: 2571 393d 5ad4 a93d 8ba5 b5bd 5f60 9abd
000000b0: 87c3 90bd ce51 723e 4ead 4b3e 823a b5bc
000000c0: 0aef 023d e311 3ebd 0b57 a23c a780 603d
000000d0: 6307 71bd e74d 353d 20bb 99bd 942d fcbd
000000e0: 9a9d 3bbd 9aec 26be 0699 d63d 7505 3e3e
000000f0: f7c9 36be 8542 c1bd b6d1 833d bae7 40be
00000100: 1113 a7bd 61b2 073e b90c 693d 24d3 1ebc
00000110: 96e6 6c3e 01d0 463c 2d84 e4bd d421 da3b
00000120: 9559 1bbe 835a 0d3e 2568 9fbb 1fce 383d
00000130: a4d3 d9bd 2bf1 013d e31f a1bd 5015 cc3c
00000140: 5082 b43c ac20 47bd 8d4c fd3b 1d53 31be
00000150: 659d 063d d588 06be 49fc 5e3d 3226 163c
00000160: 12e5 c3bd 087f 393e da5c 1cbd 446c 6a3c
00000170: 7556 91bd fd94 ca3c 41d2 8abd 1bce 2abe
00000180: 52ac 74bd 8847 30be 6fa4 7cbd b78c 863e
00000190: a4aa 8d3d 9ae5 03bd 3730 3a3d 8299 913c
000001a0: 391a 26bd 20e4 d63d a9be ecbc 991a 1cbd
000001b0: fc15 3ebe aad7 783e 2098 393e e3ef 5ebe
000001c0: ceeb 833e 3bde 643e eff2 b9bd cbb8 14be
000001d0: 46f3 4cbe ff76 87bc 7150 38be f461 943d
000001e0: a65e 713e 97b3 6f3d 4434 153d 38e1 4abd
000001f0: eb81 df3d d6ca be3d 2d0e 08be 22c0 96be
00000200: 5bbf e03d ab22 86bd c848 4b3e 2045 2c3d
00000210: 91cb 253c f5df 57bd 1e30 563c 2dd7 fd3c
00000220: 72e6 9f3e 4c5b ea3d 714d d53a 1d48 30be
00000230: 1911 123d b08b ddbd 5c46 76bd 14e0 933c
00000240: bb53 353e 9ff8 653d df4e 63bd c789 b0bc
00000250: 3a4b 8c3e bd37 25be b92e 3d3e 8dcd 333c
00000260: fb1c 68be f052 bf3c 951e 52bd 4e3e eb3d
00000270: d664 df3d 779a 423d 5086 893d 3fe9 123e
00000280: fb26 41bd b1e7 cfbc bccc 1f3e 253e 0a3d
00000290: 9137 843d f706 bcbd 73c6 55bd 67d8 1a3e
000002a0: fb45 983e 0e97 1dbd bd08 ddbb 473e 843e
000002b0: a508 94bd 57fc 593d ce48 123e f9bf 0fbe
000002c0: 30aa f63c 1ed2 c83b 634e fcbd c8ca 30be
000002d0: ca90 d33d b282 d13c 92aa 2cbe 418c fb3d
000002e0: 615b 1f3e c7af fdbc 28af 8abc 1710 a3be
000002f0: 30a9 e23d e8e7 193d 0bba ec3d d090 cfbb
00000300: 4243 093c 69fe 7abc e708 813e cbdf 87be
00000310: 069f ac3d 3284 283e 6694 2c3c eaa5 c73d
00000320: 9cfa d93d 6ced bc3d 1b6e fabc 6008 0a3d
00000330: f567 b53d 008a 033c 91ef 21bd 20b5 793c
00000340: f4c3 403e 390a 743c 862b f4bd f808 b6bc
00000350: dec7 10be 552b 03be fab5 a2bc 019f 54bd
00000360: 002d eabd f2c1 4f3c 1d05 663e e905 2e3d
00000370: 7123 23be d483 39be 3d2c 153e 76a2 2cbe
00000380: 49d4 96bc 29b5 543e be70 f13d 849c 013d
00000390: 11eb 8fbd 0adf 39bd c8f4 40be 68ab ad3c
000003a0: 8e52 2f3e e57a 00be b1fc 69bd 7673 173e
000003b0: f04d 583e 3212 f43d b3c3 a6be 0a79 b8bd
000003c0: 89bc ad3d b50e a93c 6148 7bbb 5f1b 2f3e
000003d0: c901 d53d 6aee 1b3d b591 2f3e 78f4 5bbe
000003e0: 0995 f13d bda2 c6bd a70d c8bd e22e c9bd
000003f0: 2449 55bc 53ac 2ebe 9023 fa3c 83ad 48bb

ffn.1.bias f4 [64]
0.081914224 0.019089919 0.01778292 0.031145563 -0.0022831138 0.019060554 0.017128464 0.03287314
0.07426947 0.017876795 0.038935248 0.036790546 0.0689963 0.06402391 -0.03127049 0.022003563
0.023705186 0.009069137 0.016146485 0.0050334027 0.05013913 0.050418325 0.04546253 0.03602745
0.00943943 0.032149974 0.023812266 0.0327248 0.0079794675 -0.00060998095 0.035665754 0.050478157
0.026749764 0.021381207 0.035566412 0.027158618 0.064436324 0.031112596 0.053102855 -0.036706924
0.035554584 0.034672454 0.024992878 0.0021062961 0.012280718 0.04394647 0.036352247 -0.03423541
0.01686714 0.04971004 0.04666672 0.036032386 0.015094218 0.028334929 0.01061124 0.033124246
0.03841584 0.025453765 0.026608126 0.075329386 -0.0054505914 0.009239972 0.022040263 0.036015525
00000000: a5c2 a73d 7662 9c3c 7cad 913c fb24 ff3c
00000010: 4ba0 15bb e124 9c3c fe50 8c3c fca5 063d
00000020: 981a 983d 5b72 923c 917a 1f3d afb1 163d
00000030: ef4d 8d3d f81e 833d 7c15 00bd d140 b43c
00000040: 6131 c23c b896 143c a245 843c 3eef a43b
00000050: b05e 4d3d 7283 4e3d eb36 3a3d 8591 133d
00000060: d7a7 1a3c b1af 033d f111 c33c 710a 063d
00000070: 50bc 023c 21e7 1fba 4116 123d 2fc2 4e3d
00000080: 5222 db3c a427 af3c 16ae 113d c07b de3c
00000090: 31f7 833d d8df fe3c 6182 593d 005a 16bd
000000a0: afa1 113d b404 0e3d ddbd cc3c c909 0a3b
000000b0: 1135 493c 3701 343d 18e6 143d 6e3a 0cbd
000000c0: f52c 8a3c c19c 4b3d 9a25 3f3d b296 133d
000000d0: bd4d 773c a71e e83c c4da 2d3c 4aad 073d
000000e0: ee59 1d3d 6a84 d03c 49f9 d93c 4b46 9a3d
000000f0: e09a b2bb 4063 173c c88d b43c 0485 133d

ffn.4.weight f4 [1, 64]
0.089543 0.4229236 0.027752716 0.1875292 0.15400377 -0.0860306 -0.23134549 -0.18114032
0.08795713 0.062690705 0.23140664 -0.27412984 -0.19898932 0.09419587 -0.11446127 -0.1109102
-0.13606665 -0.18829913 0.10637889 -0.15774143 0.15999648 -0.19685464 -0.36110654 0.11428831
-0.14887765 -0.34258223 -0.21184172 -0.29660612 0.03258407 0.095516406 0.26634607 0.1993273
-0.14473203 -0.19747232 -0.15377817 -0.22687523 -0.15706985 -0.1427739 0.12892328 -0.018863617
0.36995602 0.23412775 0.09933018 0.15731822 -0.06145097 -0.18051583 0.19445746 0.084396
0.5816309 0.23684196 -0.27619934 -0.332452 0.16532508 0.33514628 0.069765404 -0.24784139
0.13184941 0.1621645 0.25496083 -0.09766814 -0.042832445 -0.04343732 -0.1991624 0.26943853
00000000: 5262 b73d 7189 d83e aa59 e33c a807 403e
00000010: 2ab3 1d3e d030 b0bd d5e5 6cbe d97c 39be
00000020: de22 b43d fc63 803d ddf5 6c3e bf5a 8cbe
00000030: dbc3 4bbe c4e9 c03d ac6a eabd e324 e3bd
00000040: 0e55 0bbe 7dd1 40be 2ddd d93d f886 21be
00000050: 1ed6 233e 4394 49be f5e2 b8be fd0f ea3d
00000060: 6273 18be f066 afbe 09ed 58be c2dc 97be
00000070: e076 053d 1b9e c33d 835e 883e 751c 4c3e
00000080: a234 14be 2f36 4abe 0678 1dbe fb51 68be
00000090: ebd6 20be 5233 12be 7704 043e df87 9abc
000000a0: e06a bd3e 2fbf 6f3e 9f6d cb3d 0718 213e
000000b0: 03b4 7bbd 24d9 38be db1f 473e cfd7 ac3d
000000c0: c3e5 143f b386 723e 006a 8dbe 2637 aabe
000000d0: fa4a 293e 4b98 ab3e 2ae1 8e3d 22ca 7dbe
000000e0: 8803 073e 730e 263e 3a8a 823e 3c06 c8bd
000000f0: 1371 2fbd 55eb 31bd 3af1 4bbe d9f3 893e
