githubproject/lbdd/amse_build/mmodel14/checkpoints_2_folds/fold_4/model_0/model.pt (torch, 127883 bytes, 8 tensors)

encoder.encoder.0.cached_zero_vector f4 [64]
00000000: 0000 0000 0000 0000 0000 0000 0000 0000
00000010: 0000 0000 0000 0000 0000 0000 0000 0000
00000020: 0000 0000 0000 0000 0000 0000 0000 0000
00000030: 0000 0000 0000 0000 0000 0000 0000 0000
00000040: 0000 0000 0000 0000 0000 0000 0000 0000
00000050: 0000 0000 0000 0000 0000 0000 0000 0000
00000060: 0000 0000 0000 0000 0000 0000 0000 0000
00000070: 0000 0000 0000 0000 0000 0000 0000 0000
00000080: 0000 0000 0000 0000 0000 0000 0000 0000
00000090: 0000 0000 0000 0000 0000 0000 0000 0000
000000a0: 0000 0000 0000 0000 0000 0000 0000 0000
000000b0: 0000 0000 0000 0000 0000 0000 0000 0000
000000c0: 0000 0000 0000 0000 0000 0000 0000 0000
000000d0: 0000 0000 0000 0000 0000 0000 0000 0000
000000e0: 0000 0000 0000 0000 0000 0000 0000 0000
000000f0: 0000 0000 0000 0000 0000 0000 0000 0000
0.0 0.0 0.0 0.0 0.0 0.0 0.0 0.0
0.0 0.0 0.0 0.0 0.0 0.0 0.0 0.0
0.0 0.0 0.0 0.0 0.0 0.0 0.0 0.0
0.0 0.0 0.0 0.0 0.0 0.0 0.0 0.0
0.0 0.0 0.0 0.0 0.0 0.0 0.0 0.0
0.0 0.0 0.0 0.0 0.0 0.0 0.0 0.0
0.0 0.0 0.0 0.0 0.0 0.0 0.0 0.0
0.0 0.0 0.0 0.0 0.0 0.0 0.0 0.0

encoder.encoder.0.W_i.weight f4 [64, 147]
00000000: e996 93bd 5126 4dbd ae90 22bd ba64 8d3d
00000010: 8c4b 14be 81f2 89be 4fb8 273e 25be 3fbe
00000020: e2d3 3f3d 18a4 32be e07f 873d 7c6d 64bd
00000030: 3916 2ebd 36cb 0c3a 1fbf 093d 4ce1 8ebd
00000040: 7eb0 e23d a019 c73c e14e 41bd 3b12 e03c
00000050: 7dce 6d3d 1c5b c6bd aea4 66be 27e4 f63d
00000060: 3615 d33d 7c32 ddbd 371a 233c a23f 953d
00000070: 74f2 3ebd 8154 f93d 3830 13bc f45b 81be
00000080: fa63 83bc 62a1 ee3d d759 c0bb 05ce 94bd
00000090: 2d8b 26bd 1504 353c d79b 02be b6e3 b6bc
000000a0: fc46 b83d 915f 843b a24c e5bd d078 a3bd
000000b0: 460e 8aba 135b 153d 93db 0ebe 9642 803e
000000c0: 4de6 6fbc bd26 f7bd f7b9 1a3e 3f24 ce3c
000000d0: 393a c4bc 5d5b 26be c098 5c3d 2cf3 88bd
000000e0: d7b8 d13d 0421 cabd 33c2 e6bd a6db f73d
000000f0: 4cd0 cebc 6940 2cbe 0c49 0c3d c314 69bd
00000100: af62 e03d 2794 553e c993 b13d 96ba 633d
00000110: e45b 93bd eec1 0b3d 95a1 1abe 54d8 023e
00000120: 1691 36be 7fc4 a2bd e37b 343e 0d2f 543d
00000130: 00a8 85bd 5c52 063e f149 e33c 6cee 673c
00000140: e2a8 84bd c10b 403e 3560 d03d b4f4 253c
00000150: 9dd8 003e 9a82 c23d f65c 183e b4d7 b03c
00000160: 2f2c 3c3e 50cb 4ebd 3a66 cdbd fce8 963b
00000170: c959 7ebd 7471 3ebd f1de 96bd 7b4e 30be
00000180: 5e74 d93c bdbc bb3b 4db4 663c d678 e4bd
00000190: 1c8c e03d eba7 7b3d 428e 6ebd 737c fe3c
000001a0: bbdf 2b3e 3082 eb3d 8e03 2ebd 2f94 3fbd
000001b0: e0f1 8abe 0a9e ae3d d848 043e 2454 2a3d
000001c0: f44e a4bc 6585 e43c 0afc ff3c 4596 2abd
000001d0: f912 1b3e 9d5f b03d bc70 273e ceb1 c0bd
000001e0: e177 053d a738 813e fd45 c6bd 21ff 983d
000001f0: 7e2b e0ba af54 933e 042f 4b3e f01f 233c
00000200: 9342 4dbe e290 c43d aa00 1c3d cc8b 89be
00000210: 808c 1e3d 9622 05bd 5611 0c3e 1c36 0fbd
00000220: 6591 aabd 2217 efbd 1d07 c53d 345d e1be
00000230: 4807 88be ce26 843d e147 103e 8f2c a63d
00000240: f478 38bd 932d 23be bfd0 863d d370 9dbc
00000250: 2c68 64be b054 c23d cbef 2a3d 8a6a 503c
00000260: c697 563d 6422 93bc 4877 d83d 894d e7bd
00000270: 3324 d53d 4f8c 1cbd e4a2 3d3a d27b 803c
00000280: 5109 bdbd b990 6c3c 5e1c 58be f0e5 e1bb
00000290: 00a6 57be 4f88 ae3d 22d3 04bd 2da3 08be
000002a0: 0886 84bc 42b3 57bd f9d6 2bbe 9ede 823e
000002b0: 2973 1fbe 3421 06bd 7af7 223e 7e04 e83b
000002c0: aede 1c3e 6736 4bbb 8eb4 14bd 0782 8c3d
000002d0: da24 aa3e e906 55bd c933 083c aaa3 c13c
000002e0: 9de1 33ba d8b3 d63c 8e93 883d 8c0e 223d
000002f0: 51b8 2d3d bae1 12be ebfb 8b3d f93a 28bc
00000300: bb3f afbd 0906 e63d c661 03bd 7724 b13c
00000310: f589 21bd 727f a5bb 7809 1c3c 39f5 1abe
00000320: 80c3 0ebd 3553 26bd 9699 ce3b c114 bebb
00000330: 6ac4 243e 63d5 1bbd 870a 7b3b c476 0cbe
00000340: 32d3 30bc 12e2 2b3d 2d7b d73c 7fa3 83bd
00000350: 3d9a 4abd caa3 bdbd 91e2 083e ce4d f4bd
00000360: f8a1 3c3e 6e93 413e 8194 103d 0d8d 163e
00000370: abf0 e43d 7eff e33d 05b5 9fbd 6fa4 bf3a
00000380: 33de 9fbd 6ce3 13be 3f1c 3b3e 37f9 bd3d
00000390: 86e2 a63c 7b90 a83d 9e41 33bd 91d5 b4bc
000003a0: 7818 b33d 4200 273c 3fdd 2b3d 8432 803c
000003b0: ef8e ddbc 4d88 97bd b73f 10bd e0db ccbd
000003c0: 0f41 1dbe 3ace 3f3e 165b 32bd 1556 82bd
000003d0: 153d e4bc 79a8 5c3c ac78 913d b18c 5b3d
000003e0: 0e54 abbd e5ed 35bd 1626 413d e6bd 8cba
000003f0: 0de4 403c 4004 1cbe e6e4 803d 181d 153e
-0.07206518 -0.05008537 -0.03968876 0.06903978 -0.14481944 -0.26942828 0.16378902 -0.18724878
0.046832927 -0.1744541 0.06616187 -0.055768475 -0.042501662 0.0005370857 0.033629533 -0.06976566
0.110688195 0.024304211 -0.047194365 0.027352443 0.05805825 -0.096853465 -0.22523758 0.12055235
0.1030678 -0.10800645 0.009954981 0.072875276 -0.04661794 0.12174321 -0.008983664 -0.25265467
-0.016038883 0.11651875 -0.0058700847 -0.072658576 -0.040660072 0.0110483365 -0.1275476 -0.022325378
0.08997914 0.0040397127 -0.11196257 -0.079820275 -0.0010532818 0.03646381 -0.13950948 0.250508
-0.01464231 -0.120679356 0.15110002 0.025163768 -0.023953544 -0.1624579 0.05385661 -0.06687006
0.102403335 -0.098695785 -0.11267509 0.121024415 -0.025245808 -0.16821446 0.03424935 -0.056904566
0.109563224 0.20857297 0.08670766 0.055597864 -0.07195261 0.034120493 -0.15100701 0.12777835
-0.17828783 -0.07947635 0.17625384 0.051802684 -0.06526184 0.13117355 0.027745219 0.014155965
-0.06477524 0.18754484 0.101746 0.010129143 0.12582631 0.094975665 0.14879212 0.02158723
0.1837623 -0.050486863 -0.10029264 0.0046054106 -0.062097345 -0.046494916 -0.073667414 -0.17217438
0.026544746 0.0057292865 0.014081073 -0.1115586 0.10964224 0.061439436 -0.058241136 0.031065201
0.16784565 0.11499441 -0.04248386 -0.04677218 -0.2713766 0.08526237 0.12918413 0.04158415
-0.020057179 0.027895639 0.031248111 -0.041647214 0.15143956 0.08611987 0.16351599 -0.094089136
0.03258503 0.25238535 -0.09681318 0.07470537 -0.0017102805 0.28775546 0.19842154 0.009956345
-0.20044927 0.09597947 0.03808657 -0.2686447 0.03870821 -0.032503687 0.13678488 -0.034963712
-0.08328513 -0.11674334 0.096204974 -0.4401642 -0.26568055 0.06452714 0.1408992 0.081139676
-0.045037225 -0.15935354 0.06582784 -0.019218838 -0.22305363 0.09488809 0.04173259 0.012720713
0.052390836 -0.017960735 0.10569626 -0.112940855 0.10407295 -0.038219746 0.00072340504 0.015684042
-0.092302926 0.014438801 -0.21104571 -0.0068938658 -0.21059418 0.085220926 -0.032427914 -0.13343497
-0.016177192 -0.052661188 -0.16781224 0.25560468 -0.15571274 -0.03274651 0.15914717 0.0070806136
0.1531932 -0.0031007768 -0.036305003 0.06860738 0.3323124 -0.052008543 0.008313128 0.023637611
-0.0006861927 0.026208803 0.06668769 0.039564654 0.042412106 -0.1434392 0.06835159 -0.010267966
-0.085570775 0.1123162 -0.032075666 0.021623833 -0.039438207 -0.005050593 0.009523742 -0.15132608
-0.034854412 -0.040606696 0.00630493 -0.005800814 0.16090551 -0.0380453 0.0038305835 -0.1371718
-0.01079254 0.041963644 0.026303852 -0.06427669 -0.0494635 -0.09259756 0.13367678 -0.119289026
0.18421161 0.18903896 0.035297874 0.14702244 0.11178716 0.11132716 -0.077981986 0.0014621149
-0.07806053 -0.14442223 0.18272494 0.092760496 0.020371687 0.082306825 -0.04376375 -0.022074493
0.087449014 0.010192933 0.041959044 0.015649088 -0.027045695 -0.07399044 -0.035217013 -0.10002875
-0.15356849 0.18731013 -0.043543898 -0.06364075 -0.027861157 0.013467901 0.071030945 0.05360097
-0.083656415 -0.044416327 0.047155462 -0.0010737746 0.011773122 -0.15235996 0.06293659 0.1456188

encoder.encoder.0.W_h.weight f4 [64, 64]
00000000: 2033 96be 339f f2bc 2f9b c7be a525 563e
00000010: 6818 e03c 5fa8 343d e816 77be dae9 11be
00000020: 9eb3 efbc aa63 25be 18df ff3d ad29 1dbe
00000030: 1720 923e 1969 88be f611 413d 4f87 bd3c
00000040: 4d82 ffbc 991b d93d 5eb1 ad3d e9c4 433e
00000050: f540 b23c 4e37 89be 293e 603d 89a6 17be
00000060: f088 98be 5bf2 b5be 5e34 c23c 0542 75be
00000070: c5eb 5d3e b0ca 583e 2be3 2c3e eadb 263e
00000080: 3f5e 73be 079c 373e f552 45bd f8ab 07be
00000090: edbc 663e 0dc7 0b3e 9b2e 403c d97f 983d
000000a0: dfbf 503e d0fc 11be cdcf dfbd 1c16 2f3e
000000b0: d22e 893e ad14 adbd 107c e03d 6431 f9bd
000000c0: 5019 e43d 4239 4e3e 34f8 84bd 3bf8 e3bd
000000d0: 3705 9a3c 3a3c 5cbd 4310 143e 4510 24be
000000e0: f905 3c3e 5283 1b3e a866 0c3d a833 3ebd
000000f0: 15b0 d73c 6151 a43d 2075 3ebe 2b44 bd3d
00000100: bd9d 8f3e f4c7 e1bc 4170 be3c 8638 853e
00000110: 6e77 8cbe 7ebe 7ebc e67e 203d 68ad d0bd
00000120: ade9 143e 26e7 81be 8746 a2bd 10b7 313c
00000130: 9ed2 6abd 49ca 20be 463e 243e 1b7c 023e
00000140: 8f0c 5c3e 0413 793b 2f61 66bd b419 2abe
00000150: 8946 3e3d 36e5 903e a7e1 123e bc5d 10bd
00000160: 1892 3d3c c39f d3bb 1c1b e93c 2ae7 a03d
00000170: 825b e1bb 2309 033d be71 31bd 798c 913d
00000180: 89bb 263e 75e3 ca3d 9849 053f bd36 1f3d
00000190: e10e 07bd 1da9 27bd 6468 34bd 9918 cabd
000001a0: f4cc 0e3e 5458 9abd fca4 103e fb8f 173d
000001b0: 302c 183d 5e37 14be 707a 25be 85cc 013d
000001c0: 0cd6 5f3d 785a 8cbe 5872 513d 710d a9bc
000001d0: 544f 0d3a ea31 983e 7261 973e 021b 99bd
000001e0: f0c9 be3c 3a27 243d bfc7 98be 439b 5cbd
000001f0: 17e2 edbd e045 183c e085 1b3e 350b 09be
00000200: c8e1 63bd 7714 12be 2908 aebb a3d9 a93e
00000210: 7fba a2bd 1792 1bbb 10ec 1d3e 36b7 4abc
00000220: 8a69 40be f2e3 ccbd 8149 c73d 7b36 37be
00000230: d9dd b8bd fdb2 bbbd 2e14 dbbc 95ae 01bd
00000240: 3705 22be d0b9 8dbd e554 753d 52e9 7f3d
00000250: 542f 1d3e b9f0 123d 51ef 9dbc a2f3 403e
00000260: ceec 62be 30dc cabd 5b82 493d ae79 b23d
00000270: 1bae 0c3e 598d 193e bef9 393c 029b 303d
00000280: 3ff8 553e 9ae5 ea3d b29b e43d e339 2fbd
00000290: 800a 56bd 03ec b7be 0778 b6bd 4872 d8bd
000002a0: 4fb1 fabc b442 b0bc b06e 26bd 7b61 043d
000002b0: 6fe0 9abd 93cf db3e 74e9 ae3e b55b 963d
000002c0: 7338 c93d fc90 b63c b9d9 793e 7be4 7a3b
000002d0: 3710 973d 5515 813c f677 f1bd 31f8 d5bd
000002e0: 9c13 e63c eac1 1d3e 6fa9 4d3d a347 183e
000002f0: 594b 26bc e1ed 313e 9e5a 373e 9306 613b
00000300: 7c29 253d ef5a 313e c111 85be dfc4 363e
00000310: d38c 633d f293 b93c c900 d1bd 66b6 0ebe
00000320: 29e8 54bd 18cf fdbd e5b1 8ebc 29ed 0b3d
00000330: c8af 2a3e 986c ddbe 1eda ac3d b8f6 05be
00000340: 6579 2abe 2665 a5bd 5f65 be3e 6ecf cfbd
00000350: 7555 cd3d 45bf ab3c b671 323e 4d68 b93d
00000360: d152 8f3e 6b0d 183d 8f47 393d 1b6c 233b
00000370: 763d 57be edce 01be c255 ae3d cba9 ba3d
00000380: 77ab 1bbd 31da 2fbe 29ee 083c 9d2e 29bd
00000390: 8bb9 03bd 79b3 063c 2e22 debc 290d d63d
000003a0: 566b 693e 5e09 4b3e b39c 5e3e e4f6 4f3e
000003b0: e870 10bd 2e54 bdbd 668f 31be 6705 d33d
000003c0: ce02 14be 1c4a 4a3e 8490 2abe 1aff 1ebe
000003d0: ba63 42be 2be2 923d d905 4abe b3b8 b3bd
000003e0: 8c97 f0bd d6ad 7cbe 8319 9e3d 36bf f2bc
000003f0: 66d7 07bd 4d59 3b3d 756c 273d dc0d 48be
-0.2933588 -0.029616928 -0.38985583 0.20912798 0.027355388 0.044105884 -0.24129832 -0.14249364
-0.029260453 -0.161513 0.12493724 -0.1534793 0.28540108 -0.26642683 0.04713627 0.02313581
-0.031190062 0.10600967 0.08481096 0.19118084 0.02175949 -0.26800007 0.05474678 -0.14809622
-0.29791975 -0.35536465 0.023706611 -0.23950966 0.2167197 0.21171069 0.16883533 0.16294828
-0.23766421 0.17930613 -0.048174817 -0.13249195 0.22533007 0.1365015 0.011729862 0.0744626
0.20385693 -0.14256597 -0.10928307 0.17098278 0.26793534 -0.08451209 0.10961163 -0.12167624
0.111376405 0.2013903 -0.064926535 -0.111313306 0.018801315 -0.053768374 0.14459328 -0.16021831
0.18361653 0.15186813 0.034277588 -0.046435982 0.02632908 0.08023334 -0.18599367 0.09241518
0.28050032 -0.027561165 0.023246886 0.26019686 -0.27434868 -0.015548347 0.03918352 -0.101893246
0.14542265 -0.25371665 -0.07923608 0.010846868 -0.057329766 -0.15702166 0.1603938 0.12742655
0.21489166 0.003800572 -0.056245025 -0.16611367 0.046453986 0.28299874 0.14343892 -0.035245642
0.011570476 -0.006458254 0.02845531 0.07856591 -0.0068773637 0.031991135 -0.043321364 0.07106871
0.16282476 0.09906665 0.5206542 0.038870562 -0.032973174 -0.040932763 -0.044044867 -0.09867973
0.13945371 -0.075363785 0.14125437 0.037002545 0.037151515 -0.14474246 -0.16159987 0.031689186
0.05464749 -0.27412772 0.051134437 -0.020636292 0.0005390544 0.2972558 0.29566532 -0.074758545
0.02328965 0.040076472 -0.29839894 -0.053859007 -0.11615389 0.009294003 0.15187788 -0.13383181
-0.055635244 -0.14265619 -0.0053110314 0.33173856 -0.079457276 -0.00237382 0.15422082 -0.012372782
-0.1879026 -0.100044146 0.09730817 -0.17891876 -0.09026689 -0.09164999 -0.02674302 -0.031660635
-0.15822302 -0.069202065 0.059895415 0.06247837 0.15350085 0.035874102 -0.019279154 0.18842939
-0.22160646 -0.09905279 0.049196582 0.08714615 0.13738291 0.14995326 0.011351047 0.043116577
0.2089548 0.11469574 0.11162509 -0.042779814 -0.052256107 -0.3592225 -0.08909612 -0.105686724
-0.030602125 -0.021516182 -0.040632904 0.032319527 -0.075623386 0.42931804 0.34162486 0.073417105
0.0982522 0.02228593 0.24399461 0.0038283158 0.073761396 0.015757242 -0.11790459 -0.104477294
0.028085522 0.15406004 0.050210413 0.14871077 -0.0101498 0.173759 0.17905661 0.0034336194
0.040322766 0.17319845 -0.25990108 0.17848538 0.055554222 0.022653554 -0.10205228 -0.13936767
-0.051979218 -0.123930156 -0.017418811 0.03416172 0.16668618 -0.43246913 0.0844004 -0.13082397
-0.16647871 -0.08075933 0.37186715 -0.10146986 0.10026065 0.020965228 0.1742619 0.09053097
0.2799287 0.03712217 0.04523426 0.0024936262 -0.21019539 -0.12676592 0.08512451 0.09114417
-0.03800532 -0.17173077 0.008357563 -0.04130422 -0.03215937 0.008221501 -0.027115908 0.10451729
0.22794852 0.19827792 0.21739464 0.20309025 -0.035263926 -0.092445716 -0.17339858 0.10303765
-0.14454195 0.19754833 -0.16656691 -0.15527001 -0.18983355 0.07172044 -0.19728793 -0.08775463
-0.11747655 -0.24675688 0.0771971 -0.029632192 -0.033164404 0.04573946 0.040874917 -0.19536537

encoder.encoder.0.W_o.weight f4 [64, 197]
00000000: e9fa 19be 3b0f 82bd 4c93 a33c 1837 b9bd
00000010: f1f6 7abd 0856 58be 7456 7dbd e38b 2e3d
00000020: 8b68 be3d 66ce 963c 6874 8e3d 54d1 d1bd
00000030: a30d a2bd 91b8 91bd aa1d 243d c213 0e3d
00000040: d921 07bc c59d dcbd 365a 92bd 34da edbc
00000050: a2d4 fdbc 56cc 55bd 5cb9 3abd eae2 6d3d
00000060: 4cb3 0d3e 5f47 cfbd 9cca 5b3d 5f99 e33d
00000070: bfbf 17be 163e 6abd bede 8e3d 1a7d b53d
00000080: b9dc 8cbc faea 1abd 413f 0b3c 4e31 ab3d
00000090: 3e74 07bd 73a1 e1bc b95f 7f3d 25eb b7bd
000000a0: 5333 bbbc 71bc 68bd 3e16 41bb 1ec0 9fbd
000000b0: 4318 ffbc 762a a23d 61cf 17bc 4c99 0ebe
000000c0: 7103 003e 2add 94bd 905b 1bbd fb06 e3bd
000000d0: 218d 08be 5bd6 a6b9 3289 bd3d 4da4 683e
000000e0: d0d4 6dbd bae2 773a b9ff 093d 69b0 40bd
000000f0: e03a dfbd 3275 cfbd 2088 963c 619b 09bd
00000100: 1a04 bc3d 202b 17bd a93d 2bbe b176 42bc
00000110: e931 3bbd 919b 84bc 485c 70ba c5c1 9bbd
00000120: 58c1 b2bd 2856 3a3d b459 dfbb 265c 393e
00000130: 6f65 363e 9536 0ebe b23a 94bd e897 863c
00000140: a53a 09be e706 0e3d b74c 773b 61e3 093d
00000150: a5da 063e 7b57 183b b13e e83c 2c2a 983d
00000160: 0131 463d f3f1 14bc 51e0 14bc 66b2 db3c
00000170: d37b c73c 55c3 32bd e5c1 e6bd 67e9 8e3d
00000180: 90bf 9fbd 1ff8 6cbd 36ad f5bd bc18 e2bb
00000190: 734d cc3d 3121 c0bc eee5 5fbd cfd0 6bbe
000001a0: 0a81 9dbd dc7f c83d a5dd c93c 37a9 eabd
000001b0: f713 0f3e 0cb0 413e 8ed8 8e3d 87ee b43c
000001c0: 0d09 e33d acb3 c93c a738 c2bd 837e 173e
000001d0: 3779 283e 8e2a ac3c cf05 f13c bce3 64be
000001e0: b44e 63bc 9f62 bd3d 1c34 32be 4463 4e3d
000001f0: b1c6 a33d 1daa 9c3b 1188 f63d 3f68 82bc
00000200: 749b f5bd 85e4 0a3e 2567 613d 2cb5 973d
00000210: b7f8 a0bd 8026 8e3d 2ffa 993d 2676 00be
00000220: fc6f 823c 3f5d c73b 9b77 0abe f370 6b3d
00000230: 0fdd 53be 278b e1bd 16ba 06bd 74e0 d4bd
00000240: 6ec9 90bd 7ac1 ab3d c8f4 14bd c287 32bd
00000250: 8364 f13d 5c94 ae3b edc7 863d 312d 11bd
00000260: 4600 7ebd c86d 69bd 87ab e83d b57e edba
00000270: 257b babd 9899 183e 7fd5 fcbd 728e 7abe
00000280: 17a5 a1ba c996 01bd 6fb7 7a3d bdea 37bb
00000290: de04 dc3d 0f25 123d 9f7b c2bd 0bae af3e
000002a0: d604 a6bc f5df 0cbe e07a 363d 7383 333d
000002b0: 1360 1dbe c579 123e 557c 41bd 92e8 04bd
000002c0: e210 393e ceb9 b23c 9d54 6bbe c6a4 643d
000002d0: 1c08 923e 979c 0abe 0fbe b33d 153e 293e
000002e0: 0d90 23be 1ed9 73be a60e 253d 0284 e8bc
000002f0: 5686 a53d 6295 92bd 3401 86bc 94d8 043d
00000300: f52a 0d3d 5a65 cfbd d430 f5bd 1fc1 ee3d
00000310: 5194 963d 9a35 173d 6a25 923d aa94 a2bd
00000320: ce33 803d 28ac 36bd ed97 f13d 1789 1e3d
00000330: a871 123d 29b8 913d f62a 0bbd 70b2 33bd
00000340: 4b91 58bd b3b3 663e 7079 51bd 8447 2c3d
00000350: baa6 783e c3ab e33d fc57 0abe 1bab ae3d
00000360: 69c2 0f3c 5896 34be ff3f 8d3d c6be 76bd
00000370: ce0a 9dbd 21c4 5b3d 5453 f33c 1169 333d
00000380: 6159 07be d72b 1d3d 08a6 983d 0bc6 e33c
00000390: 80c6 093d d32b 6c3d a4af c9bd 9b8f 60bd
000003a0: 3955 8f3c 2110 a73c c47f 833d 65eb f93c
000003b0: f2c3 21be 50b1 053e cf78 033e 92c3 00be
000003c0: cf72 a8bc 46ce 89bd 0ea9 d63c 8b63 83bc
000003d0: 8f26 953d 80ac 6e3d 503c 36be ff05 c6bd
000003e0: c792 08bd c7b6 62be ad8e 023d d9f8 59bd
000003f0: e2e1 6a3d 177d 943d 0195 8ebd b2c3 a7bc
-0.15037121 -0.06350561 0.019967698 -0.090437114 -0.061270658 -0.21126568 -0.061850026 0.042613875
0.09297284 0.018408965 0.069557965 -0.10245004 -0.07912757 -0.071152814 0.040067352 0.03468681
-0.008247816 -0.1077228 -0.071461126 -0.029034711 -0.03098518 -0.052196823 -0.04558693 0.05807773
0.13837928 -0.10121035 0.05366002 0.111132376 -0.14819239 -0.057188116 0.069760785 0.08861752
-0.017195093 -0.037821747 0.008498968 0.083590135 -0.03306984 -0.027542805 0.062347148 -0.08980397
-0.022851622 -0.056820337 -0.002946272 -0.07800315 -0.031139499 0.07918255 -0.009265752 -0.13925666
0.12501313 -0.07268746 -0.037929118 -0.11085316 -0.13335086 -0.00031821695 0.092546836 0.22718926
-0.058064282 0.0009456087 0.03369114 -0.047043238 -0.108999014 -0.10129775 0.018375456 -0.033595446
0.0918047 -0.03690636 -0.1672274 -0.011869119 -0.045701895 -0.016187461 -0.00091690244 -0.07605318
-0.08728284 0.04549232 -0.0068161134 0.18101558 0.17812131 -0.13888009 -0.07237758 0.016429856
-0.13401277 0.03467455 0.0037734935 0.03366411 0.13169344 0.0023245502 0.028350206 0.07429919
0.048386578 -0.009090888 -0.009086684 0.026818465 0.024351036 -0.043643314 -0.11267451 0.06978112
-0.078002095 -0.057853814 -0.11995928 -0.006899921 0.0997571 -0.023453327 -0.054662637 -0.23028873
-0.07690628 0.09790012 0.024641821 -0.114580564 0.1397246 0.18914813 0.06974898 0.022086395
0.11085711 0.024621807 -0.09483462 0.14794354 0.1645249 0.021016385 0.029421715 -0.22352499
-0.013873745 0.09247326 -0.1740269 0.050387636 0.07996882 0.0047810213 0.12037671 -0.015918849
-0.11992541 0.13563736 0.055030007 0.07407603 -0.078599386 0.06940937 0.07518422 -0.1254507
0.015922539 0.006084114 -0.13522188 0.057480764 -0.20689796 -0.11012869 -0.03289231 -0.103943735
-0.0706967 0.08386512 -0.036366254 -0.0435865 0.11786749 0.0053277444 0.065811016 -0.03544349
-0.06201198 -0.05698946 0.11360841 -0.0018119427 -0.09105519 0.14902341 -0.12345409 -0.24468401
-0.0012332526 -0.03163794 0.061210092 -0.00280635 0.10743116 0.035679873 -0.09496235 0.34312472
-0.020265978 -0.13757308 0.044550776 0.04382653 -0.1536868 0.14304264 -0.047237713 -0.03244836
0.18072847 0.021817114 -0.22981496 0.055821203 0.28521812 -0.13536297 0.08776485 0.16527589
-0.1597292 -0.23813292 0.040297173 -0.028383259 0.08082263 -0.07157399 -0.016357996 0.032433107
0.034464795 -0.10126753 -0.11972204 0.11657929 0.07352508 0.036916353 0.071360424 -0.07938512
0.06259881 -0.044597775 0.11796556 0.038704958 0.035752922 0.07115204 -0.033976518 -0.043871343
-0.052872937 0.22529487 -0.051141202 0.04206039 0.24282351 0.11116745 -0.13510126 0.085287295
0.008774378 -0.17635477 0.06896972 -0.06024053 -0.076680765 0.05365384 0.02970282 0.04380137
-0.13217689 0.038371887 0.07453543 0.027804395 0.03363657 0.05765898 -0.09847954 -0.054824453
0.017496692 0.020393433 0.06420854 0.030507753 -0.15797403 0.1305592 0.12839054 -0.12574604
-0.020562558 -0.06728797 0.026203658 -0.016038677 0.07282745 0.058269978 -0.17796445 -0.096691124
-0.033343103 -0.22140037 0.031874347 -0.053215835 0.057344325 0.072504215 -0.06962014 -0.020479057

encoder.encoder.0.W_o.bias f4 [64]
00000000: 8d6e 1b3c 30b5 763c be42 eebb 4bfe cc3c
00000010: 9197 feba f1fa 19ba 7ae9 663c d9ba 9ebc
00000020: df04 6c3c 5cb5 e538 80b2 09bd 123a 803c
00000030: c6ed a83c 09c8 edbb 67c4 07bd 7d8f 0cbd
00000040: 916f 993c 231c 943c b7fc 5bbc 60e5 d83a
00000050: c51f 07bc 00a6 85bc 10a7 a0bc 3d85 66bc
00000060: 0f54 1d3c fdc1 48bc 2f8d 003d 17b2 973b
00000070: 8ae0 d93b 8f84 f73b 36b9 003d 20b3 bfbb
00000080: 8865 f4bc e727 6dbc fa33 1f3c f9d7 533c
00000090: da42 f4ba e7ab 513c f91b b23b 26a5 1c3c
000000a0: 66fc a6bb 685e 303c 8e78 adbb 47cc 943c
000000b0: 60f3 38bc de84 18bd 209f 3b3c 95df d23b
000000c0: 4a58 a3bb 31cd af3c 59d2 f73c fdd2 aa3a
000000d0: ce9a 2d3c 16a7 f1bb 225a 42bb 385c 0d3b
000000e0: 2d30 77bc 03f1 e63a 2bd8 c739 9e3e 0d3d
000000f0: fa00 0c3d 4159 9d3c 9069 293d 9509 40bc
0.009486807 0.015057847 -0.00727114 0.0250236 -0.0019423832 -0.000587388 0.014093751 -0.019376205
0.014405458 0.00010953352 -0.033617496 0.01565269 0.020621192 -0.007256512 -0.03314629 -0.03431653
0.018729957 0.018079823 -0.013426951 0.0016547851 -0.008247321 -0.016314507 -0.019610912 -0.014069852
0.009602561 -0.012253282 0.031384643 0.0046293843 0.0066490816 0.007553644 0.03142663 -0.005850211
-0.02983357 -0.0144748455 0.009716982 0.01292991 -0.0018635646 0.012797332 0.0054354635 0.009560859
-0.005096006 0.010764696 -0.0052939123 0.018163813 -0.011288494 -0.037236087 0.011451513 0.0064353445
-0.00498489 0.021460148 0.030251669 0.001303285 0.01059599 -0.0073746545 -0.0029655774 0.002156986
-0.01508717 0.0017619435 0.00038117295 0.034483545 0.03418062 0.019207599 0.041360438 -0.0117210345

ffn.1.weight f4 [64, 64]
00000000: b0b9 eebc 10de 323e 19e0 9fbd d9bd 6ebd
00000010: 8781 f63b 644b 3bbe bb44 c2bd f717 3dbd
00000020: 91a0 433d ad43 c8bd f711 0b3e 0339 61bd
00000030: ddb5 75bd 343c fb3c 2c34 c9bc a4c9 7bbe
00000040: bf67 523d ed78 a8bd cfe4 4d3e f949 133e
00000050: 6b24 ce3c 96c6 40be 0ff7 6abe 57eb 2d3e
00000060: ef83 0b3e f69b 7f3e 5c4c 4b3e 3263 29bc
00000070: 7627 59bd 572a acbd d149 1f3e 8f05 2a3c
00000080: 917f 2f3e 93b2 5cbd 6a0e a03e 81aa 973d
00000090: afac 4cbc 6273 7e3e 575d 2abe 387e 23be
000000a0: d026 243d 013f cf3d 42c4 0a3c eb82 d0bd
000000b0: adf2 09be 062b 883e f1e5 9f3e 0c61 c4bc
000000c0: 6a87 2a3b 0860 1bbc 7039 d03b 24f4 0c3d
000000d0: 3780 13be d208 923d 50fc f1bd 2ce1 e7bd
000000e0: 0b39 03bd 5573 56be 19c5 fe3d fc1c fd3d
000000f0: 48ec dfbd 1195 0bbe b5f1 533e 1637 06be
00000100: 1d63 b1bd 871b ec3d 81f2 8c3d 86c3 45bd
00000110: 47fb 5e3e 3ac0 8d3c 3b21 cabd bb4a ff3b
00000120: 51ce 48be 5d08 033e e981 a43c f1ac 763d
00000130: 952a c5bd 66d5 4e3d 756a b1bd f052 d53c
00000140: 4a9e 1d3d 32b5 20bd b96c 443c 24f2 18be
00000150: 2d18 893d 6883 11be b385 983c 492c 753c
00000160: 2724 a0bd 91fc 783e 857a d4bc f018 a93c
00000170: 21c5 8bbd 91a3 6a3d b5ea 0b3c 395f 25be
00000180: d734 a4bd 766c 0fbe 7a81 b4bd 3b27 8b3e
00000190: a273 473d 0024 00bd 6980 533d 0bbd 513c
000001a0: d874 1cbd 5769 ef3d c118 d23b e7f6 21bc
000001b0: 59a3 32be 2d5d 7d3e c4fc 133e e0cd 45be
000001c0: a66e 7f3e bb84 513e 5310 03be ded0 ecbd
000001d0: 6d70 75be f207 a83c b785 3bbe c5af 9f3d
000001e0: 5a37 623e 4682 36bd 9b50 7c3d 6bff 10bd
000001f0: 5763 063e f01a 033e 61aa 4bbd f4d8 94be
00000200: 8ecf d83d 3dab 8ebd fdd5 633e 9a28 ed3c
00000210: ba25 50bc c70f 58bd 6919 843c a295 4c3d
00000220: 44d7 a03e 001a d93d 8d50 d139 0a24 1bbe
00000230: e667 163c 7be4 a4bd 1ce0 84bd bdfa 163c
00000240: 695f 523e dedf 403d 6df5 62bd b386 b0bc
00000250: dfb4 ae3e d26b 18be b76d 333e 0c88 543d
00000260: 7bf2 36be 26fa ae3d adac 44bd c9ee d63d
00000270: 3d90 a33d 47d2 503d 518e 033e 8dbf 0f3e
00000280: 3109 88bd 0148 c13b c746 163e d276 88bc
00000290: 8b81 f83c 836c c5bd 7b72 77bd 18e4 173e
000002a0: f8c4 913e ae08 1ebd b5f0 963d 6f9e 893e
000002b0: e0fd 60bd 22dd 723d a235 413e aa65 0ebe
000002c0: f25b 233d d624 163d a174 25be 6884 2fbe
000002d0: e581 813d 159e 0e3d 519e 49be 2e0b fa3d
000002e0: fe32 233e f65d ccbd 14af b7bb f819 aebe
000002f0: 2ddf 373e a094 ac3d 6788 6a3e 77a5 d6bc
00000300: 712d a63c 1afd 12bc 10a1 883e d126 24be
00000310: 1ffa 603d 467f 1b3e b62d 0a3c 5c60 b63d
00000320: d214 713d 6475 cf3d a9db e0bc 35d9 1b3c
00000330: a19f 193d 0600 083d 6d30 43bd 03a5 7d3a
00000340: 78ed 3a3e cd78 873c e621 fabd 1586 15bd
00000350: bbab d7bd e83b 02be dc99 d2bc 785d 45bd
00000360: 7be3 c5bd 83b0 783d 1619 483e 4013 693d
00000370: 584b 48be 3087 43be e8de 1d3e 20d1 55be
00000380: f6a4 50bd 4c06 663e 4e08 f13d e033 a5bc
00000390: 8647 97bd 0d62 54bd 2ca9 5cbe 9cba a83c
000003a0: 53ab 2c3e 2062 04be 4eaf 023d 8a2b f63d
000003b0: 608b 483e 2bfb f93d 6a45 6bbe ac49 c3bd
000003c0: 08ac d53d 700a 8e3c cece 84bd 2292 1b3e
000003d0: 8eec 0a3d cb72 7b3d 1b5e 003e eb1a 54be
000003e0: b7a6 043e b608 18be 13d8 abbd 8ed0 dbbd
000003f0: 5d91 883b f829 04be 67bb 1a3e 2414 2dbd
-0.029141277 0.17467523 -0.07806415 -0.05828652 0.007522765 -0.18290478 -0.094857655 -0.046165433
0.04776055 -0.09778533 0.13581072 -0.05498601 -0.05998789 0.030668356 -0.02456101 -0.24588639
0.05136847 -0.0822619 0.20106815 0.14383687 0.02516385 -0.18825755 -0.22945808 0.16984306
0.13624547 0.24961838 0.19853348 -0.010338591 -0.05301615 -0.08406513 0.15555502 0.010377302
0.17138506 -0.05388124 0.31260997 0.07405568 -0.012492343 0.24848703 -0.16637169 -0.15966117
0.040076077 0.10119439 0.008469643 -0.101812206 -0.1347148 0.26595324 0.3123012 -0.023972057
0.0026020654 -0.009483345 0.0063545033 0.03441252 -0.14404379 0.071305886 -0.11815703 -0.11322245
-0.032036822 -0.20942433 0.12439937 0.12359044 -0.10933739 -0.13631083 0.20697673 -0.13106951
-0.086614825 0.11528688 0.068821914 -0.04828217 0.21775542 0.017303575 -0.098696195 0.007790891
-0.19609953 0.12796159 0.020081477 0.060223524 -0.096272625 0.05049648 -0.08662883 0.026040524
0.038481034 -0.0392353 0.011988812 -0.1493612 0.06694064 -0.14210284 0.01861844 0.014964172
-0.078193955 0.24315096 -0.025937328 0.020641774 -0.06824709 0.057284895 0.008539845 -0.16149606
-0.08017891 -0.14006218 -0.08813758 0.27178368 0.04869426 -0.031284332 0.051636133 0.012801419
-0.03819737 0.11690014 0.0064116423 -0.009885526 -0.17445125 0.24742575 0.14451891 -0.19316816
0.24944553 0.20460789 -0.12799196 -0.11563276 -0.23968668 0.020511601 -0.18312727 0.07797197
0.22091427 -0.044557832 0.06160031 -0.035399836 0.13123833 0.12803245 -0.049723033 -0.29071772
0.10586463 -0.06966255 0.22249599 0.028950024 -0.012704307 -0.05274942 0.016125398 0.04994739
0.31414235 0.10600662 0.000399236 -0.15150467 0.009180045 -0.08051392 -0.06488058 0.009215054
0.20544209 0.047088496 -0.055409838 -0.021548605 0.3412237 -0.1488488 0.17522322 0.051887557
-0.17865936 0.08543806 -0.04801624 0.104947634 0.07986496 0.050981786 0.12847258 0.14037915
-0.06642378 0.005898476 0.14675437 -0.01665822 0.030335208 -0.096398376 -0.06041191 0.14833105
0.28470588 -0.038582496 0.0737013 0.26878688 -0.054929614 0.05929292 0.18868116 -0.1390597
0.039882608 0.036656223 -0.16157772 -0.17140353 0.063236035 0.034818728 -0.19689299 0.122091636
0.1593742 -0.09978859 -0.0056055877 -0.34004188 0.17956229 0.084267855 0.22903596 -0.026201947
0.02028534 -0.008971477 0.2668538 -0.16030432 0.054926034 0.1518527 0.00843375 0.08905098
0.058857746 0.10129812 -0.027448492 0.009512235 0.03750575 0.033203147 -0.047653604 0.0009675773
0.1825465 0.016537094 -0.12213497 -0.036504824 -0.10530802 -0.12718165 -0.025708131 -0.048184842
-0.09662529 0.06071521 0.1954082 0.056903124 -0.19559991 -0.19094539 0.15417063 -0.20880556
-0.05093857 0.2246334 0.11769162 -0.020166337 -0.07386689 -0.05185132 -0.21548909 0.020596795
0.1686223 -0.12928057 0.031905465 0.12020023 0.19584417 0.122061096 -0.22975698 -0.09535536
0.10433203 0.017338961 -0.06484757 0.15192464 0.033917002 0.061388772 0.12535898 -0.20713393
0.12954222 -0.14847073 -0.08390822 -0.10733138 0.0041677193 -0.12906635 0.15110551 -0.042255536

ffn.1.bias f4 [64]
00000000: b0a8 9a3d 3f64 fa3c 56c8 193d 7e6c cf3c
00000010: 44e7 e53c fe25 433d 18b1 823c 127a 2dbb
00000020: 1c04 2dbc 3491 05bc 11a0 2b3d bde7 193d
00000030: bac7 a23d 83c0 ab3d 8c26 803d 1472 673d
00000040: fc75 173c a24a 833c f5b4 56bc 3f82 423b
00000050: 0f85 613d edf6 c53c 794f 653d 7422 053d
00000060: e055 8cbb 1ba3 363d 6f21 0d3d c127 173d
00000070: 8569 f43c b916 e43c c6b7 203d 72bf 793d
00000080: 556d 6cbb bbd5 fd3c 32ed 1d3d aaa9 9cbb
00000090: c268 903d 58e9 393d 3165 913d 7646 dcba
000000a0: 7b70 6d3d 81b5 a93c 0bc9 653c 3c8f efbc
000000b0: 39bf 0e3d 6ea9 323d fda9 2a3d d21d 75bd
000000c0: ab09 ebba 8da5 163d a8f8 2c3d c3cc db3c
000000d0: c2c5 38b9 5a0f b53c a41a ab3c 9a5c 1d3d
000000e0: 27f1 5c3d 90ca 9b3c c273 363d 790c 3c3d
000000f0: 6cfc c43b 655c 593d 19a8 233c b7fe 473d
0.07551706 0.03056538 0.03754457 0.025320288 0.028064378 0.047643654 0.015953586 -0.0026470465
-0.010560062 -0.008152295 0.041900698 0.03757452 0.07948251 0.08386328 0.06257352 0.056505278
0.009244438 0.016026799 -0.013104667 0.0029679684 0.055058535 0.024165595 0.055983994 0.03250356
-0.004282698 0.044589143 0.034455713 0.036903147 0.029835472 0.027842866 0.03923776 0.060973592
-0.003607591 0.030985704 0.038556285 -0.0047809677 0.07051231 0.04538855 0.07099379 -0.0016805667
0.057968598 0.02071643 0.014024983 -0.029243104 0.034850333 0.043618612 0.04166602 -0.059842892
-0.0017931958 0.036778975 0.042229325 0.026831036 -0.00017621278 0.022102047 0.020886727 0.03841839
0.05394092 0.019017488 0.04454399 0.045910332 0.0060115363 0.05306663 0.009988808 0.0488269

ffn.4.weight f4 [1, 64]
00000000: 380a 9a3d c810 d23e e68d 393d d104 3f3e
00000010: cac3 3a3e 3740 13be 6f64 6bbe 8241 30be
00000020: a319 533c df9a ca3c 89a0 733e 4aa4 92be
00000030: 395e 36be 564c f03d de81 74be b9ce 0ebe
00000040: 6bbd f1bd 4274 51be 719c b93d ad39 1abe
00000050: 4be4 283e f180 1dbe 2ab7 b7be de9d 013e
00000060: 0890 22be 11c3 b0be 7c09 68be 425a 96be
00000070: 86dd 843d c0da fd3d 675d 8a3e fa14 4e3e
00000080: ecdb c9bd 2614 40be 8beb 3abe 302e 55be
00000090: 2b62 09be 0679 0abe e76b 073e 24b2 1ebd
000000a0: 5bcd af3e cfc0 573e 29b6 9b3d bebb f23d
000000b0: 60f3 c1bd 7616 2fbe ef80 303e b585 a73d
000000c0: 3113 143f e5cc 6d3e 1d43 9bbe 4644 9fbe
000000d0: f820 183e 4b09 a93e 7c10 dd3d f9f3 6bbe
000000e0: 455c 113e 6709 173e 102b 803e 26f3 98bd
000000f0: b861 80bd da1a a1bd 9262 31be 216e 853e
0.0752148 0.41028428 0.04530134 0.18654181 0.1823875 -0.14379965 -0.22987531 -0.17212489
0.01288453 0.024732051 0.23791708 -0.28640968 -0.1780938 0.1173331 -0.23877665 -0.13946046
-0.11803707 -0.20454505 0.09063042 -0.15061064 0.16493337 -0.15381218 -0.3588193 0.12657878
-0.15875256 -0.34523824 -0.22659868 -0.29365736 0.06487565 0.12395239 0.27024385 0.2012519
-0.098564 -0.18757686 -0.18253915 -0.208184 -0.13416354 -0.1352273 0.13224755 -0.038744107
0.3433636 0.21069644 0.07603104 0.11852215 -0.09470248 -0.17098412 0.17236684 0.081797995
0.57841784 0.23222692 -0.3032464 -0.31106776 0.14856327 0.33014902 0.1079416 -0.23042287
0.14195354 0.1474968 0.25032854 -0.07468252 -0.06268638 -0.0786645 -0.17322758 0.26060584
