githubproject/lbdd/amse_build/mmodel14/checkpoints_2_folds/fold_3/model_0/model.pt (torch, 127883 bytes, 8 tensors)

encoder.encoder.0.cached_zero_vector f4 [64]
00000000: 0000 0000 0000 0000 0000 0000 0000 0000
00000010: 0000 0000 0000 0000 0000 0000 0000 0000
00000020: 0000 0000 0000 0000 0000 0000 0000 0000
00000030: 0000 0000 0000 0000 0000 0000 0000 0000
00000040: 0000 0000 0000 0000 0000 0000 0000 0000
00000050: 0000 0000 0000 0000 0000 0000 0000 0000
00000060: 0000 0000 0000 0000 0000 0000 0000 0000
00000070: 0000 0000 0000 0000 0000 0000 0000 0000
00000080: 0000 0000 0000 0000 0000 0000 0000 0000
00000090: 0000 0000 0000 0000 0000 0000 0000 0000
000000a0: 0000 0000 0000 0000 0000 0000 0000 0000
000000b0: 0000 0000 0000 0000 0000 0000 0000 0000
000000c0: 0000 0000 0000 0000 0000 0000 0000 0000
000000d0: 0000 0000 0000 0000 0000 0000 0000 0000
000000e0: 0000 0000 0000 0000 0000 0000 0000 0000
000000f0: 0000 0000 0000 0000 0000 0000 0000 0000
0.0 0.0 0.0 0.0 0.0 0.0 0.0 0.0
0.0 0.0 0.0 0.0 0.0 0.0 0.0 0.0
0.0 0.0 0.0 0.0 0.0 0.0 0.0 0.0
0.0 0.0 0.0 0.0 0.0 0.0 0.0 0.0
0.0 0.0 0.0 0.0 0.0 0.0 0.0 0.0
0.0 0.0 0.0 0.0 0.0 0.0 0.0 0.0
0.0 0.0 0.0 0.0 0.0 0.0 0.0 0.0
0.0 0.0 0.0 0.0 0.0 0.0 0.0 0.0

encoder.encoder.0.W_i.weight f4 [64, 147]
00000000: e996 93bd 5126 4dbd ae90 22bd ba64 8d3d
00000010: d020 3c3d 7801 61be 8dd9 263e ecc1 58be
00000020: e2d3 3f3d 18a4 32be e07f 873d 7c6d 64bd
00000030: 3916 2ebd dab2 87bd ee16 8e3d 35af d1bd
00000040: a892 083e a019 c73c e14e 41bd 3b12 e03c
00000050: 7dce 6d3d 1c5b c6bd aea4 66be 27e4 f63d
00000060: 3615 d33d 7c32 ddbd 371a 233c a23f 953d
00000070: 74f2 3ebd 8154 f93d 3830 13bc f45b 81be
00000080: fa63 83bc 914d 153e d759 c0bb 05ce 94bd
00000090: 2d8b 26bd 1504 353c d79b 02be b6e3 b6bc
000000a0: fc46 b83d 915f 843b a24c e5bd d078 a3bd
000000b0: 460e 8aba 135b 153d 93db 0ebe 9642 803e
000000c0: 4de6 6fbc bd26 f7bd f7b9 1a3e 3f24 ce3c
000000d0: 393a c4bc 5d5b 26be c098 5c3d 2cf3 88bd
000000e0: d7b8 d13d 0421 cabd 33c2 e6bd a6db f73d
000000f0: 4cd0 cebc 6940 2cbe 0c49 0c3d c314 69bd
00000100: af62 e03d 2794 553e c993 b13d 96ba 633d
00000110: e45b 93bd eec1 0b3d 95a1 1abe 54d8 023e
00000120: 1691 36be 7fc4 a2bd e37b 343e 0d2f 543d
00000130: 00a8 85bd 5c52 063e f149 e33c 6cee 673c
00000140: e2a8 84bd c10b 403e 3560 d03d b4f4 253c
00000150: 9dd8 003e 9a82 c23d f65c 183e b4d7 b03c
00000160: 2f2c 3c3e 50cb 4ebd 3a66 cdbd fce8 963b
00000170: c959 7ebd 7471 3ebd f1de 96bd 7b4e 30be
00000180: 5e74 d93c bdbc bb3b 4db4 663c d678 e4bd
00000190: 1c8c e03d eba7 7b3d 62f0 fb3c dca2 a83d
000001a0: fca6 0a3e d337 1a3e 6841 87bc 2f94 3fbd
000001b0: dab1 923d 0a9e ae3d 7f04 ab3d 2454 2a3d
000001c0: 7835 c2bc 6fae 89bc d2c4 d43c 516f 293d
000001d0: 473f 053e 9d5f b03d bc70 273e ab3f dbbd
000001e0: 91c4 b53d 2c7f 7a3e fd45 c6bd 21ff 983d
000001f0: 7e2b e0ba b119 8d3e 5c52 3d3e 2446 263d
00000200: d9a9 32be e290 c43d aa00 1c3d 5645 83be
00000210: 6b28 563d 9622 05bd 8259 ff3d 1fcd 5c3d
00000220: d6e6 c0bd 1ee9 abbd 4eb5 a53d 5e86 d7be
00000230: 804a 8dbe ce26 843d 9063 973d 4e2c 0f3e
00000240: f478 38bd 932d 23be bfd0 863d d370 9dbc
00000250: 2c68 64be b054 c23d cbef 2a3d 0ca1 153e
00000260: 0579 2e3d 534e 123c 0477 dc3d ebca c6bd
00000270: 3324 d53d 4f8c 1cbd e4a2 3d3a d27b 803c
00000280: 0e15 06bd 4b5e 573d 61b4 38be be40 de3a
00000290: 00a6 57be 4f88 ae3d 22d3 04bd 2da3 08be
000002a0: 0886 84bc 42b3 57bd f9d6 2bbe 9ede 823e
000002b0: 2973 1fbe 3421 06bd 7af7 223e 7e04 e83b
000002c0: aede 1c3e 6736 4bbb 8eb4 14bd 0782 8c3d
000002d0: 54cb b13e 906d 3f3c c933 083c aaa3 c13c
000002e0: 9de1 33ba d8b3 d63c 8e93 883d 8c0e 223d
000002f0: 51b8 2d3d bae1 12be ebfb 8b3d f93a 28bc
00000300: bb3f afbd 0906 e63d c661 03bd 7724 b13c
00000310: f589 21bd 727f a5bb 7809 1c3c fcbe 2cbe
00000320: 80c3 0ebd 3553 26bd 9699 ce3b c114 bebb
00000330: 6ac4 243e 63d5 1bbd 870a 7b3b c476 0cbe
00000340: 32d3 30bc 12e2 2b3d 2d7b d73c 7fa3 83bd
00000350: 3d9a 4abd caa3 bdbd 91e2 083e ce4d f4bd
00000360: f8a1 3c3e 6e93 413e 8194 103d 0d8d 163e
00000370: abf0 e43d 7eff e33d 05b5 9fbd 6fa4 bf3a
00000380: 33de 9fbd 6ce3 13be 3f1c 3b3e 37f9 bd3d
00000390: 86e2 a63c 7b90 a83d 9e41 33bd 91d5 b4bc
000003a0: 7818 b33d 4200 273c 3fdd 2b3d 8432 803c
000003b0: ef8e ddbc 4d88 97bd b73f 10bd e0db ccbd
000003c0: 0f41 1dbe 3ace 3f3e 165b 32bd 1556 82bd
000003d0: 153d e4bc 79a8 5c3c ac78 913d b18c 5b3d
000003e0: 0e54 abbd 8994 71bc 6a0a 693d 8a98 38bc
000003f0: a96c 3f3c b086 12be e6e4 803d 3a8d fc3d
-0.07206518 -0.05008537 -0.03968876 0.06903978 0.04592973 -0.21973217 0.16293927 -0.21167725
0.046832927 -0.1744541 0.06616187 -0.055768475 -0.042501662 -0.0662591 0.06937967 -0.10238496
0.13337195 0.024304211 -0.047194365 0.027352443 0.05805825 -0.096853465 -0.22523758 0.12055235
0.1030678 -0.10800645 0.009954981 0.072875276 -0.04661794 0.12174321 -0.008983664 -0.25265467
-0.016038883 0.1458037 -0.0058700847 -0.072658576 -0.040660072 0.0110483365 -0.1275476 -0.022325378
0.08997914 0.0040397127 -0.11196257 -0.079820275 -0.0010532818 0.03646381 -0.13950948 0.250508
-0.01464231 -0.120679356 0.15110002 0.025163768 -0.023953544 -0.1624579 0.05385661 -0.06687006
0.102403335 -0.098695785 -0.11267509 0.121024415 -0.025245808 -0.16821446 0.03424935 -0.056904566
0.109563224 0.20857297 0.08670766 0.055597864 -0.07195261 0.034120493 -0.15100701 0.12777835
-0.17828783 -0.07947635 0.17625384 0.051802684 -0.06526184 0.13117355 0.027745219 0.014155965
-0.06477524 0.18754484 0.101746 0.010129143 0.12582631 0.094975665 0.14879212 0.02158723
0.1837623 -0.050486863 -0.10029264 0.0046054106 -0.062097345 -0.046494916 -0.073667414 -0.17217438
0.026544746 0.0057292865 0.014081073 -0.1115586 0.10964224 0.061439436 0.030754272 0.08234188
0.13540262 0.15060358 -0.01651068 -0.04677218 0.07162829 0.08526237 0.08350467 0.04158415
-0.023707137 -0.01680681 0.025972757 0.041365925 0.1301242 0.08611987 0.16351599 -0.10705503
0.08875383 0.24462575 -0.09681318 0.07470537 -0.0017102805 0.27558663 0.18488449 0.040594235
-0.17447604 0.09597947 0.03808657 -0.25638837 0.05228464 -0.032503687 0.12468244 0.053906556
-0.094190285 -0.08394073 0.08091222 -0.42094702 -0.275959 0.06452714 0.07392037 0.13981745
-0.045037225 -0.15935354 0.06582784 -0.019218838 -0.22305363 0.09488809 0.04173259 0.14612216
0.042595882 0.008929807 0.10764888 -0.09706672 0.10407295 -0.038219746 0.00072340504 0.015684042
-0.032734923 0.05258016 -0.18037559 0.001695655 -0.21059418 0.085220926 -0.032427914 -0.13343497
-0.016177192 -0.052661188 -0.16781224 0.25560468 -0.15571274 -0.03274651 0.15914717 0.0070806136
0.1531932 -0.0031007768 -0.036305003 0.06860738 0.3472544 0.011683837 0.008313128 0.023637611
-0.0006861927 0.026208803 0.06668769 0.039564654 0.042412106 -0.1434392 0.06835159 -0.010267966
-0.085570775 0.1123162 -0.032075666 0.021623833 -0.039438207 -0.005050593 0.009523742 -0.1686973
-0.034854412 -0.040606696 0.00630493 -0.005800814 0.16090551 -0.0380453 0.0038305835 -0.1371718
-0.01079254 0.041963644 0.026303852 -0.06427669 -0.0494635 -0.09259756 0.13367678 -0.119289026
0.18421161 0.18903896 0.035297874 0.14702244 0.11178716 0.11132716 -0.077981986 0.0014621149
-0.07806053 -0.14442223 0.18272494 0.092760496 0.020371687 0.082306825 -0.04376375 -0.022074493
0.087449014 0.010192933 0.041959044 0.015649088 -0.027045695 -0.07399044 -0.035217013 -0.10002875
-0.15356849 0.18731013 -0.043543898 -0.06364075 -0.027861157 0.013467901 0.071030945 0.05360097
-0.083656415 -0.014744886 0.056894697 -0.011266837 0.011683621 -0.14309192 0.06293659 0.12331624

encoder.encoder.0.W_h.weight f4 [64, 64]
00000000: 8d12 a5be 7e4b bdbc e9c7 e0be 6a1f 1d3e
00000010: 6905 443d 66ec 763c adc9 31be b0ed 9bbd
00000020: 884a 7cbd dd4b 40be e2bb a13d c1fe 48be
00000030: e4c0 a03e dd03 74be 6c9e d03d fc0f 8c3d
00000040: a810 60bd cc1a 213e a980 913d 12ae 173e
00000050: 260d 5f3d 6251 85be 8c0b d53b 5cf0 51be
00000060: e686 66be 9721 aebe dbbe b13d a031 67be
00000070: 500a 833e c591 fe3d bda3 bf3d 2f20 213e
00000080: b8d7 32be eaae 603e 7d1c d3bd b3c1 55be
00000090: 813c 5c3e 639d 263e 54bb 523d 5d35 cf3d
000000a0: b2be 703e e96a 2bbe 2b0b dbbd b5d1 523e
000000b0: 29a0 8f3e f72b 42be a1b8 bf3d d0bd b1bd
000000c0: 8f3f f23d 37e8 043e fb41 aa3c 1699 10be
000000d0: 1973 69bd 05c0 2fbd fa88 81bd f158 0abe
000000e0: 2731 ff3d d2f1 fa3d 735c 3f3c d0bb 6bbc
000000f0: eb98 b63c 9c85 b73d 28e4 55be 0b36 173e
00000100: b663 9f3e 5fa6 18bd 2c59 b9bb 8322 883e
00000110: 6f53 8cbe 68b6 4abc 9108 a03c 0b90 d4bd
00000120: 1416 653d 84a4 4bbe 6e56 88bd 9d57 cc36
00000130: 3f19 7fbd b791 26be a365 4d3e a292 113e
00000140: 4569 3c3e 25a4 193d 96f6 8dbd 84d4 f1bd
00000150: b150 413d 5f6d 8f3e 202f 173e 241e 50bd
00000160: e81e b8bb 42e5 e7bb 38df 2a3d eb13 953d
00000170: 243b 143d bf98 a9bc e5f3 70bd 2129 a83d
00000180: b4b5 253e 4ef8 aa3d 926e 0a3f dd59 df3c
00000190: a683 2ebd a465 7abc c7e5 3bbd 5825 cfbd
000001a0: 2862 2b3e b653 78bd 45db 0d3e 6725 183d
000001b0: 8055 163d 6378 46be bc9d 3cbe 69b4 063d
000001c0: 3224 553d d991 83be 5828 5c3d 1a2f ecbc
000001d0: a386 5ebc f9f6 903e 8cde 763e 47be a7bd
000001e0: a82c a73b 5538 3b3d 0db2 96be f695 70bd
000001f0: e17d f5bd b91d 473c 1516 143e bbdd edbd
00000200: b233 d63b 98c8 03be edbd 123a fb31 b23e
00000210: 67a6 a7bd f29b 81bd af3d 1d3e 36db 3dbd
00000220: c0db 59be 8e35 22be c2b3 6b3d a492 31be
00000230: 3b20 c7bd 175f adbd 2642 de3c af87 2ebd
00000240: 0c17 0fbe 2042 07be 5add 343d 4deb 3e3c
00000250: aa29 133e bf7a 113d 0cf2 2abc 706b 413e
00000260: 9d95 8ebe aefe aabd 30a1 6d3d 0866 9e3d
00000270: 51f2 0e3e 8884 113e 705e c13c 8f4e f03c
00000280: 1ae3 4d3e ebfb e63d 173b 893d e11d 59bd
00000290: b2fe 66bd 206b 8ebe 424c a4bd 71cd 0fbe
000002a0: 6e7d b3bd 49bd b1bc a844 d5bc 24a6 663c
000002b0: e1a4 05be ec6d e03e 33fd 8e3e 4515 163d
000002c0: 9da6 ad3d d4e2 8cbc 2c4c 6f3e 3310 413c
000002d0: 22e5 9c3d 3669 073d 6b17 9fbd c78e aebd
000002e0: 005b eebc a68f 4b3e 74c4 bb3c 97d9 e03d
000002f0: 27db 9bbc 52c5 093e 1094 0b3e ca0a 973d
00000300: 87dd 073d e3fb 203e 6111 8abe dabe 263e
00000310: bcc5 963d 3a75 58bd 2987 b4bd 39be 27be
00000320: 3414 b33c 69f1 04be 2d01 f0bd b823 34bd
00000330: d8ed f93d ed91 cfbe f1a6 c23d d8a4 d0bd
00000340: 579f 12be dc3b 1ebd dcf7 ba3e 6d4b 15be
00000350: af61 c63d 320f e83c a63f 113e d229 463d
00000360: 9685 863e e32e e43c bab7 603d ee12 963b
00000370: 529b 59be 869f 0fbe ce24 d33d 912a ad3d
00000380: 5947 29bd a7e5 3abe 1ddc 673c 3f70 4fbd
00000390: 79f5 ddbc 0398 b6bc 9098 49bd 3e60 a03d
000003a0: b8be 893e 945a 223e 7f97 683e 5f22 813e
000003b0: f3be 5c3d a0cb 1dbd fef0 34be 848b 513d
000003c0: 96a9 01be 6a2d ca3d c642 24be 244a 30be
000003d0: ffad 52be d1b5 a53d 1666 1bbe 05f2 a6bd
000003e0: 2512 afbd d4cd 5ebe e5fa 3c3d 3098 28bd
000003f0: 04d7 a9bc 0a26 e73d 9883 433d d415 26be
-0.32240716 -0.023107287 -0.4390252 0.15344015 0.047856722 0.01507101 -0.1736209 -0.07613695
-0.061594516 -0.1877894 0.07897164 -0.19628431 0.31397164 -0.23829599 0.101864666 0.06838986
-0.054703385 0.15732878 0.07104618 0.14812496 0.0544559 -0.26038653 0.0065016206 -0.20501846
-0.22512397 -0.34010002 0.08678981 -0.22577524 0.25593805 0.12430147 0.093574025 0.15734933
-0.17465103 0.21941724 -0.10308168 -0.20874672 0.21507455 0.16270976 0.05144818 0.101176
0.23510244 -0.16740002 -0.106954895 0.2058781 0.2805188 -0.18962084 0.09361387 -0.08678782
0.11828529 0.12979208 0.020783415 -0.14120898 -0.05699453 -0.042907733 -0.06324954 -0.13510491
0.12460547 0.12253155 0.011679756 -0.01438804 0.022289714 0.08961031 -0.20887816 0.1476671
0.3113076 -0.03726804 -0.005656382 0.2658883 -0.27407405 -0.012372591 0.019535335 -0.103790365
0.05592926 -0.19886976 -0.0665711 6.0898733e-06 -0.062279936 -0.16266523 0.20058303 0.14216092
0.18399532 0.037510056 -0.06931798 -0.11808112 0.047196094 0.2801313 0.1476407 -0.050809994
-0.0056189187 -0.00707689 0.041716784 0.0727919 0.036189213 -0.020702718 -0.058826346 0.0821097
0.16182595 0.083481416 0.54074967 0.02726453 -0.04260602 -0.015283022 -0.04587343 -0.10114545
0.16736662 -0.060626708 0.13853176 0.037145045 0.036702633 -0.19381861 -0.18419546 0.032886896
0.05203647 -0.2569721 0.053749412 -0.028831054 -0.013581905 0.28313425 0.24108332 -0.081905894
0.005101759 0.04570802 -0.29432717 -0.058736764 -0.119869 0.0121530825 0.14461549 -0.11614557
0.0065369243 -0.12869489 0.0005597759 0.34803757 -0.081860356 -0.06328572 0.15355562 -0.046351634
-0.21275234 -0.15840742 0.057544477 -0.17341095 -0.09722944 -0.084654026 0.027131151 -0.042609867
-0.13973635 -0.13208818 0.04415641 0.01165278 0.14371362 0.03551745 -0.010433685 0.1888864
-0.2784852 -0.083493575 0.05801505 0.07734305 0.13959624 0.14210713 0.023604602 0.029334335
0.20106164 0.11278518 0.067007236 -0.05300701 -0.05639524 -0.27816105 -0.080223575 -0.14043213
-0.08764158 -0.021696704 -0.026033714 0.014077697 -0.13051178 0.43833864 0.2792755 0.036641378
0.084790446 -0.017198004 0.23368901 0.011783647 0.07660891 0.03305932 -0.077681385 -0.08523326
-0.029096127 0.19879016 0.022920825 0.10979002 -0.019025398 0.13454178 0.136307 0.07375105
0.03317025 0.15721087 -0.26966384 0.16283742 0.073619336 -0.05284617 -0.08814842 -0.16381158
0.02186022 -0.12982716 -0.11718974 -0.043979377 0.12203568 -0.4054102 0.09504498 -0.101876915
-0.14318596 -0.038631305 0.36517227 -0.14579554 0.096866004 0.028327558 0.14184436 0.048379727
0.26273793 0.027854389 0.054862715 0.0045798933 -0.21250656 -0.14025697 0.10309754 0.084553845
-0.041327808 -0.18251668 0.0141516 -0.050644156 -0.02709459 -0.022289282 -0.04921776 0.07830857
0.2690332 0.15854865 0.22714041 0.25221536 0.05389304 -0.03852427 -0.17670056 0.051158443
-0.12662348 0.09871943 -0.16041097 -0.17215782 -0.20574187 0.08091319 -0.15175661 -0.0815163
-0.08548383 -0.21758205 0.04613771 -0.041160762 -0.02073241 0.11286552 0.04773292 -0.16219264

encoder.encoder.0.W_o.weight f4 [64, 197]
00000000: e9fa 19be 3b0f 82bd 4c93 a33c 1837 b9bd
00000010: 7ca8 5fbd a5b7 4dbe 3e19 eabd a6db 1c3e
00000020: 9fc7 ec3d 66ce 963c 6874 8e3d 54d1 d1bd
00000030: a30d a2bd ac51 fdbc d74c a93c 1ec2 0cbd
00000040: dcbf fe3c c59d dcbd 365a 92bd 34da edbc
00000050: a2d4 fdbc 56cc 55bd 5cb9 3abd eae2 6d3d
00000060: 4cb3 0d3e 5f47 cfbd 9cca 5b3d 5f99 e33d
00000070: bfbf 17be 163e 6abd bede 8e3d 1a7d b53d
00000080: b9dc 8cbc faea 1abd a80b 8a3c 4e31 ab3d
00000090: 3e74 07bd 73a1 e1bc b95f 7f3d 25eb b7bd
000000a0: 5333 bbbc 71bc 68bd 3e16 41bb 1ec0 9fbd
000000b0: 4318 ffbc 762a a23d 61cf 17bc 4c99 0ebe
000000c0: 7103 003e 2add 94bd 905b 1bbd fb06 e3bd
000000d0: 57d1 7dbd 5bd6 a6b9 3289 bd3d 4da4 683e
000000e0: d0d4 6dbd bae2 773a b9ff 093d 69b0 40bd
000000f0: e03a dfbd 3275 cfbd 2088 963c 619b 09bd
00000100: 1a04 bc3d 202b 17bd a93d 2bbe b176 42bc
00000110: e931 3bbd 919b 84bc 485c 70ba c5c1 9bbd
00000120: 58c1 b2bd 2856 3a3d b459 dfbb 265c 393e
00000130: 6f65 363e 9536 0ebe b23a 94bd e897 863c
00000140: a53a 09be e706 0e3d b74c 773b 61e3 093d
00000150: a5da 063e 7b57 183b b13e e83c 2c2a 983d
00000160: 0131 463d f3f1 14bc 51e0 14bc 66b2 db3c
00000170: d37b c73c 55c3 32bd e5c1 e6bd 67e9 8e3d
00000180: 90bf 9fbd 1ff8 6cbd 36ad f5bd bc18 e2bb
00000190: 734d cc3d 3121 c0bc 4423 173d 9e0d 3abe
000001a0: 583b c0bd d6d5 023e 7b6e 113d 37a9 eabd
000001b0: 8c59 373d 0cb0 413e fc9b 603d 87ee b43c
000001c0: 1dab 073e acb3 c93c 2438 a8bd f0ad 0e3e
000001d0: 01d3 503e 8e2a ac3c cf05 f13c c4c0 4dbe
000001e0: e45d 043c 7207 103d 68e5 06be 4463 4e3d
000001f0: b1c6 a33d 755e adbd 9593 083e 2ded f73b
00000200: 9d5b dfbd 85e4 0a3e 2567 613d 269b a23d
00000210: 8fdf 83bd a7cd fd3d 249f ca3d 102f 97bd
00000220: 557d cdbc 9db6 79bc 9516 0fbe 856f 693d
00000230: a929 47be 160b 2cbe 016c 17bd d0fb e2bd
00000240: 16ac dbbd 8c2d 853d 10c8 9ebc ffc1 58bd
00000250: fa21 d53d aa53 073e 6a86 413d 37e4 60bd
00000260: 723f b9bd df5d ab3b c9b1 c03d 95d1 d73c
00000270: 57c6 66bd fc73 153e d359 edbd 7bea 6cbe
00000280: d066 c33b 1918 e2bb 3133 1e3d 28cd c4bc
00000290: fa01 ec3d 7e18 e03c 69fa a1bd 8531 cd3e
000002a0: ea73 78bd 76ae 1ebe 38b8 133d f33f 1c3d
000002b0: b788 f0bd 5639 203e 1509 0cbd 9bb6 76bd
000002c0: 5a0b cb3d 52c9 59bb 4d2d 34be 2a33 4d3d
000002d0: b7a0 a33e 2fff 0fbe 6657 ac3d a48c 3d3e
000002e0: 2f66 54be 4caa dbbd a463 403d 1161 06bd
000002f0: 5ec1 8c3d 4dae 97bd eba9 03be 3db3 543d
00000300: 4c30 cd3c 2173 dbbd c9fe 4cbd 001c f33d
00000310: 905c 943d 9a35 173d 6a25 923d aa94 a2bd
00000320: ce33 803d 9a6d 22bc ab2d d53d 966b 523d
00000330: 8f7e 4a3d 4947 ba3d f62a 0bbd 70b2 33bd
00000340: 4b91 58bd b3b3 663e b08c c9bd da2a 0d3d
00000350: b63f 503e fd5e aa3d fc57 0abe 1bab ae3d
00000360: 69c2 0f3c 5896 34be ff3f 8d3d c6be 76bd
00000370: ce0a 9dbd 21c4 5b3d 5453 f33c 1169 333d
00000380: 6159 07be d72b 1d3d 08a6 983d 0bc6 e33c
00000390: 80c6 093d d32b 6c3d bf47 95bd b783 2abd
000003a0: 3955 8f3c 2110 a73c c47f 833d 65eb f93c
000003b0: f2c3 21be 50b1 053e cf78 033e 92c3 00be
000003c0: cf72 a8bc 46ce 89bd 0ea9 d63c 8b63 83bc
000003d0: 8f26 953d 80ac 6e3d 503c 36be ff05 c6bd
000003e0: c792 08bd 95a4 40be ad8e 023d d9f8 59bd
000003f0: e2e1 6a3d 177d 943d 0195 8ebd b2c3 a7bc
-0.15037121 -0.06350561 0.019967698 -0.090437114 -0.05460404 -0.20089586 -0.11430596 0.15318164
0.11561512 0.018408965 0.069557965 -0.10245004 -0.07912757 -0.030922733 0.020666523 -0.034364812
0.031097345 -0.1077228 -0.071461126 -0.029034711 -0.03098518 -0.052196823 -0.04558693 0.05807773
0.13837928 -0.10121035 0.05366002 0.111132376 -0.14819239 -0.057188116 0.069760785 0.08861752
-0.017195093 -0.037821747 0.016851261 0.083590135 -0.03306984 -0.027542805 0.062347148 -0.08980397
-0.022851622 -0.056820337 -0.002946272 -0.07800315 -0.031139499 0.07918255 -0.009265752 -0.13925666
0.12501313 -0.07268746 -0.037929118 -0.11085316 -0.06196722 -0.00031821695 0.092546836 0.22718926
-0.058064282 0.0009456087 0.03369114 -0.047043238 -0.108999014 -0.10129775 0.018375456 -0.033595446
0.0918047 -0.03690636 -0.1672274 -0.011869119 -0.045701895 -0.016187461 -0.00091690244 -0.07605318
-0.08728284 0.04549232 -0.0068161134 0.18101558 0.17812131 -0.13888009 -0.07237758 0.016429856
-0.13401277 0.03467455 0.0037734935 0.03366411 0.13169344 0.0023245502 0.028350206 0.07429919
0.048386578 -0.009090888 -0.009086684 0.026818465 0.024351036 -0.043643314 -0.11267451 0.06978112
-0.078002095 -0.057853814 -0.11995928 -0.006899921 0.0997571 -0.023453327 0.036898866 -0.18169257
-0.09386319 0.12776884 0.035505753 -0.114580564 0.044763133 0.18914813 0.05483626 0.022086395
0.13248868 0.024621807 -0.08213833 0.1393354 0.20392992 0.021016385 0.029421715 -0.20093066
0.008079026 0.03516335 -0.13173449 0.050387636 0.07996882 -0.08465282 0.13337548 0.0075661154
-0.10906146 0.13563736 0.055030007 0.079397485 -0.06439125 0.12392741 0.09893635 -0.07382023
-0.025084177 -0.015241292 -0.13973458 0.05699112 -0.19449486 -0.16801104 -0.036968235 -0.11083186
-0.10726182 0.06502828 -0.019382507 -0.052919384 0.10406871 0.13215509 0.047247328 -0.054905143
-0.09045304 0.005229696 0.0940891 0.026345054 -0.056341495 0.14595026 -0.11589398 -0.23136322
0.005963184 -0.0068998453 0.03862304 -0.024023607 0.115238145 0.027355429 -0.0790909 0.40076843
-0.06065742 -0.15496239 0.036064357 0.038146924 -0.11744826 0.15646872 -0.03418835 -0.06023274
0.099142745 -0.0033231569 -0.17595406 0.050097622 0.31958553 -0.14062189 0.084151074 0.18510681
-0.20742105 -0.10725841 0.046970025 -0.032807413 0.06872819 -0.07406292 -0.12857787 0.051928747
0.025047444 -0.107153185 -0.05004767 0.11870575 0.072442174 0.036916353 0.071360424 -0.07938512
0.06259881 -0.009913826 0.10409101 0.051372133 0.049437102 0.09095628 -0.033976518 -0.043871343
-0.052872937 0.22529487 -0.09841287 0.034464695 0.20336804 0.08318899 -0.13510126 0.085287295
0.008774378 -0.17635477 0.06896972 -0.06024053 -0.076680765 0.05365384 0.02970282 0.04380137
-0.13217689 0.038371887 0.07453543 0.027804395 0.03363657 0.05765898 -0.07289075 -0.04162952
0.017496692 0.020393433 0.06420854 0.030507753 -0.15797403 0.1305592 0.12839054 -0.12574604
-0.020562558 -0.06728797 0.026203658 -0.016038677 0.07282745 0.058269978 -0.17796445 -0.096691124
-0.033343103 -0.18812783 0.031874347 -0.053215835 0.057344325 0.072504215 -0.06962014 -0.020479057

encoder.encoder.0.W_o.bias f4 [64]
00000000: 6917 c43c dfb9 cf3b dac4 c6bb a60b 043d
00000010: 568b 87ba 3cb7 5a38 d386 4a3c 7c96 74bc
00000020: 4d96 b73c 5770 c5ba 8167 a7bc 62a6 413c
00000030: dafa 9c3c 8c0f 51bc c6af 8dbc adc6 22bd
00000040: ce4e 8d3c df68 0e3c 9380 38bc 3dea 1a3b
00000050: dba0 513b 7243 b8bc c4dc 5fbc bae0 0cbb
00000060: 22b4 d23b 273a d5bc 5320 753b a58a 2e3c
00000070: beab 0f3c f4f9 9fb9 ce11 183d 91b6 1dbc
00000080: 8e0f 84bc 309c b1bc ff7f 2e3c fef3 fc3b
00000090: b855 abbc c6cc 013c d1ad f03b 1cd6 a13c
000000a0: 04d1 0abb b229 633b a928 c33b 3faf 863c
000000b0: 0308 67bc 5086 8ebc 3794 903c 5cce 78ba
000000c0: a7c9 a73b 7b71 d43c ca0c 073d 8fc1 3c3b
000000d0: c074 b53b 62d5 d13a 749c 4e3c 2727 dbbb
000000e0: 6b52 15bc 9e0e 363c 2525 5b3c 1be1 153d
000000f0: c904 403c 7497 9e3c 466b 593d 13b6 5ebb
0.023936944 0.0063392962 -0.006065947 0.03223767 -0.0010341208 5.21459e-05 0.012361246 -0.014928456
0.022410536 -0.0015063387 -0.020435097 0.011819454 0.019162584 -0.012760054 -0.01729573 -0.039740253
0.017249491 0.008691995 -0.011261123 0.0023638152 0.0031986746 -0.022493098 -0.0136634745 -0.0021496252
0.006430165 -0.026028706 0.00374033 0.010653173 0.008768974 -0.00030513073 0.037126355 -0.009626047
-0.016120698 -0.021680921 0.010650634 0.007719516 -0.020914897 0.007922357 0.0073449393 0.019755416
-0.0021181712 0.0034662304 0.005955775 0.016440986 -0.014101031 -0.01739803 0.0176488 -0.0009491199
0.0051204744 0.025933018 0.03297118 0.0028801893 0.0055375993 0.0016009028 0.0126105435 -0.006688017
-0.009113888 0.011111883 0.013375555 0.03659163 0.011719891 0.019359328 0.05308082 -0.0033983036

ffn.1.weight f4 [64, 64]
00000000: 6429 10bc f9c5 343e 58b6 a5bd ec3b 87bd
00000010: b724 083c bf7e 33be 09be a0bd 74f2 8ebc
00000020: b501 65bd 59d1 f5bd cc26 0b3e fd2a d3bc
00000030: 63f3 8b3a 3c50 343d 5ac7 ec3c 412d 78be
00000040: bdcf 113d 901d c3bd a7d7 4b3e 9d0b 3f3e
00000050: aeaa 00bd 2b08 5abe b4e6 61be 23c7 c73d
00000060: 0920 5b3e ea19 383e d3ce 5c3e a885 3bbc
00000070: 4f83 61bd 54a8 d4bd bd65 0f3e 854f 323d
00000080: ed07 403e 8561 8dbd f6e1 a33e 858d b43d
00000090: 64e4 6e3c 0155 593e 6575 17be e502 63be
000000a0: 1c27 4c3d 4db5 933d a976 933d d863 f0bd
000000b0: e8d1 d7bd 7e81 833e 081c 583e 226e 32bc
000000c0: 804f 68bb cb3d 1cbd c4f8 ecbc 5bd1 7f3d
000000d0: 75f7 dbbd a971 8f3d 38e5 a4bd 456a f8bd
000000e0: 6473 5dbd 0c4d 04be e7bb 343e ad6c 643e
000000f0: fb72 00be c9f7 09be 1ee6 613e 899c dcbd
00000100: cde5 dcbd d8c8 ea3d 5182 943d 1dc8 08bd
00000110: ca4c 5b3e 37b8 babb 73c0 e2bd 1783 383c
00000120: aa64 45be 7ac7 013e 9287 653c b127 403d
00000130: 7ed4 88bd a0e6 853d 54b7 a3bd e5b0 bb3c
00000140: 65b0 d13b 694f 60bd e3ef 8e3c 3292 13be
00000150: 6c0e 0c3d 76e4 e7bd 4f07 0a3d fd95 9fbb
00000160: 4e15 81bd 18ee 473e e33d 77bd 3397 1d3c
00000170: dacf 71bd e4b4 263d 781e 11bd 5dbd 3abe
00000180: 1b3e 9fbd 2e17 1fbe fc0a abbd 2db3 833e
00000190: 480e 6e3d 8651 71bd 7490 203d 707b f53c
000001a0: 7bd5 18bd 7cb2 e03d 98e7 f63c 656d 10bd
000001b0: 3341 32be aebb 803e 43bb f53d 70a3 54be
000001c0: bcf8 8a3e 61f4 253e 4c60 07be cb6d 09be
000001d0: 7d2e 58be 03bf d23a 9a47 39be 87c2 9c3d
000001e0: 616a 593e b87e 033c 61b3 923d 4ca1 9c3c
000001f0: c4af 1f3e d9c6 893d c287 8bbd 3110 8cbe
00000200: 9f98 0a3e 4f83 a7bd a71b 583e 2b28 253b
00000210: 0939 c7bc 12d6 6abd 02bf 4e3b 00db 383d
00000220: 53f3 543e 7c57 003e 4c00 c33c a5dd 2fbe
00000230: 90aa 113d 2279 adbd fe64 b1bc 3eb2 273c
00000240: c44e 3e3e 3534 483d d414 3bbd e8f3 80bc
00000250: bc4d 923e c05c 18be 750d 1d3e 3e47 c6bb
00000260: 87e5 28be 8309 27bc 1d41 bdbd 9166 cc3d
00000270: cf9f c53d eff5 ac3c 68f8 ff3d aca7 fb3d
00000280: be5e a3bd ff5a 36bb 5329 2a3e 2db0 f4bc
00000290: 8a07 3a3d 88ba 1dbe 07bd abbd afbb 183e
000002a0: d1f1 993e 3225 5dbd 8b5b f93d 213d 833e
000002b0: 2196 76bd 65af 943d a5ff d83d f976 27be
000002c0: 2b0c 3e3d d78a 433c 042a 3cbe fe54 1dbe
000002d0: c877 443d 27d1 223d 9c5b 59be 6cb1 f83d
000002e0: 94dc 203e 299f a7bc 1c5f 173d d824 97be
000002f0: 7ac9 113e 5015 c33c bcd4 773e def4 02bd
00000300: 6565 f33c 4e9b 18bd 6d37 873e 3b36 e6bd
00000310: 8b9d 383d f132 293e 3417 053d c151 a83d
00000320: c10b 133b 14e0 e53d 9a0b b7bc 5c1c 173d
00000330: 4701 033e cded e83c 5a94 c03b bab0 4c3c
00000340: e4f3 3a3e 2333 433c 339b 04be 9307 49bc
00000350: 50bb c6bd c60a 1cbe e336 14bd f0cf 6dbd
00000360: 0225 9abd 2bd6 213c 1bf8 433e 7c23 1e3d
00000370: 0fea 09be d449 2dbe 3950 663e b2b8 08be
00000380: f7cf b9bc dc4f 563e fdda fe3d 5176 d4bc
00000390: fc1e 72bd f78d 7bbd 3bbb 54be de23 a9bb
000003a0: 2205 3a3e e979 f0bd 9100 023d a43b 363e
000003b0: 0135 643e 8ad0 053e 6dd1 95be 9da0 9ebd
000003c0: 6908 9e3d fa65 603b 698f 31bd 7e88 423e
000003d0: 3e7e 4f3d 404c 813d 221d 303e 0ee6 5abe
000003e0: e3d8 013e e8fa 90bd ab0a 86bd 30b5 4fbd
000003f0: 7a38 f43b fe19 29be fa54 073e 6c8f 20ba
-0.008798931 0.17653646 -0.0809142 -0.06603226 0.008309535 -0.17528819 -0.07848746 -0.017449595
-0.05590983 -0.120028205 0.13589019 -0.025777334 0.0010677393 0.04402183 0.028903652 -0.24236013
0.035598505 -0.09527123 0.19906484 0.18656774 -0.031412773 -0.21292178 -0.22060663 0.09754779
0.21398939 0.17978635 0.21563272 -0.01144544 -0.055056866 -0.103836685 0.14003654 0.043532867
0.18753023 -0.06903366 0.32008332 0.08816055 0.01458082 0.21223833 -0.14790876 -0.22169073
0.049841985 0.07212315 0.07200367 -0.11737794 -0.10538083 0.25684732 0.21104443 -0.0108905155
-0.0035447776 -0.038144868 -0.028927214 0.062455516 -0.10740558 0.07004101 -0.080515325 -0.12129644
-0.054065123 -0.12920016 0.17649804 0.22307082 -0.12543862 -0.13473429 0.22060439 -0.10772044
-0.107860185 0.11464089 0.072514184 -0.033393968 0.21416011 -0.0056982297 -0.11071863 0.011261723
-0.19276682 0.1267375 0.014009373 0.046912853 -0.06681155 0.06538129 -0.079939514 0.022911498
0.0063992017 -0.05476323 0.017448371 -0.14411238 0.03419344 -0.11322872 0.033698376 -0.004870175
-0.06302892 0.1952442 -0.060361754 0.009618568 -0.059036113 0.040699854 -0.035429448 -0.18236299
-0.077755176 -0.15536186 -0.083517045 0.25722638 0.05811909 -0.058915637 0.03920026 0.029966086
-0.037312966 0.10971543 0.03013973 -0.035260577 -0.17407684 0.25143188 0.11998608 -0.20765471
0.27142894 0.16206504 -0.13220328 -0.13420789 -0.21111484 0.0016078654 -0.1809372 0.07654291
0.21231987 0.008025818 0.0716312 0.019119881 0.15594393 0.0672738 -0.06813003 -0.27356103
0.13534783 -0.08179342 0.21104299 0.0025200944 -0.024319189 -0.05733306 0.0031546955 0.04513073
0.20795946 0.12533373 0.023803852 -0.17174394 0.03556305 -0.0847037 -0.021654602 0.010235367
0.18584734 0.048877914 -0.04567416 -0.015741304 0.28574932 -0.14879131 0.15337165 -0.006050973
-0.16493808 -0.010195139 -0.09240935 0.099805005 0.09649622 0.021113364 0.124985516 0.1228784
-0.07977055 -0.0027825234 0.16617326 -0.029869163 0.045417346 -0.15403187 -0.083856635 0.14915346
0.30067304 -0.05399055 0.121756636 0.25632575 -0.060201768 0.07260016 0.10595635 -0.16353978
0.046398323 0.0119349575 -0.18375403 -0.15364453 0.047965795 0.039750244 -0.21226352 0.121432155
0.15709144 -0.020461636 0.036955938 -0.29520297 0.14237013 0.023813874 0.24202245 -0.031971805
0.029711435 -0.037257485 0.26409474 -0.112408124 0.04507212 0.16523339 0.03249283 0.08218718
0.0022437426 0.1122438 -0.0223444 0.03689228 0.12793456 0.028433705 0.00587706 0.012493307
0.182571 0.011914047 -0.12949829 -0.012269872 -0.09703696 -0.15238485 -0.036185157 -0.058059633
-0.0752659 0.009877722 0.19137613 0.03860806 -0.13468193 -0.16922694 0.2249154 -0.13351706
-0.022682173 0.20928901 0.124441124 -0.025935324 -0.05911158 -0.061414685 -0.20774548 -0.0051617464
0.1816602 -0.117420025 0.03173882 0.17796189 0.22285844 0.13067833 -0.29261342 -0.07745478
0.07716448 0.003424047 -0.043349657 0.1899738 0.050657503 0.06313372 0.17198613 -0.21376821
0.12680392 -0.070791066 -0.065450035 -0.050709903 0.0074530216 -0.16513821 0.1321601 -0.0006124887

ffn.1.bias f4 [64]
00000000: 5e2e 913d 891c bb3c 6a59 e83c b60e 2a3d
00000010: e7bf 803c 32d1 2b3d 774f 0b3c 5cf4 a63c
00000020: 4cf1 0f3d 8791 ecbc d7e9 643c 38b4 153d
00000030: c81f 6c3d 80f4 7f3d b8e5 0d3d fe6d 793d
00000040: 5221 083c 98aa d639 7259 d83b 64cb 50bc
00000050: b97d 5c3d e0cd 503d fe69 913c 8a42 103d
00000060: a7ed 38bb bc3e 3e3d bc5d bc3c 0cb1 9d3c
00000070: b80d 353d 3b48 af3c 3084 fc3c 8f47 1b3d
00000080: 343e a13c e97d cf3b 0962 133d 6dea 473d
00000090: 9f30 7d3d 87b4 3d3d aede e43c e487 ebbc
000000a0: ac63 3e3d bced c93c b880 c03c ff79 c03c
000000b0: dff9 023c a028 143d 651f 1b3d d488 6ebd
000000c0: 69e0 a13c 3794 1b3d 8d70 003d 788c 993c
000000d0: 8a98 883c b188 063d c680 46bc e4a6 f13c
000000e0: 4c57 e83c 8098 943c 4a50 d33c bb52 893d
000000f0: 9664 4bbb bd39 3c3d e598 8bbb b62d 363d
0.07088922 0.022840755 0.028362948 0.041517936 0.015716506 0.04194755 0.008502833 0.020380192
0.035142228 -0.028877987 0.013971767 0.036548823 0.057647496 0.062489033 0.034642905 0.060895912
0.008308725 0.00040944363 0.0066024596 -0.012743805 0.053830836 0.050977588 0.017750736 0.035219707
-0.0028217824 0.046446547 0.022993915 0.019249462 0.044202536 0.021396747 0.03082475 0.03791004
0.019682981 0.0063321483 0.035982165 0.04880755 0.061813947 0.046314742 0.027938213 -0.028751321
0.046481773 0.024649493 0.023498878 0.023495672 0.007994144 0.036171556 0.037871737 -0.05823596
0.019760327 0.037983146 0.031357337 0.018743739 0.016674299 0.032845203 -0.012115663 0.029498525
0.028361939 0.018139124 0.02579512 0.06705233 -0.0031035296 0.0459535 -0.00426017 0.044477187

ffn.4.weight f4 [1, 64]
00000000: 9627 963d bd2a cb3e a439 353d 5b18 3f3e
00000010: 24d9 333e 5913 fabd 517a 71be 7f20 3abe
00000020: e620 ffbc 15c8 b53c d457 5b3e ceac 93be
00000030: c9b6 51be 7be1 a03d 69c5 3ebe 855a 1dbe
00000040: 35ee 0abe 9cfd 30be ae06 bc3d 4338 12be
00000050: 13b1 283e 6cdc 53be ede0 95be 5a02 003e
00000060: 13d1 22be 730d c2be acd7 7cbe 13d0 99be
00000070: 8bbd 793d 723b c73d 2ca9 8a3e bce7 4a3e
00000080: 94e7 edbd 4ec8 30be bd3c 29be 0fdd 63be
00000090: 83e0 08be 11e5 1abe 8c26 893d 4d5a 14bb
000000a0: 3aea ad3e abe6 5e3e b12e e33d cf8b 2a3e
000000b0: 53bd 78bd cd2a 20be 79d1 233e ce7d 923d
000000c0: 58a8 1c3f 6bc0 673e 3454 7abe be83 a5be
000000d0: 9ba4 213e 4585 a83e 1cd0 b13b 2102 85be
000000e0: 0d53 0e3e 9988 293e 5f6b 833e ee28 d0bd
000000f0: 09e3 31bd d79b cabd b4fb 27be 76e0 7f3e
0.07331769 0.39681044 0.044244424 0.18661635 0.17563301 -0.122107215 -0.23581816 -0.18176459
-0.031143617 0.022190133 0.21420223 -0.28842777 -0.20479883 0.07855507 -0.18629993 -0.15366562
-0.13567431 -0.17284244 0.091809615 -0.14279275 0.16473798 -0.20689553 -0.29273167 0.12500897
-0.15900068 -0.37900886 -0.24691647 -0.3004156 0.060971778 0.09728135 0.27082193 0.19814962
-0.11616436 -0.1726391 -0.16527076 -0.22252296 -0.13366894 -0.15126444 0.06696805 -0.0022636831
0.33967763 0.2176768 0.1109289 0.16654895 -0.06072743 -0.15641327 0.15997876 0.071529016
0.6119437 0.22631995 -0.24446183 -0.32327074 0.15785448 0.32914177 0.00542642 -0.25978187
0.13898869 0.16556014 0.25667855 -0.10164057 -0.04342941 -0.09893005 -0.16404611 0.24987969
