githubproject/lbdd/amse_build/mmodel11/muta_checkpoints_100/fold_0/model_0/model.pt (torch, 239883 bytes, 8 tensors)

encoder.encoder.0.cached_zero_vector f4 [100]
0.0 0.0 0.0 0.0 0.0 0.0 0.0 0.0
0.0 0.0 0.0 0.0 0.0 0.0 0.0 0.0
0.0 0.0 0.0 0.0 0.0 0.0 0.0 0.0
0.0 0.0 0.0 0.0 0.0 0.0 0.0 0.0
0.0 0.0 0.0 0.0 0.0 0.0 0.0 0.0
0.0 0.0 0.0 0.0 0.0 0.0 0.0 0.0
0.0 0.0 0.0 0.0 0.0 0.0 0.0 0.0
0.0 0.0 0.0 0.0 0.0 0.0 0.0 0.0
0.0 0.0 0.0 0.0 0.0 0.0 0.0 0.0
0.0 0.0 0.0 0.0 0.0 0.0 0.0 0.0
0.0 0.0 0.0 0.0 0.0 0.0 0.0 0.0
0.0 0.0 0.0 0.0 0.0 0.0 0.0 0.0
0.0 0.0 0.0 0.0
00000000: 0000 0000 0000 0000 0000 0000 0000 0000
00000010: 0000 0000 0000 0000 0000 0000 0000 0000
00000020: 0000 0000 0000 0000 0000 0000 0000 0000
00000030: 0000 0000 0000 0000 0000 0000 0000 0000
00000040: 0000 0000 0000 0000 0000 0000 0000 0000
00000050: 0000 0000 0000 0000 0000 0000 0000 0000
00000060: 0000 0000 0000 0000 0000 0000 0000 0000
00000070: 0000 0000 0000 0000 0000 0000 0000 0000
00000080: 0000 0000 0000 0000 0000 0000 0000 0000
00000090: 0000 0000 0000 0000 0000 0000 0000 0000
000000a0: 0000 0000 0000 0000 0000 0000 0000 0000
000000b0: 0000 0000 0000 0000 0000 0000 0000 0000
000000c0: 0000 0000 0000 0000 0000 0000 0000 0000
000000d0: 0000 0000 0000 0000 0000 0000 0000 0000
000000e0: 0000 0000 0000 0000 0000 0000 0000 0000
000000f0: 0000 0000 0000 0000 0000 0000 0000 0000
00000100: 0000 0000 0000 0000 0000 0000 0000 0000
00000110: 0000 0000 0000 0000 0000 0000 0000 0000
00000120: 0000 0000 0000 0000 0000 0000 0000 0000
00000130: 0000 0000 0000 0000 0000 0000 0000 0000
00000140: 0000 0000 0000 0000 0000 0000 0000 0000
00000150: 0000 0000 0000 0000 0000 0000 0000 0000
00000160: 0000 0000 0000 0000 0000 0000 0000 0000
00000170: 0000 0000 0000 0000 0000 0000 0000 0000
00000180: 0000 0000 0000 0000 0000 0000 0000 0000

encoder.encoder.0.W_i.weight f4 [100, 147]
-0.15533797 0.12227818 0.018307114 -0.19367556 0.11911915 -0.05870136 -0.087034784 0.15117905
-0.10877469 -0.07399707 0.10839706 0.10427048 -0.09906122 -0.13581161 -0.28047886 -0.059719883
-0.14641234 0.051087968 0.16199972 0.051672388 -0.048130386 0.06537149 0.102094725 0.026858304
-0.015630677 -0.11471498 -0.078924514 -0.019081818 -0.06352548 -0.16254868 -0.14357497 0.11724198
-0.01346975 0.28937945 0.12843597 -0.059460253 -0.025680369 -0.0039503295 -0.06507841 -0.023404742
-0.006279918 0.017055482 0.042727657 0.020913433 -0.046514448 0.03354424 0.09979814 -0.054725666
0.021252349 -0.12572077 -0.06599373 0.02283377 -0.12157834 0.027895886 0.042254098 -0.11922018
-0.06503466 0.2368167 -0.03584554 -0.002201054 0.12251951 0.18124458 0.015032133 0.15505594
-0.033765182 -0.05606039 -0.21485251 0.10729648 0.0041769664 0.10413375 -0.11190944 -0.021174295
0.031815864 -0.035898335 0.011076905 0.19059868 0.081615366 0.11183537 0.038210277 -0.04406853
-0.017549135 -0.05341633 -0.0750716 -0.17526767 -0.0042465287 0.075075164 0.035000376 -0.12083391
-0.10577058 0.12337496 0.013383997 -0.06996609 -0.15784898 0.1271485 0.03275441 0.013241543
-0.02441977 0.010609247 0.14249668 -0.03900353 0.10105847 -0.11630226 -0.058681294 0.19091104
-0.05323527 -0.13724469 -0.2231092 -0.059065487 0.07507532 -0.03329854 0.22971326 0.026944246
-0.01892162 -0.16646677 -0.10922725 -0.09167599 -0.009559244 -0.0722382 0.1515427 0.18837619
-0.21004221 -0.027729794 -0.14977211 0.1466351 0.0057976646 -0.006832006 -0.20523958 -0.1322912
-0.12693892 0.032189045 0.00968407 -0.057568766 0.03307243 -0.06697195 0.22038372 0.04303747
0.0806117 0.015611909 0.010121854 0.29087684 -0.12728857 -0.02031929 0.18743186 -0.25617835
0.08453536 -0.0069648745 0.025824962 -0.00419287 0.108549014 0.06517443 0.07884888 -0.1294843
0.089041576 0.062448367 -0.039858263 0.2714178 -0.103298135 -0.03781419 -0.06807526 0.09363259
0.11491049 -0.02198721 -0.15599732 0.022507207 -0.06090721 0.05693908 0.08475108 -0.031083696
0.095003106 -0.09349672 -0.0026398879 0.15761827 -0.0786627 0.055359498 0.10714569 0.03250766
0.06737937 -0.0016410467 -0.05550387 0.14899914 -0.07415789 -0.06678646 0.034202367 0.058290854
-0.046492215 -0.058992825 -0.025193784 0.025297444 -0.057752687 0.006644891 -0.13388899 0.048163883
0.04747089 -0.08288348 -0.08105929 -0.0469476 0.14184302 -0.04033308 -0.033193707 -0.003093276
-0.019360276 -0.13422212 -0.2210989 -0.060146492 0.051300485 -0.0072433716 -0.084676854 -0.028210111
0.108314514 0.098937266 0.1373075 0.0005122999 0.06695719 -0.17638059 0.08467767 0.05440638
-0.04788004 -0.0041769627 -0.0017867781 0.071965784 0.042243727 -0.054325048 -0.028146092 0.008346671
-0.21478006 -0.052539136 0.024626702 0.05889191 0.12497306 0.10356056 -0.0004712543 0.12042239
-0.12113075 -0.0729709 0.10123787 -0.026195964 -0.0076411027 -0.014472363 0.09104956 -0.02031503
-0.08145299 0.060399216 0.1645816 -0.14567147 0.009283302 0.07780403 -0.12461118 0.02804734
0.05038075 -0.12944615 0.059963178 -0.06772635 -0.011340936 0.1659908 0.025775775 0.09373643
00000000: eb10 1fbe fc6c fa3d cdf8 953c e352 46be
00000010: bef4 f33d d670 70bd 4b3f b2bd aece 1a3e
00000020: 44c5 debd c78b 97bd 47ff dd3d c38b d53d
00000030: 9ce0 cabd 3312 0bbe ed9a 8fbe d69c 74bd
00000040: 1eed 15be 9e41 513d 41e3 253e 6da6 533d
00000050: 5e24 45bd 7de1 853d 0a17 d13d f205 dc3c
00000060: e80b 80bc b0ef eabd 2da3 a1bd 7951 9cbc
00000070: a619 82bd 2973 26be 5105 13be 901c f03d
00000080: 3ab0 5cbc 8b29 943e b884 033e 988c 73bd
00000090: a35f d2bc c471 81bb d447 85bd 4dbb bfbc
000000a0: c5c7 cdbb f0b7 8b3c 3203 2f3d a652 ab3c
000000b0: ef85 3ebd af65 093d f862 cc3d 0528 60bd
000000c0: 6819 ae3c f2bc 00be b927 87bd e30d bb3c
000000d0: 11fe f8bd ea85 e43c a212 2d3d b629 f4bd
000000e0: e430 85bd 1480 723e c6d2 12bd 8f3f 10bb
000000f0: 82eb fa3d 2e98 393e 5649 763c fcc6 1e3e
00000100: 5c4d 0abd 949f 65bd 4c02 5cbe 42be db3d
00000110: efde 883b 1344 d53d c730 e5bd b775 adbc
00000120: 5a51 023d 220a 13bd e87b 353c 4d2c 433e
00000130: f525 a73d f109 e53d 6182 1c3d 3481 34bd
00000140: 34c3 8fbc 15cb 5abd 24bf 99bd 5e79 33be
00000150: 7726 8bbb 02c1 993d 8e5c 0f3d c577 f7bd
00000160: 3f9e d8bd 03ac fc3d 8d48 5b3c 624a 8fbd
00000170: 2aa3 21be 3733 023e 7d29 063d 0ff3 583c
00000180: f80b c8bc 68d2 2d3c a6ea 113e 2ac2 1fbd
00000190: bef7 ce3d e12f eebd cc5b 70bd 2f7e 433e
000001a0: 3a0d 5abd df89 0cbe bd76 64be a7ee 71bd
000001b0: 17c1 993d 0d64 08bd f439 6b3e 2eba dc3c
000001c0: 8301 9bbc 4476 2abe 89b2 dfbd 9fc0 bbbd
000001d0: 609e 1cbc 9ff1 93bd 022e 1b3e b0e5 403e
000001e0: 4e15 57be 9829 e3bc dc5d 19be 8327 163e
000001f0: 56fa bd3b 05df dfbb 532a 52be 5877 07be
00000200: 47fc 01be a9d8 033d efa9 1e3c 3acd 6bbd
00000210: f576 073d 9728 89bd 45ac 613e 0f48 303d
00000220: bf17 a53d 18c9 7f3c 22d6 253c cfed 943e
00000230: ef57 02be a474 a6bc 23ee 3f3e cf29 83be
00000240: e020 ad3d 9a39 e4bb df8e d33c 5864 89bb
00000250: f24e de3d 2c7a 853d 867b a13d 8897 04be
00000260: 6e5b b63d dcc9 7f3d 6b42 23bd 46f7 8a3e
00000270: f98d d3bd 0de3 1abd 0b6b 8bbd 71c2 bf3d
00000280: 3156 eb3d 851e b4bc c3bd 1fbe 0961 b83c
00000290: d779 79bd f438 693d f991 ad3d 3ca3 febc
000002a0: fd90 c23d 357b bfbd f801 2dbb af66 213e
000002b0: e919 a1bd a4c0 623d 336f db3d c126 053d
000002c0: 32fe 893d 6418 d7ba 0758 63bd 3b93 183e
000002d0: 18e0 97bd 57c7 88bd c817 0c3d 64c2 6e3d
000002e0: 9f6e 3ebd 76a2 71bd 3263 cebc 963c cf3c
000002f0: 158e 6cbd 63bd d93b 321a 09be 7e47 453d
00000300: d670 423d d0be a9bd 6a02 a6bd 204c 40bd
00000310: 4c3f 113e 4d34 25bd 20f6 07bd 8fb8 4abb
00000320: 7199 9ebc 8671 09be c067 62be 2b5c 76bd
00000330: 7520 523d ce59 edbb 0f6b adbd e418 e7bc
00000340: 00d4 dd3d 9f9f ca3d 569a 0c3e dd4b 063a
00000350: da20 893d 1d9d 34be 7c6b ad3d 39d9 5e3d
00000360: dc1d 44bd e7de 88bb 5332 eaba cc62 933d
00000370: c207 2d3d f183 5ebd a292 e6bc 7ac0 083c
00000380: 4eef 5bbe 4733 57bd f0bd c93c a538 713d
00000390: e0f1 ff3d 8f17 d43d ae12 f7b9 04a0 f63d
000003a0: 6613 f8bd c471 95bd cd55 cf3d eb98 d6bc
000003b0: 3762 fabb 7d1d 6dbc 3178 ba3d b56b a6bc
000003c0: d3d0 a6bd 2b65 773d 1488 283e e72a 15be
000003d0: fe18 183c b857 9f3d 2534 ffbd 89c3 e53c
000003e0: 0c5c 4e3d 888d 04be f39b 753d 1db4 8abd
000003f0: 55cf 39bc 7ef9 293e b827 d33c e3f8 bf3d

encoder.encoder.0.W_h.weight f4 [100, 100]
-0.016917832 -0.008183761 0.13588117 -0.14366268 0.035821836 -0.06945724 -0.21939881 0.053432565
0.17402388 0.14568521 -0.009027634 -0.1135859 0.026603982 -0.32742137 -0.14510234 0.10337633
0.06593617 0.16488051 0.030273097 -0.02383484 0.07112145 0.18283 -0.056525297 0.054788377
-0.0447584 0.08437533 0.03684565 0.09071812 0.037881058 0.08091423 0.13249095 0.031535085
-0.1062827 -0.12923583 0.20165157 -0.14797735 -0.11375731 -0.0010099335 -0.010028876 0.13387734
-0.12947567 0.058531556 0.06921679 -0.18778564 0.25266847 -0.15002337 -0.22218184 -0.02316341
-0.047206506 -0.1116158 -0.10918278 0.4055438 -0.02547064 -0.14834087 -0.22908984 0.04410386
-0.09384471 0.06487706 -0.030901669 0.005056242 0.19983931 -0.023903526 0.09610694 -0.018055266
-0.04876821 0.11482502 0.07658126 0.02047526 0.22587164 0.019030415 -6.21081e-05 0.05515858
-0.060098384 -0.11213539 -0.06556181 -0.035113275 0.013481176 0.2065971 -0.17020762 -0.15533331
-0.007836777 -0.2220558 0.3178537 -0.10996016 -0.089500055 0.21423618 -0.12602471 0.018869085
0.14040135 -0.030134343 0.061857507 0.096392184 -0.2132357 -0.03191702 -0.070143916 -0.013992098
0.03214713 -0.0101333205 -0.05215394 -0.05937171 -0.2535856 0.0405839 0.0933781 0.051077336
0.11040758 -0.09509749 -0.07030385 -0.07093806 -0.06047446 -0.06793285 0.030384256 0.031202633
0.009120734 -0.081151634 -0.08584691 -0.041371323 -0.10708949 -0.02888965 -0.09747371 0.07801337
0.032775637 -0.07646333 0.25422543 -0.0031760787 0.12001276 0.08376693 -0.05407675 0.0076414426
-0.044328503 0.057037424 -0.079373166 0.06734419 -0.064870596 -0.20758794 0.0072223092 0.09728022
-0.0914659 -0.011334656 -0.07673422 -0.013301316 -0.023195617 -0.018129757 -0.0012673879 -0.10571014
0.0954675 -0.055067323 -0.04496245 -0.11316257 -0.05422646 0.039127726 -0.013540156 -0.2183549
0.12779073 -0.016586952 -0.11385063 0.044952363 0.03506785 -0.17936276 -0.013745102 0.16894962
0.016194953 0.060176786 0.024172757 0.12576061 0.14063433 -0.30204746 0.06369917 -0.088107474
-0.16641426 -0.07368113 0.12458328 -0.15357436 -0.093886316 -0.11547711 0.1731203 -0.07289204
-0.08335691 -0.04819917 -0.15007463 0.066418424 -0.16571786 -0.0110656405 -0.03897275 0.030367961
0.027372342 -0.29347846 -0.15957156 0.16974267 -0.051240075 -0.0055061406 0.028476238 0.09426872
0.11211945 0.0757089 -0.08233383 -0.10987084 -0.019181063 -0.026767725 0.021879114 0.042866003
0.019231612 -0.0012448591 0.054613687 0.035846207 0.10462026 -0.16688368 3.512214e-05 0.1346284
-0.13820061 -0.06454335 -0.22936346 0.0043901796 -0.063044906 -0.19882436 -0.072741374 -0.09035
-0.062319282 0.067579396 -0.009790677 -0.20382191 -0.0111228125 0.028205039 -0.13888568 -0.12683547
0.028027374 0.17643087 -0.019858368 0.09329731 -0.060270283 -0.036596116 -0.02062012 0.122121096
0.10163552 -0.18831447 0.006254344 -0.17418194 -0.08842645 -0.095221534 0.018504802 -0.10636248
0.050156303 -0.1926031 -0.11544218 0.08222862 -0.21132426 0.043258354 0.09945389 0.105511345
-0.013284529 -0.20518601 0.075317234 -0.23152865 -0.20420079 -0.031157598 -0.17357656 0.031708334
00000000: 4497 8abc 2e15 06bc 6f24 0b3e 4f1c 13be
00000010: ebb9 123d 993f 8ebd 15aa 60be 1bdc 5a3d
00000020: 5133 323e 812e 153e a4e8 13bc b99f e8bd
00000030: 98f0 d93c c6a3 a7be b595 14be f8b6 d33d
00000040: 8b09 873d 70d6 283e 49ff f73c 4841 c3bc
00000050: 1fa8 913d ca37 3b3e 1287 67bd c769 603d
00000060: 9654 37bd f9cc ac3d 77eb 163d 6cca b93d
00000070: 2b29 1b3d 5cb6 a53d b5ab 073e ef2a 013d
00000080: bfaa d9bd 6656 04be c07d 4e3e 6087 17be
00000090: 98f9 e8bd bf5f 84ba 2850 24bc 2417 093e
000000a0: 4595 04be c9be 6f3d 88c1 8d3d e14a 40be
000000b0: c35d 813e ba9f 19be a383 63be 31c1 bdbc
000000c0: 9c5b 41bd d396 e4bd 399b dfbd 70a3 cf3e
000000d0: cea7 d0bc abe6 17be 8796 6abe 40a6 343d
000000e0: a831 c0bd 44de 843d 7f25 fdbc d5ae a53b
000000f0: ada2 4c3e 54d1 c3bc b7d3 c43d a3e8 93bc
00000100: 2dc1 47bd 6129 eb3d a3d6 9c3d bcbb a73c
00000110: e54a 673e ace5 9b3c 0840 82b8 f7ed 613d
00000120: b929 76bd 3da7 e5bd 4545 86bd f0d2 0fbd
00000130: 27e0 5c3c 318e 533e e84a 2ebe b20f 1fbe
00000140: d365 00bc 9862 63be b8bd a23e cb32 e1bd
00000150: ce4b b7bd bb60 5b3e 9f0c 01be 5793 9a3c
00000160: 5fc5 0f3e 4cdc f6bc 4c5e 7d3d 4469 c53d
00000170: 765a 5abe 6cbb 02bd 9da7 8fbd 1d3f 65bc
00000180: b6ac 033d 3a06 26bc 5f9f 55bd c02f 73bd
00000190: f9d5 81be 4e3b 263d 043d bf3d 7836 513d
000001a0: 5f1d e23d 79c2 c2bd 77fb 8fbd f947 91bd
000001b0: 11b4 77bd 6120 8bbd 67e8 f83c aa9c ff3c
000001c0: 226f 153c d432 a6bd 81d0 afbd fa74 29bd
000001d0: bc51 dbbd fda9 ecbc 4ca0 c7bd 79c5 9f3d
000001e0: bf3f 063d ce98 9cbd d629 823e c225 50bb
000001f0: 40c9 f53d ff8d ab3d 957f 5dbd 1165 fa3b
00000200: ce91 35bd 13a0 693d 668e a2bd c0eb 893d
00000210: e0da 84bd ef91 54be 1fa9 ec3b da3a c73d
00000220: 7952 bbbd feb4 39bc d526 9dbd c3ed 59bc
00000230: bc04 bebc db84 94bc 7b1e a6ba 8f7e d8bd
00000240: 7784 c33d 468e 61bd 8c2a 38bd c7c1 e7bd
00000250: 911c 5ebd 6544 203d 88d7 5dbc 6d98 5fbe
00000260: 93db 023e 5ce1 87bc 852a e9bd f81f 383d
00000270: 4ea3 0f3d dfaa 37be 2333 61bc 2101 2d3e
00000280: 47ab 843c ef7b 763d f205 c63c 64c7 003e
00000290: 7202 103e f7a5 9abe b674 823d b171 b4bd
000002a0: 8068 2abe 22e6 96bd 8525 ff3d 9942 1dbe
000002b0: 7847 c0bd 437f ecbd 7346 313e 6c48 95bd
000002c0: 07b7 aabd 7e6c 45bd 2aad 19be 6206 883d
000002d0: f1b1 29be a94c 35bc e4a1 1fbd 3bc6 f83c
000002e0: f63b e03c cf42 96be ba66 23be 06d1 2d3e
000002f0: 1de1 51bd db6c b4bb 0047 e93c f50f c13d
00000300: e29e e53d 450d 9b3d a49e a8bd f703 e1bd
00000310: 9b21 9dbc fd47 dbbc d43b b33c 4394 2f3d
00000320: 9d8b 9d3c 8a2a a3ba 9ab2 5f3d 79d3 123d
00000330: 2643 d63d 8ee3 2abe 1c50 1338 07dc 093e
00000340: 7684 0dbe 4e2f 84bd 41de 6abe 7fdb 8f3b
00000350: b01d 81bd 9d98 4bbe 6ef9 94bd 6c09 b9bd
00000360: 8142 7fbd 1167 8a3d 1369 20bc b1b6 50be
00000370: 753c 36bc 410e e73c 0c38 0ebe 28e1 01be
00000380: aa99 e53c 4baa 343e 04ae a2bc a912 bf3d
00000390: f9dd 76bd cfe5 15bd 87eb a8bc a01a fa3d
000003a0: 4926 d03d 82d5 40be 3df1 cc3b c05c 32be
000003b0: ed18 b5bd 8203 c3bd 6297 973c 92d4 d9bd
000003c0: b270 4d3d bf39 45be f36c ecbd 7b67 a83d
000003d0: 6365 58be ac2f 313d 7bae cb3d 5516 d83d
000003e0: 5aa7 59bc 481c 52be ec3f 9a3d d915 6dbe
000003f0: 031a 51be 383e ffbc 0ebe 31be 99e0 013d

encoder.encoder.0.W_o.weight f4 [100, 233]
0.087374575 -0.122037545 -0.10622455 0.09255608 0.04690127 -0.10502234 0.020125644 0.03438162
-0.01594986 0.0797241 0.007218546 -0.12326964 -0.023526195 -0.007837273 0.049873874 -0.18946543
0.1080796 -0.06299601 -0.05554665 0.009897427 0.03989995 0.038632154 -0.013256048 0.05280485
0.06611111 0.035858545 0.026159434 -0.05390642 -0.011455278 -0.03364512 0.050858434 -0.18744254
-0.007536477 -0.1294602 0.069118604 0.00842883 -0.007609444 -0.010546323 -0.046287313 0.0073500103
-0.05108303 -0.01270904 -0.047216237 -0.20524904 0.031554624 0.021216057 -0.064638294 0.047022622
0.005515587 -0.023748167 0.015251436 0.012588397 0.12982176 -0.0420106 -0.041213464 -0.02183678
-0.0046865796 -0.044197 0.064498805 0.10505075 0.00041404998 0.090107836 0.1537694 0.028078726
-0.028076775 0.01878864 -0.019827422 -0.04828631 -0.009497438 -0.042372297 -0.036759686 -0.030058185
0.030068375 -0.02771247 -0.0088158185 0.004909421 -0.08275877 0.041251313 0.049555644 0.0063573923
-0.0052921353 -0.020255227 0.06250708 -0.24525075 -0.10148809 0.077580586 -0.010038439 0.00016279072
-0.16864178 -0.0018713492 -0.036580093 0.0955292 0.0430078 -0.0036128082 -0.024313226 0.05190232
0.07239176 -0.030395484 0.035375338 0.01731864 0.15920787 0.05821314 0.07246709 -0.114775814
-0.16964158 0.046103634 0.055864155 0.06983588 0.16539437 0.08096394 0.034707308 0.004211807
0.0012984027 0.008615938 -0.00816093 0.11705672 0.048134252 -0.09133874 -0.0009217568 -0.078903355
-0.008235818 -0.17327304 0.10439434 -0.042861026 -0.04749249 -0.11028615 -0.13516307 0.10453382
-0.03966885 -0.11023006 -0.075489245 -0.05665734 0.06410086 0.08234271 -0.1145732 -0.015761796
0.02979858 -0.025287991 0.031864557 -0.17278248 -0.19984135 -0.06296675 -0.109615415 0.025271052
0.05167204 -0.074079864 -0.021069374 0.06276788 0.050078895 -0.13531947 -0.040965743 0.05611536
-0.16425154 0.004863078 0.086773396 -0.23461318 -0.05613398 -0.13506411 -0.16414848 -0.051729616
0.017815353 -0.12867141 -0.04840496 0.022286223 0.2757535 -0.10343602 0.07958403 -0.13396198
-0.0011781818 0.07895311 0.009037164 0.048770327 -0.057039503 -0.16675502 -0.011968848 -0.03896634
0.009451039 0.116935834 0.14882997 -0.1342818 -0.11504374 0.03393518 -0.13667288 0.060260538
-0.025110336 0.018477002 0.09860709 0.0055363034 -0.014788444 0.014402673 -0.12735735 -0.12049565
0.0125699 -0.15346487 0.16687025 -0.05873943 0.0052151047 -0.02331163 0.09798842 0.07933115
0.0026284393 0.049499143 -0.21384671 0.049498904 0.013733282 0.00930568 0.111501515 0.06338645
0.04043731 -0.07626173 -0.016498026 -0.1430048 0.07081335 0.011660584 -0.11619666 0.111148275
-0.11689972 -0.06378219 -0.015539163 -0.03473675 -0.12050813 0.007440129 0.1752901 0.047372274
-0.04908859 -0.028996656 -0.09749613 0.08648822 -0.07707124 0.047238566 -0.050890036 0.035897035
0.06683235 -0.11674079 -0.07038805 0.11148732 0.008619545 -0.11500365 0.04068333 -0.004383632
0.0453398 0.08619582 -0.15195256 0.013220108 0.05845505 -0.021555059 -0.13187118 0.15351424
0.027843699 -0.13549666 0.11081695 -0.01754454 -0.01850306 -0.07942389 -0.052938137 -0.06350232
00000000: 71f1 b23d d2ee f9bd 428c d9bd 0b8e bd3d
00000010: 8c1b 403d f415 d7bd 89de a43c bed3 0c3d
00000020: 48a9 82bc 6446 a33d 8d89 ec3b cb74 fcbd
00000030: 02ba c0bc e867 00bc 8c48 4c3d 3a03 42be
00000040: d658 dd3d 0d04 81bd e284 63bd d128 223c
00000050: 216e 233d c03c 1e3d e52f 59bc e649 583d
00000060: 4365 873d 69e0 123d 4f4c d63c facc 5cbd
00000070: ebae 3bbc 77cf 09bd ef50 503d f0f0 3fbe
00000080: 8df4 f6bb 3791 04be 0e8e 8d3d 1319 0a3c
00000090: a558 f9bb 7cca 2cbc c497 3dbd 5bd8 f03b
000000a0: 703c 51bd 9439 50bc d065 41bd ce2c 52be
000000b0: 6c3f 013d 4ccd ad3c 1561 84bd cb9a 403d
000000c0: 19bc b43b 848b c2bc 29e1 793c 903f 4e3c
000000d0: ffef 043e 4f13 2cbd 73cf 28bd 0ce3 b2bc
000000e0: e191 99bb ea07 35bd f317 843d d924 d73d
000000f0: d914 d939 758a b83d ba75 1d3e 5b05 e63c
00000100: 4401 e6bc a2ea 993c 1e6d a2bc dec7 45bd
00000110: 249b 1bbc 938e 2dbd 5391 16bd 953c f6bc
00000120: f451 f63c 4305 e3bc 3970 10bc 35df a03b
00000130: 6e7d a9bd 23f7 283d dcfa 4a3d ac51 d03b
00000140: a669 adbb 4aee a5bc b603 803d 0323 7bbe
00000150: fdd8 cfbd 92e2 9e3d 4478 24bc cdb2 2a39
00000160: 6eb0 2cbe 0f48 f5ba 02d5 15bd d0a4 c33d
00000170: f228 303d ddc4 6cbb 882c c7bc 8797 543d
00000180: 2242 943d f3ff f8bc bbe5 103d d2df 8d3c
00000190: 6307 233e e770 6e3d a069 943d 950f ebbd
000001a0: 86b6 2dbe 2ad7 3c3d d0d1 643d 1d06 8f3d
000001b0: 245d 293e 6cd0 a53d 4029 0e3d 3303 8a3b
000001c0: 2a2f aa3a dd29 0d3c 6cb5 05bc 6fbb ef3d
000001d0: 6c28 453d ce0f bbbd 0da2 71ba 1598 a1bd
000001e0: 86ef 06bc 7d6e 31be b3cc d53d 0b8f 2fbd
000001f0: 7c87 42bd b4dd e1bd 3068 0abe d415 d63d
00000200: ce7b 22bd 4cc0 e1bd 1b9a 9abd 8711 68bd
00000210: 5047 833d 4ba3 a83d 5ba5 eabd e21e 81bc
00000220: 271c f43c c328 cfbc 6984 023d e4ed 30be
00000230: 36a3 4cbe b6f4 80bd 0c7e e0bd 3d05 cf3c
00000240: 10a6 533d 2fb7 97bd ae99 acbc 728c 803d
00000250: 871f 4d3d 3091 0abe b2cb 27bd 38d9 653d
00000260: 8e31 28be 745a 9f3b 40b6 b13d 703e 70be
00000270: bfec 65bd 3f4e 0abe 8a16 28be 6fe2 53bd
00000280: 81f1 913c 70c2 03be 4844 46bd 9991 b63c
00000290: 902f 8d3e 44d6 d3bd f4fc a23d 542d 09be
000002a0: 396d 9aba 2bb2 a13d 9d10 143c 65c3 473d
000002b0: 41a2 69bd d4c1 2abe fd18 44bc 2b9b 1fbd
000002c0: 88d8 1a3c 0e7c ef3d e266 183e 2b81 09be
000002d0: 0d9c ebbd 9eff 0a3d faf3 0bbe c1d3 763d
000002e0: 31b4 cdbc 155d 973c 84f2 c93d e169 b53b
000002f0: 3b4b 72bc 30f9 6b3c f769 02be 6cc6 f6bd
00000300: fbf1 4d3c e525 1dbe 09e0 2a3e c298 70bd
00000310: 78e3 aa3b 08f8 bebc 27ae c83d 5f78 a23d
00000320: e541 2c3b 9dbf 4a3d a2fa 5abe 5dbf 4a3d
00000330: 8f01 613c da76 183c e85a e43d c1d0 813d
00000340: 98a1 253d 1c2f 9cbd de26 87bc da6f 12be
00000350: 9706 913d 090c 3f3c 84f8 edbd b5a1 e33d
00000360: 1f69 efbd 3da0 82bd f997 7ebc 1f48 0ebd
00000370: f7cc f6bd 53cc f33b 3f7f 333e 6e09 423d
00000380: 1e11 49bd 658a edbc 0dac c7bd bc20 b13d
00000390: 87d7 9dbd 3a7d 413d 1272 50bd c508 133d
000003a0: 66df 883d cc15 efbd 9c27 90bd 7753 e43d
000003b0: fe38 0d3c 0987 ebbd 90a3 263d 92a4 8fbb
000003c0: 3ab6 393d 6f87 b03d 7499 1bbe 2799 583c
000003d0: 906e 6f3d 3c94 b0bc 3d09 07be d632 1d3e
000003e0: 7818 e43c a3bf 0abe fff3 e23d 91b9 8fbc
000003f0: bb93 97bc fea8 a2bd a9d5 58bd 810d 82bd

encoder.encoder.0.W_o.bias f4 [100]
-0.013889278 0.012449191 -0.01637063 -0.004761771 0.0016399783 -0.0018443093 -0.01066916 -0.0157344
0.03169324 -0.0038968984 -0.0055869683 0.008874648 -0.01267027 -0.012357125 0.0055847527 0.0018238988
0.012195271 -0.0018866447 0.012327905 0.0073169204 0.005622279 -0.010574221 0.020638647 -0.0032847053
0.012521417 -0.0037812334 -0.0004505289 -0.008293801 -0.028176658 -0.0029968605 -5.5852786e-05 0.0073865126
-0.015088139 0.0072083315 -0.0126883965 0.00094554166 -0.010188201 0.0131319845 -0.018250229 0.010416329
0.02028742 0.022799768 0.0049088337 -0.035402413 -0.013856539 0.008170183 0.008073643 -0.009065652
-0.024880402 0.0056150467 0.024093786 -0.015827017 0.027292758 -0.025418159 0.01763095 0.0055207564
-0.01390487 -0.015966607 -0.009372611 0.0073605445 0.009851708 0.002264861 0.00073245715 -0.024844492
-0.008167412 0.005754803 9.567767e-05 -0.032275114 0.018572388 0.014191309 0.0010033242 0.02421491
0.0046949247 -0.001971684 0.01664593 -0.021769688 -0.0044988915 -0.018923078 -0.010254447 -0.011567525
0.025894532 0.01861368 -0.02043241 0.0017047949 -0.008345373 -0.010907762 -0.025702963 0.0007096697
0.0038580426 0.00906798 0.023946514 -0.0021797093 -0.010153668 -0.023462681 -0.017214729 -0.002045069
-0.002259809 -0.0020394088 0.01747493 0.0049150637
00000000: db8f 63bc b1f7 4b3c b31b 86bc a108 9cbb
00000010: 8af4 d63a c0bc f1ba b3cd 2ebc 6ee5 80bc
00000020: c5d0 013d 1b63 7fbb e312 b7bb f966 113c
00000030: f796 4fbc 8a75 4abc 4d00 b73b e30f ef3a
00000040: adce 473c 4b49 f7ba fbfa 493c c7c2 ef3b
00000050: 183b b83b 7f3f 2dbc 6112 a93c 3644 57bb
00000060: a126 4d3c 92ce 77bb f734 ecb9 b9e2 07bc
00000070: bcd2 e6bc fa66 44bb 7943 6ab8 8f0a f23b
00000080: 3e34 77bc de33 ec3b fee2 4fbc 3ade 773a
00000090: 6aec 26bc 8927 573c 8181 95bc 40a9 2a3c
000000a0: ce31 a63c 94c6 ba3c 48da a03b 1f02 11bd
000000b0: 8906 63bc 3bdc 053c 5047 043c 1a88 14bc
000000c0: fcd1 cbbc 6dfe b73b 5560 c53c a9a7 81bc
000000d0: 1095 df3c be39 d0bc c86e 903c 76e7 b43b
000000e0: 40d1 63bc 67cc 82bc 948f 19bc b930 f13b
000000f0: 0f69 213c 106e 143b 5e02 403a ad86 cbbc
00000100: 9cd0 05bc c992 bc3b 8fa6 c838 e932 04bd
00000110: 1f25 983c aa82 683c f981 833a 595e c63c
00000120: e2d7 993b 5e37 01bb 0c5d 883c 5856 b2bc
00000130: 706b 93bb 9204 9bbc 4502 28bc b785 3dbc
00000140: c520 d43c b77b 983c df61 a7bc 6d73 df3a
00000150: 08bb 08bc 78b6 32bc 058f d2bc 2109 3a3a
00000160: 37d7 7c3b dd91 143c 7b2b c43c 74d9 0ebb
00000170: 925b 26bc cf34 c0bc e705 8dbc 9006 06bb
00000180: 4e19 14bb 9aa7 05bb 9627 8f3c 8b0e a13b

ffn.1.weight f4 [100, 100]
0.076346084 -0.08785616 -0.051399168 -0.17532791 -0.07446038 -0.042951778 -0.0038297742 -0.013321795
0.1012843 -0.01687528 -0.0008724048 0.2076668 -0.047469743 0.0021389904 -0.33165604 -0.042702463
-0.14717892 -0.06795617 -0.1125604 0.03143937 0.11488713 0.33020073 0.026858559 0.03924837
0.13286807 0.037176672 -0.14810275 -0.17799582 -0.17885846 -0.013685033 0.0280614 -0.0440437
0.025088817 -0.10930204 -0.09564781 0.04037222 -0.26044074 0.23279269 -0.1364399 -0.03550044
-0.07889995 0.11323291 -0.13747036 0.079160675 0.074049644 0.115400635 0.07311988 -0.00035080308
0.0575205 0.20146051 0.052755162 0.060379382 -0.092158616 0.00062157 0.06040738 0.03879094
-0.05039718 0.04568686 -0.011788193 0.08277727 -0.07583223 0.10465564 0.05018018 -0.0760534
-0.025627527 -0.0279596 -0.13758956 0.17025447 -0.1518071 -0.028205236 0.055337824 0.035094354
0.063203424 -0.067584276 0.002438128 -0.09756398 0.031476397 0.098882265 0.13311897 -0.16975158
0.05629901 0.018241026 -0.0062121246 -0.03271075 -0.106358856 -0.12866452 -0.029361676 -0.10636437
-0.10070138 0.123063594 0.054251578 -0.054812882 0.13096443 0.034868762 -0.043652065 -0.0043034763
-0.06351338 0.099644944 0.12780179 -0.09396801 0.03538563 -0.04671438 -0.07798208 0.11953832
-0.18502104 0.021684613 -0.01750257 -0.06445921 -0.09779881 0.0013573777 -0.037211496 -0.11693391
-0.028721768 0.17134239 0.002385366 0.005905647 -0.01486366 0.035477456 -0.06475611 0.008415324
-0.07860685 0.06711046 0.0284888 0.006910008 -0.06740224 0.2377879 -0.16793965 0.07556274
0.019198313 -0.08236584 0.006856673 0.12813863 -0.21625528 -0.025848966 0.10595 0.015884792
-0.06488327 0.06827545 -0.17344964 -0.2190915 -0.101321794 0.1206577 -0.035847425 0.02053943
0.13455266 0.0701739 -0.09589646 -0.22600818 -0.21150717 -0.026911335 0.0813919 -0.11178452
-0.039141953 -0.123346604 0.112516925 0.025104469 0.056162067 -0.117483936 0.08869922 -0.13813408
0.13056324 -0.03148946 -0.019744024 0.0071737543 0.17250103 -0.10207382 -0.14883918 -0.06937833
0.10472759 -0.04893186 0.07688823 -0.027213152 -0.054611124 0.054013375 -0.18819937 -0.123963445
-0.008953048 -0.014194948 0.06499919 -0.076228045 -0.19762605 -0.14096683 -0.14285976 0.08137612
-0.054224897 0.077628516 -0.047229588 -0.14049663 -0.1852993 -0.11444584 0.13891467 0.053854723
-0.014449778 -0.05350059 -0.06658518 -0.15161622 -0.067793086 0.14299317 -0.07447929 -0.040933095
0.1985424 0.2013685 0.079986565 -0.11566865 0.12228067 0.03194098 -0.16560166 -0.006169829
0.14596856 0.0022663022 -0.03098453 -0.10930697 0.09541153 -0.25793028 -0.19636492 -0.086400434
-0.16414504 0.09024902 -0.31791267 0.28904447 0.009125298 0.07333607 0.13203023 -0.0350049
0.049698137 0.069743365 -0.08921963 0.16659711 0.019858588 0.095458835 0.011877315 -0.10180696
-0.059397496 -0.09932411 0.07323066 -0.119596004 -0.18043461 -0.09461133 0.07399358 -0.06468464
0.008395961 0.003661578 0.16371019 0.09044584 -0.06898613 0.32748017 0.05919039 0.085187584
-0.02405754 0.08714934 0.06480145 -0.08578679 -0.0153524205 0.021202845 -0.01901198 0.0022663688
00000000: 565b 9c3d eeed b3bd ef87 52bd 2989 33be
00000010: af7e 98bd 34ee 2fbd f3fc 7abb a843 5abc
00000020: 256e cf3d 073e 8abc 18b2 64ba 9ba6 543e
00000030: a26f 42bd 4e2e 0c3b d2ce a9be c7e8 2ebd
00000040: 12b6 16be 9b2c 8bbd 1186 e6bd 92c6 003d
00000050: f249 eb3d 1210 a93e 7b06 dc3c e6c2 203d
00000060: 910e 083e 9146 183d 3fa8 17be 8944 36be
00000070: ac26 37be 3037 60bc 05e1 e53c 2b67 34bd
00000080: 1087 cd3c bfd9 dfbd 00e3 c3bd 575d 253d
00000090: 7d58 85be 3561 6e3e e7b6 0bbe e968 11bd
000000a0: 4c96 a1bd a8e6 e73d 08c5 0cbe fe1e a23d
000000b0: 57a7 973d 2b57 ec3d e0bf 953d feeb b7b9
000000c0: 9e9a 6b3d aa4b 4e3e cc15 583d 5f50 773d
000000d0: a8bd bcbd dbf0 223a bb6d 773d 40e3 1e3d
000000e0: 466d 4ebd 2522 3b3d 4423 41bc 2187 a93d
000000f0: ee4d 9bbd b255 d63d bc89 4d3d e3c1 9bbd
00000100: d2f0 d1bc 880b e5bc 47e4 0cbe 3057 2e3e
00000110: 5273 1bbe ab0e e7bc eaa9 623d 19bf 0f3d
00000120: cc70 813d a069 8abd 00c9 1f3b a0cf c7bd
00000130: 65ed 003d c982 ca3d 5750 083e 5cd3 2dbe
00000140: ca99 663d 346e 953c 148f cbbb b5fb 05bd
00000150: acd2 d9bd a2c0 03be e687 f0bc 90d5 d9bd
00000160: 863c cebd c408 fc3d e736 5e3d 7983 60bd
00000170: 8a1b 063e 8cd2 0e3d 82cc 32bd 2d04 8dbb
00000180: 4e13 82bd a612 cc3d 79de 023e 4d72 c0bd
00000190: 86f0 103d 9457 3fbd 12b5 9fbd 82d0 f43d
000001a0: 2876 3dbe eea3 b13c 8d61 8fbc 3103 84bd
000001b0: be4a c8bd 0aea b13a 156b 18bd 0c7b efbd
000001c0: ea49 ebbc 6174 2f3e cd53 1c3b 2884 c13b
000001d0: b586 73bc cf50 113d da9e 84bd 6de0 093c
000001e0: a1fc a0bd 3571 893d 5861 e93c 596d e23b
000001f0: 300a 8abd ac7e 733e 5ff8 2bbe a3c0 9a3d
00000200: c845 9d3c 6caf a8bd f1ad e03b c636 033e
00000210: 0672 5dbe 36c1 d3bc 50fc d83d d320 823c
00000220: 85e1 84bd 00d4 8b3d c89c 31be 8659 60be
00000230: cd81 cfbd 621b f73d c0d4 12bd 4f42 a83c
00000240: 2cc8 093e 55b7 8f3d 5d65 c4bd b06e 67be
00000250: 5695 58be 2975 dcbc ccb0 a63d 48ef e4bd
00000260: 5053 20bd 259d fcbd 466f e63d e3a7 cd3c
00000270: 320a 663d 6b9b f0bd f0a7 b53d 0573 0dbe
00000280: 5fb2 053e 18fb 00bd 38be a1bc d011 eb3b
00000290: 1ca4 303e 140c d1bd 4c69 18be 3a16 8ebd
000002a0: 6b7b d63d c66c 48bd 9477 9d3d 1eee debc
000002b0: eaaf 5fbd 213d 5d3d 56b7 40be 8ce0 fdbd
000002c0: ceaf 12bc ed91 68bc 4c1e 853d 731d 9cbd
000002d0: 7c5e 4abe 9c59 10be d449 12be 86a8 a63d
000002e0: ed1a 5ebd b3fb 9e3d d073 41bd 59de 0fbe
000002f0: 1abf 3dbe 9562 eabd a63f 0e3e c596 5c3d
00000300: c3be 6cbc 6f23 5bbd d05d 88bd 4841 1bbe
00000310: 1ad7 8abd cd6c 123e 9988 98bd 76a9 27bd
00000320: b34e 4b3e 8b33 4e3e ffcf a33d afe3 ecbd
00000330: 4a6e fa3d 8cd4 023d 7b93 29be 472c cabb
00000340: c878 153e 3e86 143b 45d3 fdbc 55dc dfbd
00000350: 1f67 c33d 700f 84be e313 49be b6f2 b0bd
00000360: a315 28be 7ad4 b83d 73c5 a2be a3fd 933e
00000370: 4682 153c 3931 963d ef32 073e 4c61 0fbd
00000380: 4690 4b3d 9cd5 8e3d c8b8 b6bd 6f98 2a3e
00000390: 7aae a23c ec7f c33d 1299 423c 2b80 d0bd
000003a0: ca4a 73bd 706a cbbd f5f9 953d c0ee f4bd
000003b0: dac3 38be 96c3 c1bd f289 973d 6179 84bd
000003c0: 368f 093c 16f7 6f3b a5a3 273e ab3b b93d
000003d0: 9a48 8dbd 7bab a73e 9f71 723d d476 ae3d
000003e0: 5114 c5bc 5a7b b23d 9fb6 843d fcb0 afbd
000003f0: b888 7bbc 97b1 ad3c 03bf 9bbc 5c87 143b

ffn.1.bias f4 [100]
0.0349959 -0.034997586 0.028967896 -0.027464358 0.015731571 0.017190613 0.02327968 -0.02568947
0.024915595 0.00809433 0.0427776 0.022055041 0.028097888 0.047056198 0.030552965 0.0413003
0.01443266 0.046990056 0.05343955 0.005918498 -0.027934564 0.012939157 0.0697158 0.032179587
0.048915405 0.019494407 0.06954199 0.028987031 0.03890409 0.014918122 0.005798495 0.021378538
0.01399171 -0.03141496 0.039959397 -0.0023604734 0.036780693 0.006890233 0.016159823 0.048145246
0.029901095 0.015722688 0.0150805935 0.027499571 0.028131334 0.022398513 0.05154246 0.026412204
0.043537844 0.0142669305 0.021497898 0.01485272 0.04200795 -0.039374318 0.02017095 0.037383366
0.043364484 0.02632728 0.020013414 0.041829973 0.027814033 0.03325343 -0.015838644 0.046582427
0.00820414 0.015876958 0.020835383 0.04251836 0.0034681982 -0.029509353 0.01327747 0.06502308
0.03883946 0.014080804 -0.023337925 0.031270515 0.03782337 0.022434844 0.0049153413 0.013750148
0.023819186 0.012684805 0.003979967 -0.028826704 0.036554735 0.03918095 0.006111275 0.028519845
0.026725963 0.013035198 0.033634603 0.013704656 0.015288739 0.061378364 0.029849177 0.03082152
0.03354875 0.01021648 0.018368239 0.026135536
00000000: dc57 0f3d a159 0fbd 154e ed3c effc e0bc
00000010: 7fdf 803c 54d3 8c3c 07b5 be3c b972 d2bc
00000020: ca1b cc3c 159e 043c 9137 2f3d c6ac b43c
00000030: 8b2d e63c 00be 403d 364a fa3c 812a 293d
00000040: f776 6c3c a578 403d 6ee3 5a3d f6ef c13b
00000050: 07d7 e4bc c2fe 533c 28c7 8e3d bece 033d
00000060: 855b 483d bcb2 9f3c 086c 8e3d 3676 ed3c
00000070: e559 1f3d 246b 743c 4d01 be3b 0b22 af3c
00000080: 7c3d 653c f9ac 00bd 77ac 233d 2cb2 1abb
00000090: 5aa7 163d 77c7 e13b 9b61 843c f333 453d
000000a0: 24f3 f43c decc 803c 9814 773c c846 e13c
000000b0: af73 e63c 167d b73c 301e 533d 685e d83c
000000c0: bd54 323d d8bf 693c 5c1c b03c d358 733c
000000d0: 8710 2c3d f746 21bd 8c3d a53c 4d1f 193d
000000e0: f59e 313d 4fac d73c 2cf3 a33c e855 2b3d
000000f0: 41da e33c c034 083d 0bc0 81bc 37cd 3e3d
00000100: a86a 063c 6510 823c f7ae aa3c bb27 2e3d
00000110: b64a 633b 99bd f1bc bf89 593c d22a 853d
00000120: 2016 1f3d 2cb3 663c 2d2f bfbc 8315 003d
00000130: aeec 1a3d 47c9 b73c df10 a13b 4d48 613c
00000140: 7420 c33c eed3 4f3c 626a 823b fb25 ecbc
00000150: 6bba 153d 347c 203d 1741 c83b 73a2 e93c
00000160: 68f0 da3c 9591 553c 70c4 093d 7e89 603c
00000170: 9f7d 7a3c e167 7b3d 4386 f43c 6a7d fc3c
00000180: 6a6a 093d 0663 273c fd78 963c 311a d63c

ffn.4.weight f4 [1, 100]
-0.38281333 0.12811118 -0.13622202 -0.042963203 0.1986169 0.29026017 0.08632417 -0.23409788
-0.25464988 0.2309653 0.09227992 -0.18520257 -0.057031833 0.09455345 0.11956642 0.33137462
-0.23760703 -0.20883249 -0.124526374 -0.21133077 -0.18532056 -0.15784612 -0.18184067 -0.08521412
0.3122932 -0.1968833 -0.14768589 -0.09649294 -0.17766847 0.2921758 0.19974248 0.04031085
-0.08624257 0.005180612 -0.11142819 0.13880341 -0.19465539 0.07587257 -0.3107158 0.09136474
-0.27341825 0.14662299 -0.29563943 0.2922025 0.23799302 0.09930364 0.08219353 0.22626503
0.22123617 -0.18924473 0.057279266 0.020635895 0.10991646 0.009773744 0.22509581 0.06123902
-0.26002872 0.20041034 0.18603198 0.08519475 0.13359244 -0.18625502 -0.00640942 -0.11526271
-0.18963507 -0.21675563 0.045011777 0.23742153 0.011414055 0.08763014 -0.271524 0.11437832
-0.19021043 -0.017729733 0.07378001 0.060772788 0.13114884 -0.2660422 -0.16217622 -0.2701318
0.11592775 -0.13441384 0.09158178 0.006641616 0.11873238 0.11530112 -0.09719748 0.21427919
0.13456084 -0.069506384 0.13156359 -0.40722066 -0.13411103 0.0746968 -0.26227307 -0.06079873
-0.182878 0.17519648 -0.16931647 0.16917628
00000000: 1c00 c4be 942f 033e c97d 0bbe 2ffa 2fbd
00000010: 3b62 4b3e fb9c 943e baca b03d 5bb7 6fbe
00000020: 7861 82be 2b82 6c3e 41fd bc3d bea5 3dbe
00000030: 369a 69bd 3da5 c13d 3ddf f43d efa9 a93e
00000040: 424f 73be 2fd8 55be af07 ffbd 1867 58be
00000050: acc4 3dbe 6aa2 21be 7134 3abe be84 aebd
00000060: e5e4 9f3e c79b 49be f83a 17be 179e c5bd
00000070: b9ee 35be 1198 953e 4b89 4c3e fd1c 253d
00000080: f29f b0bd 20c2 a93b 7634 e4bd 7b22 0e3e
00000090: be53 47be 1463 9b3d 2416 9fbe 701d bb3d
000000a0: 7afd 8bbe 5624 163e 0d5e 97be 919b 953e
000000b0: 71b4 733e b55f cb3d 1555 a83d 05b2 673e
000000c0: bc8b 623e 5fc9 41be aa9d 6a3d 9c0c a93c
000000d0: e21b e13d 0e22 203c 847f 663e c4d5 7a3d
000000e0: 7c22 85be 5e38 4d3e 2b7f 3e3e 967a ae3d
000000f0: 75cc 083e a3b9 3ebe 1d06 d2bb db0e ecbd
00000100: b22f 42be 30f5 5dbe 455e 383d a11e 733e
00000110: 0402 3b3c 6e77 b33d 3205 8bbe 2e3f ea3d
00000120: 86c6 42be f23d 91bc f919 973d e3ec 783d
00000130: e24b 063e af36 88be 8611 26be b74e 8abe
00000140: 876b ed3d c8a3 09be 3a8f bb3d eaa1 d93b
00000150: f629 f33d fe22 ec3d 790f c7bd 016c 5b3e
00000160: 51ca 093e 5d59 8ebd 9bb8 063e 3a7f d0be
00000170: 6754 09be a3fa 983d a848 86be 1708 79bd
00000180: 5f44 3bbe b566 333e 4c61 2dbe 8c3c 2d3e
