githubproject/lbdd/amse_build/mmodel14/checkpoints3/fold_3/model_0/model.pt (torch, 179147 bytes, 8 tensors)

encoder.encoder.0.cached_zero_vector f4 [64]
0.0 0.0 0.0 0.0 0.0 0.0 0.0 0.0
0.0 0.0 0.0 0.0 0.0 0.0 0.0 0.0
0.0 0.0 0.0 0.0 0.0 0.0 0.0 0.0
0.0 0.0 0.0 0.0 0.0 0.0 0.0 0.0
0.0 0.0 0.0 0.0 0.0 0.0 0.0 0.0
0.0 0.0 0.0 0.0 0.0 0.0 0.0 0.0
0.0 0.0 0.0 0.0 0.0 0.0 0.0 0.0
0.0 0.0 0.0 0.0 0.0 0.0 0.0 0.0
00000000: 0000 0000 0000 0000 0000 0000 0000 0000
00000010: 0000 0000 0000 0000 0000 0000 0000 0000
00000020: 0000 0000 0000 0000 0000 0000 0000 0000
00000030: 0000 0000 0000 0000 0000 0000 0000 0000
00000040: 0000 0000 0000 0000 0000 0000 0000 0000
00000050: 0000 0000 0000 0000 0000 0000 0000 0000
00000060: 0000 0000 0000 0000 0000 0000 0000 0000
00000070: 0000 0000 0000 0000 0000 0000 0000 0000
00000080: 0000 0000 0000 0000 0000 0000 0000 0000
00000090: 0000 0000 0000 0000 0000 0000 0000 0000
000000a0: 0000 0000 0000 0000 0000 0000 0000 0000
000000b0: 0000 0000 0000 0000 0000 0000 0000 0000
000000c0: 0000 0000 0000 0000 0000 0000 0000 0000
000000d0: 0000 0000 0000 0000 0000 0000 0000 0000
000000e0: 0000 0000 0000 0000 0000 0000 0000 0000
000000f0: 0000 0000 0000 0000 0000 0000 0000 0000

encoder.encoder.0.W_i.weight f4 [64, 147]
-0.0032482082 -0.16513033 -0.09155581 0.060902543 -0.011851637 0.030088736 0.05130238 0.05123472
0.03942837 -0.24358796 -0.058268763 0.023919338 -0.182892 -0.20996518 -0.23820983 0.08744985
0.0021951231 -0.008003211 0.07560323 0.0025420533 -0.035476483 0.0069344356 -0.023284016 0.0049733324
-0.14827238 -0.08591286 -0.09129376 0.105694756 -0.0716885 -0.07795921 0.16449189 0.09800417
-0.04797849 0.078655586 0.18698782 0.14571716 -0.019447697 -0.052923445 0.051698927 -0.10698834
-0.15892039 0.097429425 -0.013250045 -0.100725204 -0.109235264 -0.17203553 -0.094722144 0.12655433
0.18051115 -0.016547553 0.024239711 -0.004856583 0.14035693 -0.018172814 0.009245607 -0.045673072
-0.11428885 0.036400408 -0.0027162218 -0.10140005 0.032793257 0.14486304 0.12103013 -0.13539012
-0.040812396 0.005543873 -0.074636646 0.010134849 0.019721339 -0.08399467 -0.12031201 -0.029431805
-0.1722334 -0.06116165 -0.0043363706 -0.001244453 -0.02055411 -0.019144919 -0.02034651 0.00024310299
-0.003974191 -0.06516725 0.040120017 0.021352297 0.06724907 -0.107791774 -0.056213807 0.111715265
-0.01864217 0.019844359 0.014631297 0.010693566 0.07047963 0.050977025 -0.068002656 -0.14521328
-0.13566746 -0.027326485 -0.13876083 -0.016357737 0.07338687 0.060225934 0.108080775 0.09223275
-0.14680874 0.2459362 0.1113298 0.028923389 0.14233501 0.072111025 0.039206624 -0.105695955
-0.09272323 0.13997135 -0.06703177 0.109482065 -0.0010102714 0.10073535 -0.060384843 0.123853065
0.16684233 -0.0036211803 -0.09430151 -0.02749726 -0.0546624 -0.03506073 0.047651652 -0.011912147
-0.084536195 0.020225277 0.14273602 0.20930447 0.2174937 0.13404362 -0.15539362 -0.12659
-0.10404191 -0.13323022 0.025035681 0.0057694307 0.13077386 0.044564832 -0.15566574 0.084122516
-0.0072121723 0.049252417 -0.028488906 -0.066528104 0.17080095 -0.07485338 -0.072473794 -0.028555246
0.106331006 -0.0960549 0.030848633 -0.037052598 -0.23443541 0.048482884 -0.09661788 0.07763887
0.008917579 -0.005802602 0.0370676 0.15645693 0.069549 0.082636245 -0.05453132 -0.14314608
0.17813195 0.103280015 -0.15873522 0.031494755 -0.10643295 -0.10974141 0.022743462 -0.12666534
0.03750355 0.0059118997 0.101714015 0.2068752 -0.118994735 0.26977342 0.07649968 -0.037720986
-0.049127795 -0.069345824 -0.027180359 -0.010544056 0.20438042 -0.13147746 -0.028156053 0.027316328
-0.05729919 0.016157247 0.004429584 0.040258557 0.064066745 0.09060952 -0.06895074 0.23380382
-0.037469976 0.06258334 -0.07707381 0.17017762 -0.097871885 0.029033486 -0.070978805 -0.21852563
-0.13553162 -0.09839609 0.122772485 -0.020532982 -0.10618187 -0.050822232 0.033179197 -0.06995505
-0.13385609 -0.038241103 0.09526423 0.11143205 -0.1956336 -0.07461977 -0.010461134 0.05921552
0.049010254 -0.068594486 0.004099658 0.057867806 -0.081635915 -0.027019633 0.013650527 -0.02591209
0.12841496 0.014587466 -0.0076072207 -0.09897675 0.048070297 -0.20728613 -0.043883182 0.02868588
-0.067119576 0.12828559 0.055879317 -0.20349482 0.012938908 0.042482328 -0.08354105 0.068564616
-0.032691125 0.13745925 -0.01566832 0.057859663 0.18211015 0.096474335 -0.039944015 -0.12290598
00000000: e4df 54bb ed17 29be 9d81 bbbd f274 793d
00000010: 5e2d 42bc a77c f63c 7222 523d 7fdb 513d
00000020: a47f 213d 1f6f 79be 3aab 6ebd 7df2 c33c
00000030: 0a48 3bbe 1d01 57be 47ed 73be e818 b33d
00000040: 0edc 0f3b e61f 03bc ded5 9a3d 9498 263b
00000050: ca4f 11bd 433a e33b 1fbe bebc 56f7 a23b
00000060: b7d4 17be 15f3 afbd 39f8 babd 7e76 d83d
00000070: 6cd1 92bd 14a9 9fbd 9070 283e 69b6 c83d
00000080: 1885 44bd 2e16 a13d bc79 3f3e e136 153e
00000090: c750 9fbc 41c6 58bd 41c2 533d b41c dbbd
000000a0: 07bc 22be 1489 c73d b716 59bc 0449 cebd
000000b0: bdb6 dfbd 152a 30be affd c1bd 7597 013e
000000c0: ead7 383e bc8e 87bc 5c92 c63c f923 9fbb
000000d0: bab9 0f3e 27df 94bc e37a 173c b013 3bbd
000000e0: 4610 eabd 9818 153d a402 32bb d4aa cfbd
000000f0: 3952 063d fa56 143e a5de f73d b5a3 0abe
00000100: e62a 27bd 61a9 b53b 19db 98bd a30c 263c
00000110: a58e a13c 6605 acbd 2566 f6bd f81a f1bc
00000120: f45d 30be a384 7abd 1d18 8ebb ea1c a3ba
00000130: 1861 a8bc ced5 9cbc b9ad a6bc 76e9 7e39
00000140: ee39 82bb 6876 85bd e354 243d 03eb ae3c
00000150: e1b9 893d efc1 dcbd 7340 66bd f9ca e43d
00000160: 77b7 98bc a390 a23c 1cb8 6f3c 1134 2f3c
00000170: a057 903d 49cd 503d fa44 8bbd cab2 14be
00000180: 69ec 0abe cbdb dfbc 5217 0ebe a900 86bc
00000190: db4b 963d 78af 763d 7459 dd3d 86e4 bc3d
000001a0: 0855 16be b3d6 7b3e e100 e43d bef0 ec3c
000001b0: 45c0 113e f2ae 933d 2097 203d 1f77 d8bd
000001c0: ade5 bdbd a654 0f3e f447 89bd 2238 e03d
000001d0: 156b 84ba 564e ce3d 1956 77bd ada6 fd3d
000001e0: b7d8 2a3e 5351 6dbb 2621 c1bd ef41 e1bc
000001f0: aee5 5fbd d79b 0fbd 612e 433d 2a2b 43bc
00000200: 5021 adbd 7baf a53c 6429 123e e953 563e
00000210: abb6 5e3e bb42 093e 811f 1fbe cfa0 01be
00000220: ed13 d5bd 816d 08be a117 cd3c 7e0d bd3b
00000230: 95e9 053e 9d89 363d d766 1fbe 6d48 ac3d
00000240: 1654 ecbb e7bc 493d 9161 e9bc e33f 88bd
00000250: 72e6 2e3e bb4c 99bd 246d 94bd b1ec e9bc
00000260: 12c4 d93d 6eb8 c4bd 46b6 fc3c 77c4 17bd
00000270: d60f 70be fd95 463d 98df c5bd 2101 9f3d
00000280: 0a1b 123c c123 bebb 32d4 173d 3f36 203e
00000290: b56f 8e3d 313d a93d 3c5c 5fbd e394 12be
000002a0: 3968 363e 7984 d33d 7c8b 22be a500 013d
000002b0: 85f9 d9bd 1bc0 e0bd 7f50 ba3c 8fb4 01be
000002c0: 539d 193d 9cb8 c13b 704f d03d 18d7 533e
000002d0: 83b3 f3bd be1f 8a3e ddab 9c3d 5281 1abd
000002e0: 3a3a 49bd 2f05 8ebd 58a9 debc fac0 2cbc
000002f0: 1a49 513e 07a2 06be 86a7 e6bc 7ec6 df3c
00000300: 8eb2 6abd 345c 843c 0b26 913b 28e6 243d
00000310: 6d35 833d 7c91 b93d 0c36 8dbd 456a 6f3e
00000320: 1e7a 19bd b22b 803d e0d8 9dbd 0b43 2e3e
00000330: 0e71 c8bd a2d7 ed3c 565d 91bd 2fc5 5fbe
00000340: cdc8 0abe e483 c9bd 2470 fb3d c934 a8bc
00000350: e175 d9bd f92a 50bd e9e6 073d 9844 8fbd
00000360: 9211 09be b4a2 1cbd e519 c33d 7d36 e43d
00000370: 2d54 48be 40d2 98bd 2d65 2bbc f98b 723d
00000380: fabe 483d 447b 8cbd 6d56 863b cb06 6d3d
00000390: bb30 a7bd 4758 ddbc 76a6 5f3c 9745 d4bc
000003a0: 367f 033e 4400 6f3c fe45 f9bb 53b4 cabd
000003b0: 5ce5 443d d142 54be dabe 33bd a7fe ea3c
000003c0: fd75 89bd 4c5d 033e b6e1 643d f260 50be
000003d0: b7fd 533c f301 2e3d 9217 abbd 9b6b 8c3d
000003e0: 21e7 05bd 1ec2 0c3e d95a 80bc 41fe 6c3d
000003f0: 157b 3a3e 5694 c53d 569c 23bd 21b6 fbbd

encoder.encoder.0.W_h.weight f4 [64, 64]
0.11232756 -0.04597343 -0.047603313 0.2631883 -0.24038884 0.3350098 -0.3060773 -0.06720905
-0.061861206 -0.084070966 -0.08193141 0.18962446 -0.07044481 0.03014577 0.14140074 0.033111457
-0.047358274 0.2229265 -0.16433667 -0.07342101 -0.24319518 -0.17321016 0.033760957 -0.061247714
-0.1707516 -0.07823491 -0.07379078 0.10666086 -0.19361672 0.10504344 -0.0108629055 0.010183467
-0.079089865 0.08746515 0.0483198 -0.1164401 -0.15987226 -0.0012355713 -0.113573976 -0.07936613
-0.18464768 -0.09976475 -0.0046858825 -0.055565406 -0.29315633 0.20613262 -0.16968603 0.2509927
0.054643545 0.040526982 0.15744418 -0.071723096 0.059527144 -0.20246826 -0.082045235 0.09185057
-0.11689401 -0.008845502 -0.059816394 0.39923576 0.017039629 -0.16805813 -0.008095275 -0.35744813
0.18140484 -0.19866323 -0.2307212 -0.12009906 0.19764085 -0.119971 0.07710783 -0.2926336
0.10547222 -0.12099554 0.105084985 0.03310792 0.0665049 0.18383002 -0.23093706 -0.1758036
-0.08260716 -0.17559592 0.26803043 -0.13004802 0.12765723 -0.15605558 0.03045467 0.13486846
-0.03084262 0.13580379 0.0884048 0.08358842 -0.17240176 0.15429646 -0.01024022 0.03191089
-0.117106944 0.08252942 -0.08877618 -0.06642499 -0.23378101 0.14061952 -0.17382854 0.19958045
-0.034946542 -0.11251308 0.011301274 -0.08238373 -0.002836271 0.00032312726 0.22872244 0.0051013217
-0.20182624 0.29958388 0.03641722 -0.1599978 -0.22038539 0.035184573 -0.08850898 0.049913157
-0.28223726 0.15932298 0.02642472 0.0022213205 0.1744227 -0.1170366 0.0522047 -0.18836614
0.09188033 -0.2493322 0.14810687 0.2641766 0.10807792 -0.14097738 -0.08877067 -0.20021361
0.05286834 -0.124482684 -0.023037765 -0.10521101 -0.10753328 -0.0018747601 -0.050517138 -0.17384957
0.23819862 -0.043548405 0.101804346 0.11736837 -0.07526173 0.025739124 -0.12878896 -0.15499426
0.1772673 -0.10097439 0.23925906 0.2555116 -0.063885726 0.12596518 0.16193537 -0.14395052
-0.25599557 0.16078508 -0.109413505 -0.17616323 -0.015382096 0.02793896 0.13520624 -0.09142125
-0.07904083 0.14613704 -0.07473837 -0.39379403 0.15412506 -0.028842589 0.0905324 -0.2544445
-0.27336386 0.06854073 -0.06914097 -0.031036125 -0.030266669 -0.069601275 -0.13522638 0.18802929
-0.026660811 -0.24836518 0.10217107 0.1253347 -0.19271564 0.21529324 0.0068773157 -0.2722051
0.023611348 0.2102062 -0.14961013 0.32942894 -0.071643166 -0.038729228 -0.28467804 0.26933622
-0.14451438 -0.06791467 0.0019484654 -0.15122163 -0.2561468 -0.074515805 -0.019779587 0.12588969
-0.04788054 0.08941675 0.022177858 -0.11087596 0.18289179 -0.08365822 0.08767727 -0.32941258
-0.014358643 -0.12265407 -0.025409665 0.07790029 -0.24740714 0.18045431 -0.043973334 -0.06385202
0.211597 -0.05480192 0.034324754 -0.12756486 0.16540991 0.013008773 0.060808342 -0.038807236
-0.066892534 0.07642184 -0.25315174 0.11891232 -0.19420005 0.12219796 0.13224693 -0.14043269
0.14630257 0.029288793 0.060215604 0.08242593 -0.0894897 0.31717783 0.17833246 -0.14287004
0.053839475 0.008808621 0.013986286 0.02680649 0.011983126 -0.043827444 0.12878604 -0.31398848
00000000: fe0b e63d a34e 3cbd b1fb 42bd 9ec0 863e
00000010: 7e28 76be 6886 ab3e 2ab6 9cbe e6a4 89bd
00000020: 2d62 7dbd 662d acbd a8cb a7bd ea2c 423e
00000030: 5e45 90bd 43f4 f63c 5bcb 103e e19f 073d
00000040: c0fa 41bd d846 643e df47 28be c15d 96bd
00000050: 2808 79be 015e 31be ee48 0a3d e2de 7abd
00000060: 82d9 2ebe a039 a0bd 9f1f 97bd 0271 da3d
00000070: 7643 46be 0421 d73d 54fa 31bc 8ed8 263c
00000080: def9 a1bd ee20 b33d fcea 453d 2678 eebd
00000090: 8eb5 23be e5f2 a1ba 7999 e8bd b68a a2bd
000000a0: 4814 3dbe 7651 ccbd 088c 99bb 8d98 63bd
000000b0: 9618 96be 6e14 533e 2dc2 2dbe 1d82 803e
000000c0: e9d1 5f3d 9fff 253d 0c39 213e 8fe3 92bd
000000d0: bcd2 733d d753 4fbe 5507 a8bd 271c bc3d
000000e0: 2066 efbd b9ec 10bc 0902 75bd a168 cc3e
000000f0: b196 8b3c 6e17 2cbe 0ba2 04bc 7103 b7be
00000100: 31c2 393e 606e 4bbe 2e42 6cbe 7ff6 f5bd
00000110: 5d62 4a3e 5bb3 f5bd b6ea 9d3d 12d4 95be
00000120: d201 d83d 82cc f7bd cc36 d73d 2c9c 073d
00000130: b933 883d f03d 3c3e c47a 6cbe dc05 34be
00000140: f12d a9bd 6bcf 33be 493b 893e 4f2b 05be
00000150: 94b8 023e 09cd 1fbe 127c f93c f51a 0a3e
00000160: aaa9 fcbc 2610 0b3e 930d b53d 6830 ab3d
00000170: 168a 30be e4ff 1d3e 99c6 27bc feb4 023d
00000180: c4d5 efbd 2f05 a93d 49d0 b5bd d309 88bd
00000190: 4a64 6fbe 90fe 0f3e 1c00 32be d15e 4c3e
000001a0: 1b24 0fbd 426d e6bd fb28 393c cdb8 a8bd
000001b0: bbe0 39bb 6869 a939 3736 6a3e fd28 a73b
000001c0: 8aab 4ebe 0f63 993e 392a 153d 77d6 23be
000001d0: b5ac 61be b31d 103d 3244 b5bd bd71 4c3d
000001e0: 6781 90be 9025 233e a878 d83c 9393 113b
000001f0: dd9b 323e e3b0 efbd 98d4 553d 0ee3 40be
00000200: c12b bc3d f150 7fbe 54a9 173e 2842 873e
00000210: f557 dd3d 605c 10be 66cd b5bd cc04 4dbe
00000220: 798c 583d c7f0 febd b2b9 bcbc df78 d7bd
00000230: 693a dcbd 83ba f5ba 0feb 4ebd 9f05 32be
00000240: 57ea 733e d05f 32bd cc7e d03d d45e f03d
00000250: d222 9abd dbda d23c 41e1 03be d1b6 1ebe
00000260: 8f85 353e a9cb cebd 5400 753e 6bd2 823e
00000270: 85d6 82bd 04fd 003e 63d2 253e c467 13be
00000280: da11 83be d8a4 243e 3014 e0bd 2264 34be
00000290: 3005 7cbc 3fe0 e43c 8173 0a3e 103b bbbd
000002a0: 29e0 a1bd f3a4 153e 6e10 99bd 5f9f c9be
000002b0: f6d2 1d3e 4b47 ecbc 0d69 b93d 8d46 82be
000002c0: 59f6 8bbe 155f 8c3d c899 8dbd 793f febc
000002d0: cef1 f7bc 1d8b 8ebd c978 0abe c08a 403e
000002e0: c667 dabc 7153 7ebe 113f d13d bd57 003e
000002f0: 4057 45be d575 5c3e 1b5b e13b 785e 8bbe
00000300: 966c c13c 4b40 573e 6633 19be e9aa a83e
00000310: a7b9 92bd 8aa2 1ebd 52c1 91be 70e6 893e
00000320: 94fb 13be d916 8bbd a663 ff3a d8d9 1abe
00000330: ac25 83be be9b 98bd cd08 a2bc 3ae9 003e
00000340: 631e 44bd 2120 b73d 57ae b53c ef12 e3bd
00000350: fc47 3b3e 0055 abbd 2490 b33d c4a8 a8be
00000360: 8440 6bbc 0f32 fbbd ee27 d0bc 308a 9f3d
00000370: 4c58 7dbe 04c9 383e 621d 34bd d9c4 82bd
00000380: e2ac 583e fa77 60bd 1d98 0c3d 5da0 02be
00000390: 3761 293e c022 553c 2b12 793d 56f4 1ebd
000003a0: f4fe 88bd 0e83 9c3d 1b9d 81be 4d88 f33d
000003b0: 61dc 46be ed42 fa3d bd6b 073e 96cd 0fbe
000003c0: 57d0 153e 0def ef3c a3a4 763d edce a83d
000003d0: 6046 b7bd 2265 a23e c99c 363e 864c 12be
000003e0: c886 5c3d 0952 103c bc26 653c 4999 db3c
000003f0: e054 443c 6884 33bd 7de0 033e 19c3 a0be

encoder.encoder.0.W_o.weight f4 [64, 197]
-0.049364734 -0.03078672 0.17392951 -0.11415485 0.024525259 0.13149817 0.021776002 -0.0030494833
0.13791713 0.076189555 -0.05398405 0.036552668 0.0861573 0.029733432 -0.052745033 -0.057607114
0.09109628 0.015051308 -0.089943856 -0.042694975 -0.08301233 -0.015989706 -0.0020194317 -0.06575078
-0.07886816 0.014865732 0.16805048 0.014266898 -0.10161455 -0.11397879 0.05574968 -0.12257405
-0.02886964 0.22447523 -0.03187379 -0.06653408 -0.027362155 -0.04124848 -0.12872273 0.044480108
0.11816185 -0.08112664 0.015733987 0.068902485 0.15534133 0.066638954 -0.1932058 -0.04804492
0.045072176 -0.035506055 -0.028682645 0.09986859 0.00073438475 0.005814433 0.118215084 -0.16345611
0.058791604 -0.052461635 -0.06389383 -0.061789725 -0.022632318 -0.089431964 0.032551955 0.024660211
0.09751451 -0.0035323964 0.03069856 -0.09160826 -0.010407027 -0.012221011 0.032311335 0.060793303
0.041036196 -0.004586707 -0.06853227 -0.025103183 0.039829288 -0.039649647 0.13319407 -0.20867899
-0.10486312 0.063846074 0.1232302 -0.05902196 -0.08265168 0.030301927 0.04995593 0.018547835
0.031571496 -0.09868323 -0.06698971 0.0021818702 -0.0009747553 0.0033677847 0.03090898 -0.041512527
-0.006086929 0.17018533 0.14500172 -0.034009386 -0.06184458 -0.151859 -0.0046057273 -0.03602945
0.12621273 0.15448143 0.050659955 0.013922045 0.0914627 -0.13628438 -0.155447 0.088976644
-0.08144902 -0.0518635 -0.08355195 -0.025351632 0.116257034 0.07474818 -0.040501125 -0.044630088
0.037726007 0.105808064 -0.04716059 0.11533343 0.046034288 -0.07683722 0.10904515 -0.045953345
-0.09485418 0.15961231 0.06414671 -0.008065917 -0.005921024 0.017203595 0.088329285 -0.0073752077
-0.008023367 -0.037791237 0.026343342 -0.032219514 0.09637538 0.053966485 0.01817591 -0.046615224
-0.14641292 -0.036361568 0.02284792 0.09665055 -0.14671738 -0.16750202 -0.002922225 -0.1166417
-0.27395886 0.081511974 0.11776012 -0.0064980146 -0.022979546 0.055571567 0.08840736 -0.04062707
0.18077521 0.027101707 -0.046805475 -0.13467632 -0.061941814 -0.0065972935 -0.18326382 0.03293997
0.06547614 -0.025959445 -0.0045972797 -0.15286554 -0.05578257 0.031534642 0.18642414 0.008247015
0.11652007 0.03660202 -0.14990808 0.086992495 -0.103148475 -0.25919333 0.005479856 -0.017318556
-0.0619256 0.09403336 -0.049254008 -0.12208215 -0.004129434 -0.15405005 -0.12539917 0.029988505
0.10000805 -0.08698615 0.019297315 0.0053330683 0.08387404 0.08700035 -0.008112285 -0.10817492
0.0025398717 -0.07178348 -0.026196336 -0.027719643 -0.096743755 -0.029613178 0.06902235 0.011831028
-0.078684725 0.18719132 0.14690542 -0.098449595 0.04182274 -0.10931072 0.064676575 -0.09789348
-0.014022267 -0.07782785 0.12229189 -0.10940639 0.042469203 -0.012476447 -0.00850605 -0.031869926
-0.10845255 0.029950617 -0.0430778 0.013569852 0.13045621 -0.042059235 -0.00224185 0.0089023
0.017174676 -0.028379265 0.028445758 -0.0471863 -0.02943341 0.022283144 0.0048943907 0.1723263
0.08700386 0.0059164525 0.0982232 -0.009304756 0.054129895 -0.049283292 0.045327198 0.05406119
0.11740197 -0.18909092 0.022410627 0.012296815 0.12065576 0.1389811 0.0246098 0.0149919
00000000: ad32 4abd 6e34 fcbc 941a 323e 05ca e9bd
00000010: 32e9 c83c 75a7 063e 9663 b23c d7d9 47bb
00000020: 263a 0d3e 4509 9c3d 611e 5dbd 40b8 153d
00000030: 3d73 b03d 8793 f33c 2d0b 58bd 70f5 6bbd
00000040: b090 ba3d c399 763c 7c34 b8bd ede0 2ebd
00000050: 5e02 aabd d8fc 82bc 7158 04bb 58a8 86bd
00000060: a185 a1bd 668f 733c 6d15 2c3e b5bf 693c
00000070: 4a1b d0bd b66d e9bd c759 643d 1b08 fbbd
00000080: 0680 ecbc d6dc 653e 178e 02bd 0543 88bd
00000090: 9926 e0bc 2bf4 28bd e4cf 03be c630 363d
000000a0: d7fe f13d b925 a6bd 90e4 803c bf1c 8d3d
000000b0: cc11 1f3e 017a 883d bed7 45be c0ca 44bd
000000c0: 9a9d 383d cc6e 11bd def7 eabc e787 cc3d
000000d0: ba83 403a 0087 be3b c01a f23d 0a61 27be
000000e0: 77cf 703d 03e2 56bd c5da 82bd 3917 7dbd
000000f0: 6967 b9bc 1b28 b7bd 3355 053d 3604 ca3c
00000100: b0b5 c73d c77f 67bb 8c7b fb3c 1d9d bbbd
00000110: 3c82 2abc a33a 48bc e458 043d 6602 793d
00000120: 9215 283d 164c 96bb a65a 8cbd 31a5 cdbc
00000130: 0924 233d ab67 22bd 0764 083e f2af 55be
00000140: 7ac2 d6bd bbc1 823d 1d60 fc3d 03c1 71bd
00000150: 4945 a9bd bf3b f83c 979e 4c3d a1f1 973c
00000160: 1d51 013d 6f1a cabd e731 89bd b5fd 0e3b
00000170: b986 7fba 0db6 5c3b d434 fd3c 0a09 2abd
00000180: dc74 c7bb 1045 2e3e 557b 143e 6d4d 0bbd
00000190: be50 7dbd ed80 1bbe a4eb 96bb 9e93 13bd
000001a0: e93d 013e 6130 1e3e d080 4f3d 4a19 643c
000001b0: cc50 bb3d 228e 0bbe 802d 1fbe 6339 b63d
000001c0: bece a6bd d26e 54bd 491d abbd 3aae cfbc
000001d0: 2b18 ee3d 9315 993d 82e4 25bd 0ace 36bd
000001e0: 9686 1a3d e6b1 d83d 762b 41bd ef33 ec3d
000001f0: 738e 3c3d d55c 9dbd 1053 df3d 9339 3cbd
00000200: e942 c2bd 6971 233e 5a5f 833d e826 04bc
00000210: 2605 c2bb 8eee 8c3c fce5 b43d baab f1bb
00000220: 7174 03bc fcca 1abd fecd d73c 9cf8 03bd
00000230: 7560 c53d f60b 5d3d a5e5 943c 9bef 3ebd
00000240: 45ed 15be deef 14bd 902b bb3c b9f0 c53d
00000250: 153d 16be a685 2bbe cd82 3fbb d8e1 eebd
00000260: 5644 8cbe c0ef a63d 382c f13d 4ced d4bb
00000270: 9a3f bcbc 039f 633d eb0e b53d 9268 26bd
00000280: 231d 393e 6604 de3c 19b7 3fbd 97e8 09be
00000290: b3b6 7dbd 1c2e d8bb 83a9 3bbe 10ec 063d
000002a0: 5b18 863d e7a8 d4bc c7a4 96bb c988 1cbe
000002b0: 447c 64bd 782a 013d f8e5 3e3e 7d1e 073c
000002c0: 13a2 ee3d 00ec 153d 8181 19be 1f29 b23d
000002d0: 823f d3bd fdb4 84be 5d90 b33b a5df 8dbc
000002e0: b3a5 7dbd 9094 c03d 92be 49bd 3506 fabd
000002f0: 3450 87bb 4cbf 1dbe a468 00be 74aa f53c
00000300: 05d1 cc3d cb25 b2bd 6715 9e3c 05c1 ae3b
00000310: 27c6 ab3d 3d2d b23d 64e9 04bc d08a ddbd
00000320: fa73 263b 3803 93bd b399 d6bc 4e14 e3bc
00000330: 9721 c6bd 5697 f2bc 975b 8d3d eed6 413c
00000340: 7525 a1bd 15af 3f3e 606e 163e f19f c9bd
00000350: 524e 2b3d 4cde dfbd 2775 843d 607c c8bd
00000360: a7bd 65bc 3564 9fbd 2c74 fa3d 7510 e0bd
00000370: 30f4 2d3d 036a 4cbc f65c 0bbc 0a8a 02bd
00000380: 5f1c debd ff5a f53c 5972 30bd 1654 5e3c
00000390: 5096 053e 4e46 2cbd 00ec 12bb f4da 113c
000003a0: e8b1 8c3c a27b e8bc 1407 e93c 6c46 41bd
000003b0: 561e f1bc 248b b63c 2061 a03b 4e76 303e
000003c0: 142f b23d cdde c13b 3f29 c93d fa72 18bc
000003d0: 4fb7 5d3d 47dd 49bd 03a9 393d 446f 5d3d
000003e0: 7270 f03d 0da1 41be 7e96 b73c 9578 493c
000003f0: 5e1a f73d 1051 0e3e 7e9a c93c 96a0 753c

encoder.encoder.0.W_o.bias f4 [64]
-0.01341095 0.0019234518 0.025267411 0.028875321 0.004075619 0.0061883107 -0.014202386 0.014298616
-0.014504904 -0.020404601 0.0069637373 -0.0074940096 -0.013304391 0.020754306 -0.014502569 -0.00045708468
0.0047140834 0.0033386254 -0.039173342 0.012143151 -0.006065156 -0.0002786016 0.058732077 0.044267662
-0.0076712184 0.003613445 -0.005554665 0.02400076 -0.003084602 -0.004120686 0.0030547155 0.022089973
-0.016685382 -0.028800776 -0.012913833 0.008975697 0.01311668 -0.008016334 -0.0176443 0.005969194
-0.007817684 -0.0074913953 0.021108087 -0.030754661 -0.009378197 0.0064176014 0.0026887758 -0.012279166
-0.0102760475 -0.006899581 0.008894759 0.017252147 0.03499408 -0.00078844355 -0.039904952 -0.002771771
0.02338549 0.00823692 -0.004919291 0.006091175 0.024971588 -0.019800263 -0.007679872 0.012065419
00000000: 9ab9 5bbc 551c fc3a 9afd ce3c f08b ec3c
00000010: c58c 853b 50c7 ca3b 20b1 68bc be44 6a3c
00000020: faa5 6dbc 8d27 a7bc 1030 e43b 4f90 f5bb
00000030: a9fa 59bc ef04 aa3c 2f9c 6dbc dea4 efb9
00000040: 9978 9a3b d7cc 5a3b 3a74 20bd 11f4 463c
00000050: 37be c6bb 4611 92b9 0c91 703d 0252 353d
00000060: d85e fbbb 8ccf 6c3b e803 b6bb 3e9d c43c
00000070: 0927 4abb d206 87bb 9f31 483b 08f6 b43c
00000080: c8af 88bc 9bef ebbc 8b94 53bc cd0e 133c
00000090: 58e7 563c f156 03bc c78a 90bc 3b99 c33b
000000a0: be15 00bc 617a f5bb deea ac3c 33f1 fbbc
000000b0: 02a7 19bc be4a d23b 2c36 303b 8e2e 49bc
000000c0: de5c 28bc e115 e2bb 53bb 113c 6054 8d3c
000000d0: f455 0f3d 8daf 4eba 6073 23bd 9aa6 35bb
000000e0: ed92 bf3c 26f4 063c 0132 a1bb 7b98 c73b
000000f0: 3791 cc3c 2934 a2bc 70a7 fbbb 09ae 453c

ffn.1.weight f4 [64, 264]
0.08958742 0.041958224 -0.046183165 -0.06593067 0.12772904 0.0791147 0.062876865 0.0040806956
-0.032253914 0.039998423 0.039976265 0.07875437 -0.033659004 0.12498753 0.046223804 -0.046874184
-0.014203379 -0.010202685 0.06046992 -0.029024301 -0.02787238 -0.10876877 0.12117604 0.027792545
0.033452403 0.02144936 0.017912775 0.11725563 0.025996579 -0.0213989 -0.0041911816 -0.05965078
0.040217355 0.04953057 -0.17639299 -0.12771326 -0.11628745 0.08078727 0.03337113 -0.12818077
-0.12838297 0.009749879 -0.055720706 -0.039010204 0.06341093 0.024281725 0.104208685 -0.034892388
0.081975535 -0.07697218 -0.024119038 0.004550183 0.026525661 -0.054811236 -0.018517762 -0.11243124
-0.0035252604 -0.039884653 -0.073439226 0.023878034 0.002438156 0.04486924 0.05072377 0.046288617
0.110564165 0.033270545 -0.022298971 -0.06467157 -0.10841428 -0.03962012 -0.056898396 -0.106905
-0.037231464 -0.084997155 0.1298463 -0.01783347 0.11103999 0.0933156 0.013572632 0.025817888
-0.060534257 0.0325525 0.12410455 -0.041721523 0.05723088 -0.001985058 -0.055165872 -0.023302332
0.043166447 -0.09802603 0.05677365 -0.005992108 0.014773113 0.03463952 -0.048364308 0.02684201
-0.09584812 0.042358432 -0.112507574 -0.11745539 -0.059274912 -0.069946185 -0.095140666 -0.046028573
-0.12741856 0.03531593 0.104840346 -0.031138644 0.07878989 0.058464088 0.04478492 0.029907862
-0.06859303 -0.048241228 0.008554388 -0.04731426 -0.05577125 0.04900733 -0.023821138 0.033344734
0.14583586 -0.022344211 -0.06158484 0.021618478 -0.0029234986 0.051014338 -0.22880143 0.071125545
-0.077435546 0.0069170427 -0.10511241 -0.12461986 -0.10161349 -0.14102902 0.118220486 -0.04069205
0.004805361 0.04259884 -0.055247214 0.036398076 -0.062183365 0.10437061 0.005622448 0.016169848
0.08009287 0.035734385 0.14469579 0.032547448 -0.014053105 0.12954962 -0.07378515 0.033843137
-0.048764233 0.029847493 -0.0075775287 -0.0014555079 0.09060525 0.085984945 0.013425741 0.036041558
-0.16735572 0.07782537 0.031655718 0.034698725 0.019183272 0.13249114 0.008190713 -0.03192014
0.019050164 -0.0969191 0.007830039 0.20116642 0.1257346 0.113546535 -0.0015652219 -0.02151681
-0.072455026 -0.03087971 -0.1774231 -0.104873545 -0.12602891 0.14503504 -0.10032907 0.05615121
0.061017472 -0.056625333 -0.013398977 -0.026851477 0.03163279 -0.022820968 0.013883588 -0.07679594
0.008512061 0.087033816 -0.046056304 0.014731411 -0.15873413 0.014814363 -0.042882916 0.033462267
-0.1556801 -0.046102013 -0.05864906 -0.08308632 0.07157976 0.06356947 -0.10203043 -0.0223516
-0.038233567 0.029146885 -0.08339722 -0.13648395 0.116657205 -0.1624633 -0.07411215 0.2343667
-0.04411641 -0.030261751 -0.11984433 0.015116146 0.1649349 -0.08312109 0.03280944 -0.07272535
-0.11565698 -0.0036468427 -0.07391017 -0.012167818 -0.058005888 -0.1048825 0.11855982 0.08458683
0.058235746 -0.0045584007 -0.036819402 0.004292234 0.04098928 0.016163182 0.042960368 0.0460817
-0.14067303 -0.08143958 0.102906704 -0.10640332 -0.034496717 0.060323536 -0.067967825 0.009868182
-0.15517452 -0.100977 0.1432768 0.0013668424 0.02277387 0.034372203 -0.109297924 -0.061305612
00000000: 9c79 b73d 63dc 2b3d 8f2a 3dbd a906 87bd
00000010: 67cb 023e e306 a23d 96c5 803d 5bb7 853b
00000020: ae1c 04bd 63d5 233d 27be 233d f949 a13d
00000030: 06de 09bd 76f9 ff3d 2c55 3d3d 25ff 3fbd
00000040: 4ab5 68bc 2a29 27bc 4faf 773d 5fc4 edbc
00000050: 9e54 e4bc 29c2 debd 252b f83d 31ad e33c
00000060: 6305 093d 91b6 af3c d0bd 923c b823 f03d
00000070: c7f6 d43c bf4c afbc 2e56 89bb 6054 74bd
00000080: f4ba 243d 91e0 4a3d 5da0 34be 44c7 02be
00000090: 1d28 eebd cc73 a53d 2ab0 083d d241 03be
000000a0: d376 03be f5bd 1f3c 653b 64bd 2ac9 1fbd
000000b0: 97dd 813d 78ea c63c 5d6b d53d 52eb 0ebd
000000c0: cae2 a73d 97a3 9dbd 4a95 c5bc b419 953b
000000d0: 584c d93c bf81 60bd 90b2 97bc 5a42 e6bd
000000e0: 0e08 67bb 175e 23bd 4e67 96bd de9b c33c
000000f0: 78c9 1f3b cfc8 373d bac3 4f3d 2299 3d3d
00000100: 776f e23d b246 083d 55ac b6bc 8772 84bd
00000110: 4e08 debd b548 22bd 4b0e 69bd 02f1 dabd
00000120: 0580 18bd fd12 aebd 6ef6 043e 7f17 92bc
00000130: ef68 e33d 401c bf3d bf5f 5e3c 0980 d33c
00000140: c5f2 77bd c555 053d 872a fe3d 30e4 2abd
00000150: ed6a 6a3d bf17 02bb 9cf5 61bd 88e4 bebc
00000160: 4dcf 303d dfc1 c8bd 7d8b 683d 7259 c4bb
00000170: ed0a 723c 2be2 0d3d a719 46bd c6e3 db3c
00000180: 054c c4bd 0980 2d3d 5f6a e6bd 748c f0bd
00000190: 40ca 72bd f23f 8fbd 1cd9 c2bd 7588 3cbd
000001a0: 037a 02be 70a7 103d 89b6 d63d 7816 ffbc
000001b0: 985c a13d 0a78 6f3d 6470 373d 5501 f53c
000001c0: 817a 8cbd 9898 45bd b427 0c3c 99cc 41bd
000001d0: 6570 64bd e9bb 483d 8c24 c3bc 7d94 083d
000001e0: ff55 153e 350b b7bc 6340 7cbd 3c19 b13c
000001f0: 2b98 3fbb 69f4 503d ec4a 6abe 45aa 913d
00000200: 8796 9ebd 5ca8 e23b 2d45 d7bd b238 ffbd
00000210: bc1a d0bd e969 10be 951d f23d b5ac 26bd
00000220: 4a76 9d3b 1f7c 2e3d e74a 62bd 2616 153d
00000230: fcb3 7ebd 42c0 d53d 833c b83b a176 843c
00000240: bb07 a43d 385e 123d 222b 143e 7950 053d
00000250: ff3e 66bc a8a8 043e ab1c 97bd 1a9f 0a3d
00000260: 01bd 47bd bb82 f43c eb4c f8bb bec6 beba
00000270: 3f8f b93d e018 b03d a4f7 5b3c 50a0 133d
00000280: 4c5f 2bbe e862 9f3d 6da9 013d 4020 0e3d
00000290: 3d26 9d3c c2ab 073e 5732 063c b1be 02bd
000002a0: 170f 9c3c 857d c6bd 9049 003c 92fe 4d3e
000002b0: 92c0 003e 168b e83d 2228 cdba 0544 b0bc
000002c0: 4d63 94bd 72f7 fcbc 67ae 35be f1c7 d6bd
000002d0: b90d 01be 1184 143e 5479 cdbd d0fe 653d
000002e0: 75ed 793d f7ef 67bd 6287 5bbc a1f7 dbbc
000002f0: 6291 013d 0af3 babc fd77 633c 3147 9dbd
00000300: 2c76 0b3c c93e b23d 89a5 3cbd 045c 713c
00000310: 338b 22be f1b7 723c ffa5 2fbd bb0f 093d
00000320: 9b6a 1fbe 77d5 3cbd ff39 70bd 2929 aabd
00000330: 6998 923d b630 823d 55f5 d0bd b41a b7bc
00000340: cd9a 1cbd 73c5 ee3c 29cc aabd 73c2 0bbe
00000350: f9e9 ee3d c85c 26be 1cc8 97bd d3fd 6f3e
00000360: 69b3 34bd 7ee7 f7bc f270 f5bd b6a9 773c
00000370: b2e4 283e 643b aabd 3163 063d 07f1 94bd
00000380: 91dd ecbd deff 6ebb 375e 97bd 875b 47bc
00000390: 9597 6dbd a3cc d6bd 7ecf f23d dc3b ad3d
000003a0: 9b88 6e3d a35e 95bb f1cf 16bd dea5 8c3b
000003b0: 60e4 273d a668 843c 36f7 2f3d 2ac0 3c3d
000003c0: 970c 10be cbc9 a6bd c0c0 d23d fce9 d9bd
000003d0: 6e4c 0dbd d015 773d b732 8bbd 28ae 213c
000003e0: 12e6 1ebe 08cd cebd 27b7 123e 9f27 b33a
000003f0: 4490 ba3c dec9 0c3d 97d7 dfbd 981b 7bbd

ffn.1.bias f4 [64]
-0.016828766 -0.028525501 0.010033503 -0.0117671825 0.033882454 0.027455376 -0.0072521544 0.020432683
0.041019183 0.020173544 -0.023844926 0.0036046484 0.013884719 0.030203594 -0.013063813 -0.026606757
-0.025779387 -0.021260975 0.026291953 0.024619365 0.03459738 0.016384508 0.006093247 0.004653371
0.045489974 -0.021974722 0.039272334 0.0016999692 0.0030405275 -0.024406034 0.002617994 0.02418095
-0.022514194 -0.010734981 0.030214626 0.011787576 -0.029516105 0.0036587971 0.020885175 0.02546219
-0.017301979 0.01911961 0.025167381 -0.017383061 0.03631713 -0.00595393 -0.017209942 0.032769408
0.025554858 0.025848914 -0.032233655 -0.01147565 -0.014372877 -0.025162946 -0.014135667 -0.017532878
-0.0036769859 0.0412928 -0.012068572 -0.0002036888 0.0375625 0.02501924 -0.016037099 0.026086567
00000000: 7bdc 89bc 50ae e9bc 9063 243c 24cb 40bc
00000010: 54c8 0a3d 19ea e03c 7ba3 edbb 7162 a73c
00000020: bb03 283d fd42 a53c 6f56 c3bc f73b 6c3b
00000030: bc7c 633c 876d f73c 9a09 56bc 6af6 d9bc
00000040: 4b2f d3bc 7f2b aebc 3962 d73c 8dae c93c
00000050: fbb5 0d3d ce38 863c dca9 c73b 4e7b 983b
00000060: b253 3a3d 5504 b4bc 07dc 203d 80d1 de3a
00000070: 9643 473b 2aef c7bc a792 2b3b 2117 c63c
00000080: b06f b8bc c6e1 2fbc aa84 f73c ad20 413c
00000090: c2cb f1bc 6ec8 6f3b 6317 ab3c 1596 d03c
000000a0: e1bc 8dbc baa0 9c3c d32b ce3c ec66 8ebc
000000b0: 45c1 143d 2f19 c3bb ddfb 8cbc 3739 063d
000000c0: 6c58 d13c 1ac1 d33c 7007 04bd 5d04 3cbc
000000d0: 377c 6bbc 8622 cebc 4999 67bc 1ca1 8fbc
000000e0: 96f9 70bb a422 293d 43bb 45bc 4c95 55b9
000000f0: 23db 193d 26f5 cc3c 3c60 83bc 7fb3 d53c

ffn.4.weight f4 [1, 64]
0.19579229 0.18196183 -0.09480879 0.3449491 -0.103574604 -0.20314774 0.27011806 -0.30767566
-0.14457852 -0.24955286 0.1616353 0.14508954 -0.3624703 -0.21307155 0.14463952 0.45292863
0.19316427 0.16649187 -0.093755655 -0.105438076 -0.12172538 -0.17797859 -0.23460358 -0.5559534
-0.3017993 0.3769997 -0.11549907 0.22953415 0.15293574 0.28114882 0.20980176 -0.19309291
0.27590623 0.25109583 -0.14623572 -0.1272192 0.3999473 -0.11459454 -0.32775685 -0.31187227
0.12456679 -0.3216544 -0.2657568 0.28991562 -0.12959893 0.22406636 0.23582299 -0.24444868
-0.18894264 -0.25898367 0.09671834 0.113887556 0.11562879 0.3337366 0.39961204 0.19380069
0.1589563 -0.13391307 0.20117828 0.24473247 -0.34207016 -0.10101343 0.35314196 -0.21385407
00000000: c67d 483e 3454 3a3e 1c2b c2bd 2b9d b03e
00000010: ec1e d4bd f605 50be ea4c 8a3e aa87 9dbe
00000020: 640c 14be c98a 7fbe b983 253e 5a92 143e
00000030: b595 b9be 6e2f 5abe 621c 143e 43e6 e73e
00000040: dbcc 453e d87c 2a3e f702 c0bd ebef d7bd
00000050: 284b f9bd 0540 36be ec3b 70be f652 0ebf
00000060: 7085 9abe 1b06 c13e c78a ecbd 000b 6b3e
00000070: 309b 1c3e bdf2 8f3e 46d6 563e 26ba 45be
00000080: 9543 8d3e a28f 803e d1be 15be c045 02be
00000090: e4c5 cc3e 8bb0 eabd bfcf a7be b9ad 9fbe
000000a0: e01c ff3d e3af a4be 4611 88be d26f 943e
000000b0: 95b5 04be a771 653e 957b 713e c150 7abe
000000c0: 2e7a 41be 8299 84be 4414 c63d e13d e93d
000000d0: c9ce ec3d 86df aa3e f399 cc3e b073 463e
000000e0: 71c5 223e 8220 09be ae01 4e3e 269b 7a3e
000000f0: d223 afbe 21e0 cebd 06cf b43e 90fc 5abe
