githubproject/media/ames/checkpoints_2/fold_0/model_0/model.pt (torch, 127883 bytes, 8 tensors)

encoder.encoder.0.cached_zero_vector f4 [64]
000000 00 00 00 00 00 00 00 00 00 00 00 00 00 00 00 00
       0.0 0.0 0.0 0.0
000010 00 00 00 00 00 00 00 00 00 00 00 00 00 00 00 00
       0.0 0.0 0.0 0.0
000020 00 00 00 00 00 00 00 00 00 00 00 00 00 00 00 00
       0.0 0.0 0.0 0.0
000030 00 00 00 00 00 00 00 00 00 00 00 00 00 00 00 00
       0.0 0.0 0.0 0.0
000040 00 00 00 00 00 00 00 00 00 00 00 00 00 00 00 00
       0.0 0.0 0.0 0.0
000050 00 00 00 00 00 00 00 00 00 00 00 00 00 00 00 00
       0.0 0.0 0.0 0.0
000060 00 00 00 00 00 00 00 00 00 00 00 00 00 00 00 00
       0.0 0.0 0.0 0.0
000070 00 00 00 00 00 00 00 00 00 00 00 00 00 00 00 00
       0.0 0.0 0.0 0.0
000080 00 00 00 00 00 00 00 00 00 00 00 00 00 00 00 00
       0.0 0.0 0.0 0.0
000090 00 00 00 00 00 00 00 00 00 00 00 00 00 00 00 00
       0.0 0.0 0.0 0.0
0000a0 00 00 00 00 00 00 00 00 00 00 00 00 00 00 00 00
       0.0 0.0 0.0 0.0
0000b0 00 00 00 00 00 00 00 00 00 00 00 00 00 00 00 00
       0.0 0.0 0.0 0.0
0000c0 00 00 00 00 00 00 00 00 00 00 00 00 00 00 00 00
       0.0 0.0 0.0 0.0
0000d0 00 00 00 00 00 00 00 00 00 00 00 00 00 00 00 00
       0.0 0.0 0.0 0.0
0000e0 00 00 00 00 00 00 00 00 00 00 00 00 00 00 00 00
       0.0 0.0 0.0 0.0
0000f0 00 00 00 00 00 00 00 00 00 00 00 00 00 00 00 00
       0.0 0.0 0.0 0.0

encoder.encoder.0.W_i.weight f4 [64, 147]
000000 e9 96 93 bd 51 26 4d bd ae 90 22 bd ba 64 8d 3d
       -0.07206518 -0.05008537 -0.03968876 0.06903978
000010 f1 46 c7 bd 6c 2e 90 be e1 de 17 3e f2 78 ef bd
       -0.09730328 -0.28160417 0.14831115 -0.1169299
000020 e2 d3 3f 3d 18 a4 32 be e0 7f 87 3d 7c 6d 64 bd
       0.046832927 -0.1744541 0.06616187 -0.055768475
000030 39 16 2e bd a4 2b 93 bd f1 63 82 3d 9e fd c3 bd
       -0.042501662 -0.07186058 0.063667186 -0.09569858
000040 7e fb 15 3e a0 19 c7 3c e1 4e 41 bd 3b 12 e0 3c
       0.14646718 0.024304211 -0.047194365 0.027352443
000050 7d ce 6d 3d 1c 5b c6 bd ae a4 66 be 27 e4 f6 3d
       0.05805825 -0.096853465 -0.22523758 0.12055235
000060 36 15 d3 3d 7c 32 dd bd 37 1a 23 3c a2 3f 95 3d
       0.1030678 -0.10800645 0.009954981 0.072875276
000070 74 f2 3e bd 81 54 f9 3d 38 30 13 bc f4 5b 81 be
       -0.04661794 0.12174321 -0.008983664 -0.25265467
000080 fa 63 83 bc ef 58 cc 3d d7 59 c0 bb 05 ce 94 bd
       -0.016038883 0.099779 -0.0058700847 -0.072658576
000090 2d 8b 26 bd 15 04 35 3c d7 9b 02 be b6 e3 b6 bc
       -0.040660072 0.0110483365 -0.1275476 -0.022325378
0000a0 fc 46 b8 3d 91 5f 84 3b a2 4c e5 bd d0 78 a3 bd
       0.08997914 0.0040397127 -0.11196257 -0.079820275
0000b0 46 0e 8a ba 13 5b 15 3d 93 db 0e be 96 42 80 3e
       -0.0010532818 0.03646381 -0.13950948 0.250508
0000c0 4d e6 6f bc bd 26 f7 bd f7 b9 1a 3e 3f 24 ce 3c
       -0.01464231 -0.120679356 0.15110002 0.025163768
0000d0 39 3a c4 bc 5d 5b 26 be c0 98 5c 3d 2c f3 88 bd
       -0.023953544 -0.1624579 0.05385661 -0.06687006
0000e0 d7 b8 d1 3d 04 21 ca bd 33 c2 e6 bd a6 db f7 3d
       0.102403335 -0.098695785 -0.11267509 0.121024415
0000f0 4c d0 ce bc 69 40 2c be 0c 49 0c 3d c3 14 69 bd
       -0.025245808 -0.16821446 0.03424935 -0.056904566
000100 af 62 e0 3d 27 94 55 3e c9 93 b1 3d 96 ba 63 3d
       0.109563224 0.20857297 0.08670766 0.055597864
000110 e4 5b 93 bd ee c1 0b 3d 95 a1 1a be 54 d8 02 3e
       -0.07195261 0.034120493 -0.15100701 0.12777835
000120 16 91 36 be 7f c4 a2 bd e3 7b 34 3e 0d 2f 54 3d
       -0.17828783 -0.07947635 0.17625384 0.051802684
000130 00 a8 85 bd 5c 52 06 3e f1 49 e3 3c 6c ee 67 3c
       -0.06526184 0.13117355 0.027745219 0.014155965
000140 e2 a8 84 bd c1 0b 40 3e 35 60 d0 3d b4 f4 25 3c
       -0.06477524 0.18754484 0.101746 0.010129143
000150 9d d8 00 3e 9a 82 c2 3d f6 5c 18 3e b4 d7 b0 3c
       0.12582631 0.094975665 0.14879212 0.02158723
000160 2f 2c 3c 3e 50 cb 4e bd 3a 66 cd bd fc e8 96 3b
       0.1837623 -0.050486863 -0.10029264 0.0046054106
000170 c9 59 7e bd 74 71 3e bd f1 de 96 bd 7b 4e 30 be
       -0.062097345 -0.046494916 -0.073667414 -0.17217438
000180 5e 74 d9 3c bd bc bb 3b 4d b4 66 3c d6 78 e4 bd
       0.026544746 0.0057292865 0.014081073 -0.1115586
000190 1c 8c e0 3d eb a7 7b 3d e3 17 bf 3c 21 d9 16 bd
       0.10964224 0.061439436 0.02332682 -0.036828164
0001a0 d3 e8 36 3e 39 ff 96 3d 27 f3 0e bd 2f 94 3f bd
       0.17862253 0.073728986 -0.034899857 -0.04677218
0001b0 43 e8 5c bd 0a 9e ae 3d 10 30 b1 3d 24 54 2a 3d
       -0.05393244 0.08526237 0.08651745 0.04158415
0001c0 02 cc 0b bc ef 87 1a 3e 74 fa 16 3d 76 a8 8c be
       -0.008532526 0.15090917 0.036859944 -0.27472275
0001d0 30 e1 93 3e 9d 5f b0 3d bc 70 27 3e f1 18 09 be
       0.28882742 0.08611987 0.16351599 -0.1338842
0001e0 be cb d4 3d 2e 16 85 3e fd 45 c6 bd 21 ff 98 3d
       0.10390423 0.25993484 -0.09681318 0.07470537
0001f0 7e 2b e0 ba fd 05 88 3e 78 72 70 3e c6 6f 37 bc
       -0.0017102805 0.2656707 0.23481166 -0.011196082
000200 7d 7e 45 be e2 90 c4 3d aa 00 1c 3d 75 e3 a9 be
       -0.19286533 0.09597947 0.03808657 -0.33181348
000210 bf cf 7a 3d 96 22 05 bd e3 39 09 3e 57 64 df bc
       0.06123328 -0.032503687 0.13400988 -0.027269525
000220 aa b6 af bd 12 2b 44 be e9 a9 f2 3d 42 88 f9 be
       -0.08579762 -0.19157055 0.11848814 -0.4873677
000230 2e 13 81 be ce 26 84 3d 57 b9 70 bd 81 06 be 3d
       -0.25209945 0.06452714 -0.058770504 0.09278584
000240 f4 78 38 bd 93 2d 23 be bf d0 86 3d d3 70 9d bc
       -0.045037225 -0.15935354 0.06582784 -0.019218838
000250 2c 68 64 be b0 54 c2 3d cb ef 2a 3d 57 4e 30 bc
       -0.22305363 0.09488809 0.04173259 -0.010760865
000260 10 e6 35 3d 10 aa 99 bb 40 ce a0 3d 34 5b b8 bd
       0.044408858 -0.0046894625 0.07851839 -0.090017706
000270 33 24 d5 3d 4f 8c 1c bd e4 a2 3d 3a d2 7b 80 3c
       0.10407295 -0.038219746 0.00072340504 0.015684042
000280 d1 88 8b bd 4f c8 44 3d 9a e1 61 be 90 85 5f 3c
       -0.06813205 0.04804259 -0.22058716 0.013642684
000290 00 a6 57 be 4f 88 ae 3d 22 d3 04 bd 2d a3 08 be
       -0.21059418 0.085220926 -0.032427914 -0.13343497
0002a0 08 86 84 bc 42 b3 57 bd f9 d6 2b be 9e de 82 3e
       -0.016177192 -0.052661188 -0.16781224 0.25560468
0002b0 29 73 1f be 34 21 06 bd 7a f7 22 3e 7e 04 e8 3b
       -0.15571274 -0.03274651 0.15914717 0.0070806136
0002c0 ae de 1c 3e 67 36 4b bb 8e b4 14 bd 07 82 8c 3d
       0.1531932 -0.0031007768 -0.036305003 0.06860738
0002d0 3c cd b7 3e a6 db b5 bc c9 33 08 3c aa a3 c1 3c
       0.3589877 -0.022199463 0.008313128 0.023637611
0002e0 9d e1 33 ba d8 b3 d6 3c 8e 93 88 3d 8c 0e 22 3d
       -0.0006861927 0.026208803 0.06668769 0.039564654
0002f0 51 b8 2d 3d ba e1 12 be eb fb 8b 3d f9 3a 28 bc
       0.042412106 -0.1434392 0.06835159 -0.010267966
000300 bb 3f af bd 09 06 e6 3d c6 61 03 bd 77 24 b1 3c
       -0.085570775 0.1123162 -0.032075666 0.021623833
000310 f5 89 21 bd 72 7f a5 bb 78 09 1c 3c b1 bb 19 be
       -0.039438207 -0.005050593 0.009523742 -0.15013005
000320 80 c3 0e bd 35 53 26 bd 96 99 ce 3b c1 14 be bb
       -0.034854412 -0.040606696 0.00630493 -0.005800814
000330 6a c4 24 3e 63 d5 1b bd 87 0a 7b 3b c4 76 0c be
       0.16090551 -0.0380453 0.0038305835 -0.1371718
000340 32 d3 30 bc 12 e2 2b 3d 2d 7b d7 3c 7f a3 83 bd
       -0.01079254 0.041963644 0.026303852 -0.06427669
000350 3d 9a 4a bd ca a3 bd bd 91 e2 08 3e ce 4d f4 bd
       -0.0494635 -0.09259756 0.13367678 -0.119289026
000360 f8 a1 3c 3e 6e 93 41 3e 81 94 10 3d 0d 8d 16 3e
       0.18421161 0.18903896 0.035297874 0.14702244
000370 ab f0 e4 3d 7e ff e3 3d 05 b5 9f bd 6f a4 bf 3a
       0.11178716 0.11132716 -0.077981986 0.0014621149
000380 33 de 9f bd 6c e3 13 be 3f 1c 3b 3e 37 f9 bd 3d
       -0.07806053 -0.14442223 0.18272494 0.092760496
000390 86 e2 a6 3c 7b 90 a8 3d 9e 41 33 bd 91 d5 b4 bc
       0.020371687 0.082306825 -0.04376375 -0.022074493
0003a0 78 18 b3 3d 42 00 27 3c 3f dd 2b 3d 84 32 80 3c
       0.087449014 0.010192933 0.041959044 0.015649088
0003b0 ef 8e dd bc 4d 88 97 bd b7 3f 10 bd e0 db cc bd
       -0.027045695 -0.07399044 -0.035217013 -0.10002875
0003c0 0f 41 1d be 3a ce 3f 3e 16 5b 32 bd 15 56 82 bd
       -0.15356849 0.18731013 -0.043543898 -0.06364075
0003d0 15 3d e4 bc 79 a8 5c 3c ac 78 91 3d b1 8c 5b 3d
       -0.027861157 0.013467901 0.071030945 0.05360097
0003e0 0e 54 ab bd be 2c 17 bc 19 8b d5 3c 62 2e 36 bc
       -0.083656415 -0.009226976 0.026067303 -0.011119457
0003f0 20 be b0 3c 95 00 27 be e6 e4 80 3d 6e d7 3d 3e
       0.021575034 -0.16308816 0.06293659 0.18539211

encoder.encoder.0.W_h.weight f4 [64, 64]
000000 77 ed 71 be f9 3b e4 bc a3 63 f5 be 03 58 03 3e
       -0.23625742 -0.027860628 -0.4792758 0.12826543
000010 29 f5 42 3d d0 89 39 bc 02 12 37 be e3 83 f8 bd
       0.047597084 -0.011324361 -0.17877963 -0.121345304
000020 75 65 9d 3c 62 ef ee bd a9 d0 d9 3d 81 a3 a4 bb
       0.019213418 -0.116667524 0.10635502 -0.005024374
000030 cd 51 90 3e f7 12 5f be ae 15 1a 3c f2 9a c2 bc
       0.2818741 -0.21784578 0.009404583 -0.023755524
000040 0f dd 85 be 68 72 f0 3d 4d 48 24 3d 14 0b 59 3e
       -0.26145217 0.11740571 0.040108014 0.21195632
000050 9d 0d b2 ba 22 2a 8a be ba fa cb 3c 32 11 41 be
       -0.0013584379 -0.2698527 0.02489983 -0.18854216
000060 b0 7d 82 be 83 94 a4 be 51 21 e9 bb 75 f3 42 be
       -0.25486517 -0.32144555 -0.0071145673 -0.19038184
000070 54 68 45 3e de f4 3a 3e ce d4 d9 3d a4 96 00 3e
       0.1927808 0.18257472 0.106362924 0.12557465
000080 40 a9 43 be d5 e6 8b 3e 6d 68 df bd b5 92 6a be
       -0.19107533 0.27324548 -0.109085895 -0.22907527
000090 e0 5a 80 3e c9 95 1e 3d bc 43 02 3e 39 7c 7f 3d
       0.25069332 0.038717065 0.12721151 0.062374327
0000a0 89 9a 6c 3e 44 d6 da bd c0 63 99 bd 15 b6 2c 3e
       0.23105825 -0.10685399 -0.07489729 0.16866334
0000b0 2a e7 7b 3e 12 e7 b7 bd 82 b2 d7 3c f8 da c2 bd
       0.24599901 -0.0897962 0.026330236 -0.09514421
0000c0 ff 5d ad 3d cc b4 39 3e f9 f4 a2 bd 4e 5e 18 be
       0.08465194 0.18135375 -0.07956881 -0.14879724
0000d0 b7 04 70 3d 0b f4 94 3d fc 1b ed 3d c2 fd 80 be
       0.058598246 0.0727311 0.11577603 -0.25193602
0000e0 11 d6 16 3e 98 cc 81 3e 18 d2 9f bc ce 5a 53 bd
       0.14730097 0.25351405 -0.01950936 -0.05160027
0000f0 8d de 27 3d eb 41 45 3d 9a 82 28 be 91 fb ae 3d
       0.040983725 0.048158567 -0.1645607 0.08544076
000100 45 9e 7d 3e 6c 27 e9 bc b3 0b 88 3b b8 d4 78 3e
       0.24767406 -0.02846118 0.0041517853 0.24299896
000110 ef fd 90 be 61 e4 01 3d b9 0a 80 3c 90 1d ca bd
       -0.28318736 0.03171194 0.015630113 -0.0986892
000120 13 fa bc 3d 94 1b 64 be 61 32 8b bd fa b8 b4 bb
       0.09227385 -0.22276145 -0.067967184 -0.005515215
000130 d1 83 80 bd f2 3f 33 be c1 57 2b 3e d3 10 06 3e
       -0.06275142 -0.17504862 0.16732694 0.13092355
000140 f9 51 15 3e 47 25 f4 3c 1e 58 84 bd ce 96 09 be
       0.14582051 0.029802931 -0.064621195 -0.13436434
000150 72 44 f4 3c dc 1b 8f 3e 96 b4 0d 3e cb a3 23 bd
       0.029817794 0.27950943 0.1383842 -0.039951127
000160 e5 0a 6c 3c 08 94 db bb d6 f7 31 3d 05 09 97 3d
       0.014406894 -0.0067009963 0.043449245 0.07374767
000170 f0 38 2e 3d cf d0 5c bc 0b 3e 4a bd ff bf 9f 3d
       0.04253477 -0.013477518 -0.049375575 0.07800292
000180 e9 d3 2a 3e 84 bc cf 3d 9e 0f 05 3f a7 fc 25 3d
       0.166824 0.101433784 0.51976955 0.04052415
000190 e1 a1 b1 bc b9 b4 bf bc af 1e 46 bd ca 0d a6 bd
       -0.021683635 -0.023401605 -0.048369106 -0.08108099
0001a0 72 80 2e 3e 6c 65 07 be fc d5 0e 3e 40 c8 0b 3d
       0.17041185 -0.13222283 0.13948816 0.03412652
0001b0 cc 7a 5b 3d de 09 41 be 53 b4 40 be 1f 21 b3 3d
       0.053583905 -0.1885142 -0.18818788 0.08746552
0001c0 34 b4 41 3d 50 79 68 be 58 2d 50 3d c9 5c 0c bd
       0.047290996 -0.22702527 0.050824493 -0.034268174
0001d0 60 98 73 ba 85 2a 9c 3e a1 cf 7b 3e ca 42 a9 bd
       -0.000929242 0.3050119 0.24590923 -0.08264692
0001e0 22 67 8d 3c 0f 68 16 3d 09 36 93 be ff 2b 3e bd
       0.017261092 0.03672033 -0.28752163 -0.046428677
0001f0 ea d2 fe bd de 3c 13 3d 1a 55 13 3e ac df 00 be
       -0.124425724 0.03594672 0.14387932 -0.12585324
000200 93 3e 9e 3c f4 33 e4 bd f6 ac 49 3c 18 14 9c 3e
       0.019316947 -0.11142722 0.0123093035 0.3048408
000210 57 47 9e bd 92 04 f4 3b 34 c6 bb 3d f1 ea 0d 3c
       -0.07728451 0.007446834 0.091686636 0.008661971
000220 91 fe 50 be e6 47 08 be 35 a7 d3 3d 59 b5 30 be
       -0.2040961 -0.13308677 0.103346266 -0.17256679
000230 21 2c eb bd d5 c2 8f bd 43 8f f5 3c 0b 02 28 bd
       -0.11483026 -0.07019583 0.02997554 -0.041017573
000240 88 25 20 be ff 65 ab bd d6 e7 67 3d 15 0f ac 3d
       -0.15639317 -0.083690636 0.05661758 0.08401314
000250 5f 06 21 3e 70 53 2c 3d ca 58 1d bd bf da 50 3e
       0.15725087 0.04207176 -0.038414754 0.20395945
000260 d1 1a 5d be 11 85 4a bd bf e7 61 3d e3 96 9f 3d
       -0.21592261 -0.04944331 0.05515265 0.07792451
000270 dd 06 2a 3e cd 07 0d 3e e6 9b 1f 3d d7 4b fa 3c
       0.1660418 0.13772507 0.038967036 0.030553741
000280 ff 15 70 3e e4 2f 20 3e 76 44 06 3e 41 f7 33 bd
       0.23445891 0.15643269 0.13112053 -0.04393697
000290 7f 9f 8a bd 0f 68 a7 be f4 68 8e bd c9 54 f4 bd
       -0.06768703 -0.32696578 -0.06953612 -0.11930234
0002a0 89 41 05 bd 7e fc 2f bd 08 eb 2a bd 76 d8 7b 3d
       -0.032533202 -0.042965405 -0.04172805 0.06148573
0002b0 fb 7a f4 bd c4 8b cb 3e 2d b4 95 3e 3a 96 3b 3e
       -0.11937519 0.3975507 0.29239026 0.18319026
0002c0 cf 21 e3 3d e6 25 56 bb d9 fb 8e 3e 0b 66 19 3d
       0.11090433 -0.0032676398 0.2792652 0.03745083
0002d0 c4 53 91 3d 61 4d f1 bc 80 fc e0 bc d0 ad 90 bd
       0.07096055 -0.029455842 -0.027464151 -0.07064402
0002e0 45 5b 80 3b be f9 a5 3d 92 70 75 3d b3 4c 05 3e
       0.00391713 0.08104275 0.05992181 0.1301754
0002f0 05 5f 3b bc 15 51 27 3e 50 73 2e 3e 0e 7f 7a 3d
       -0.011436229 0.16339524 0.17036176 0.061156325
000300 29 00 8b bd ef 93 0b 3e 51 48 96 be 06 6d 4f 3e
       -0.0678714 0.13630651 -0.29352048 0.20256433
000310 b6 d1 81 3d 04 30 1f 3d 22 6c 41 bd f3 8e 95 be
       0.06338827 0.03886415 -0.047222264 -0.29210624
000320 9e c6 44 bd 08 94 1e be e9 69 96 bd 2c f0 01 bd
       -0.04804098 -0.15486157 -0.073444195 -0.031723186
000330 b9 e7 36 3e 3f b9 ce be 2a ae e8 3d 1f 87 48 be
       0.17861833 -0.40375707 0.11361344 -0.19582795
000340 a7 36 75 be ef 59 df bd 89 5c a5 3e 36 a5 82 bd
       -0.2394663 -0.10905825 0.3229716 -0.06379168
000350 86 b2 ec 3d 17 b6 08 bd 8b 8b 2a 3e a5 01 cf 3d
       0.11557488 -0.03337678 0.16654794 0.101077355
000360 77 7c 55 3e a3 d1 42 3d b1 c5 9f 3c ee 5d 8f bd
       0.20848261 0.047563206 0.019503446 -0.070003375
000370 ea cb 51 be 91 59 b7 bd 06 9d 2b 3d c5 3a 45 3d
       -0.20487943 -0.0895263 0.041897796 0.04815175
000380 86 68 45 bd 9f e0 7a be 66 e1 03 be 69 35 0a be
       -0.048195384 -0.24499749 -0.12878951 -0.13496937
000390 cb e5 98 bb ff 05 49 bc aa c6 0b bc 15 a1 c7 3d
       -0.0046660653 -0.012269496 -0.008531252 0.09747521
0003a0 08 3c 6b 3e 9c 14 1d 3e 91 3e 46 3e 10 7a 45 3e
       0.22972119 0.15339893 0.19359805 0.19284844
0003b0 09 6a c9 3d 96 de 68 bc 16 89 eb bd 54 8c d3 3c
       0.09834678 -0.014213225 -0.115007564 0.02582375
0003c0 59 27 1f be 63 92 94 3d d7 3e 72 be 91 83 6c be
       -0.15542354 0.072544836 -0.23656784 -0.23097064
0003d0 8e f5 20 be da 13 81 3d 6f a3 ba bd 92 ae e2 bd
       -0.15718672 0.063026145 -0.09113204 -0.11068453
0003e0 c8 10 dd b9 39 fd 52 be f8 f8 33 3d 91 73 30 bd
       -0.00042164908 -0.2060441 0.043938607 -0.043078963
0003f0 c7 f2 35 bd 6f 7b 1e 3e 49 03 a8 bc eb d0 27 be
       -0.044420984 0.15476774 -0.020509379 -0.1638829

encoder.encoder.0.W_o.weight f4 [64, 197]
000000 e9 fa 19 be 3b 0f 82 bd 4c 93 a3 3c 18 37 b9 bd
       -0.15037121 -0.06350561 0.019967698 -0.090437114
000010 63 2e 4b bd 22 31 4c be 7f c5 02 be ab 9e 3e 3d
       -0.049604785 -0.19940618 -0.12770651 0.046538036
000020 d9 e5 2b 3e 66 ce 96 3c 68 74 8e 3d 54 d1 d1 bd
       0.16786899 0.018408965 0.069557965 -0.10245004
000030 a3 0d a2 bd 8a 9e 9c bd 5f 2b 56 3d dc 8b 87 3d
       -0.07912757 -0.076474264 0.052287456 0.06618473
000040 fd 62 01 bc c5 9d dc bd 36 5a 92 bd 34 da ed bc
       -0.007897136 -0.1077228 -0.071461126 -0.029034711
000050 a2 d4 fd bc 56 cc 55 bd 5c b9 3a bd ea e2 6d 3d
       -0.03098518 -0.052196823 -0.04558693 0.05807773
000060 4c b3 0d 3e 5f 47 cf bd 9c ca 5b 3d 5f 99 e3 3d
       0.13837928 -0.10121035 0.05366002 0.111132376
000070 bf bf 17 be 16 3e 6a bd be de 8e 3d 1a 7d b5 3d
       -0.14819239 -0.057188116 0.069760785 0.08861752
000080 b9 dc 8c bc fa ea 1a bd 10 3a 2b 3d 4e 31 ab 3d
       -0.017195093 -0.037821747 0.04180342 0.083590135
000090 3e 74 07 bd 73 a1 e1 bc b9 5f 7f 3d 25 eb b7 bd
       -0.03306984 -0.027542805 0.062347148 -0.08980397
0000a0 53 33 bb bc 71 bc 68 bd 3e 16 41 bb 1e c0 9f bd
       -0.022851622 -0.056820337 -0.002946272 -0.07800315
0000b0 43 18 ff bc 76 2a a2 3d 61 cf 17 bc 4c 99 0e be
       -0.031139499 0.07918255 -0.009265752 -0.13925666
0000c0 71 03 00 3e 2a dd 94 bd 90 5b 1b bd fb 06 e3 bd
       0.12501313 -0.07268746 -0.037929118 -0.11085316
0000d0 a9 24 cc bd 5b d6 a6 b9 32 89 bd 3d 4d a4 68 3e
       -0.0996793 -0.00031821695 0.092546836 0.22718926
0000e0 d0 d4 6d bd ba e2 77 3a b9 ff 09 3d 69 b0 40 bd
       -0.058064282 0.0009456087 0.03369114 -0.047043238
0000f0 e0 3a df bd 32 75 cf bd 20 88 96 3c 61 9b 09 bd
       -0.108999014 -0.10129775 0.018375456 -0.033595446
000100 1a 04 bc 3d 20 2b 17 bd a9 3d 2b be b1 76 42 bc
       0.0918047 -0.03690636 -0.1672274 -0.011869119
000110 e9 31 3b bd 91 9b 84 bc 48 5c 70 ba c5 c1 9b bd
       -0.045701895 -0.016187461 -0.00091690244 -0.07605318
000120 58 c1 b2 bd 28 56 3a 3d b4 59 df bb 26 5c 39 3e
       -0.08728284 0.04549232 -0.0068161134 0.18101558
000130 6f 65 36 3e 95 36 0e be b2 3a 94 bd e8 97 86 3c
       0.17812131 -0.13888009 -0.07237758 0.016429856
000140 a5 3a 09 be e7 06 0e 3d b7 4c 77 3b 61 e3 09 3d
       -0.13401277 0.03467455 0.0037734935 0.03366411
000150 a5 da 06 3e 7b 57 18 3b b1 3e e8 3c 2c 2a 98 3d
       0.13169344 0.0023245502 0.028350206 0.07429919
000160 01 31 46 3d f3 f1 14 bc 51 e0 14 bc 66 b2 db 3c
       0.048386578 -0.009090888 -0.009086684 0.026818465
000170 d3 7b c7 3c 55 c3 32 bd e5 c1 e6 bd 67 e9 8e 3d
       0.024351036 -0.043643314 -0.11267451 0.06978112
000180 90 bf 9f bd 1f f8 6c bd 36 ad f5 bd bc 18 e2 bb
       -0.078002095 -0.057853814 -0.11995928 -0.006899921
000190 73 4d cc 3d 31 21 c0 bc b7 b8 5c bd dd 34 67 be
       0.0997571 -0.023453327 -0.053887095 -0.2257876
0001a0 81 38 9f bd b1 27 f6 3d 71 6e c5 3c 37 a9 ea bd
       -0.07774449 0.12019289 0.024100514 -0.114580564
0001b0 e3 a3 a1 3d 0c b0 41 3e fc a1 c5 3d 87 ee b4 3c
       0.07892587 0.18914813 0.09650037 0.022086395
0001c0 92 f9 ea 3d ac b3 c9 3c 18 32 bb bd 01 46 3f 3e
       0.11473383 0.024621807 -0.09140414 0.18679048
0001d0 be ab f5 3d 8e 2a ac 3c cf 05 f1 3c bf cd 79 be
       0.11995648 0.021016385 0.029421715 -0.24394892
0001e0 68 83 8f 3b c8 ee 81 3d e7 26 e1 bd 44 63 4e 3d
       0.0043796785 0.06344372 -0.10993748 0.050387636
0001f0 b1 c6 a3 3d 25 ab c5 bd 58 60 f8 3d 15 19 00 bb
       0.07996882 -0.09651784 0.12127751 -0.00195462
000200 37 b7 f6 bd 85 e4 0a 3e 25 67 61 3d 06 2a a9 3d
       -0.12046664 0.13563736 0.055030007 0.082599685
000210 1a aa 8b bd 66 aa 58 3d 48 c2 a7 3d 1e 5e dd bd
       -0.06819554 0.05289688 0.08191353 -0.10808967
000220 d0 ea 85 bd 05 51 5f 3c aa e2 09 be 61 e0 c0 3b
       -0.065389276 0.013630156 -0.13465372 0.005886123
000230 d7 c9 46 be bd 24 3c be 46 a3 14 bd 77 3a b5 bd
       -0.19412933 -0.1837339 -0.036288522 -0.08849042
000240 78 83 3c bd e9 37 77 3d 7b 0d e1 bc 60 e3 c1 bd
       -0.046023816 0.060356054 -0.027472248 -0.094671965
000250 18 96 ea 3d ca b7 af 3d 90 16 91 3d 7c 4d 4d bd
       0.11454409 0.08579977 0.070843816 -0.050122723
000260 1a d7 b8 bd 0e d6 8d bd 7c 05 f8 3d 74 ae 8c bc
       -0.09025402 -0.06925593 0.12110421 -0.01717303
000270 45 15 94 bd d2 c3 27 3e f8 d3 17 be d3 2e 7f be
       -0.07230619 0.16383293 -0.14826953 -0.24920206
000280 a6 9f 05 3d 8d 6f 9c bc be d1 77 3d cc 3f 01 bd
       0.032622956 -0.01909616 0.06050276 -0.031554982
000290 70 f0 c0 3d 51 9f 2b 3d 63 0b 4c bd c1 fa a5 3e
       0.0942086 0.041899983 -0.049815547 0.32417873
0002a0 0b e0 1d bc 28 ab af bd 49 a8 51 3d 85 d2 86 3d
       -0.009635936 -0.08577567 0.05118588 0.06583122
0002b0 39 69 43 be 82 3e 0e 3e b9 95 90 bd 2a e4 80 bd
       -0.19083108 0.13891032 -0.07059807 -0.06293519
0002c0 57 7b c4 3d 59 09 fe 3b 1c 77 5e be 25 e9 a8 3d
       0.09593838 0.007752579 -0.21725124 0.08247594
0002d0 73 72 80 3e 6a ce 3c be 16 c3 db 3d da ab 2f 3e
       0.25087318 -0.18438116 0.10730569 0.171554
0002e0 e1 19 3d be 33 c6 45 be 52 46 71 3d 16 80 64 bd
       -0.18466903 -0.19313888 0.058904953 -0.055786215
0002f0 05 39 8d 3d 0c f5 ae bd eb 70 cd bc ed 86 14 3d
       0.06895641 -0.08542833 -0.025078258 0.036261488
000300 91 53 49 3b e9 f9 b6 bd 49 4b 1d be 3f 6d c4 3d
       0.0030719975 -0.08934385 -0.1536075 0.095911495
000310 2d 73 a1 3d 9a 35 17 3d 6a 25 92 3d aa 94 a2 bd
       0.07883296 0.036916353 0.071360424 -0.07938512
000320 ce 33 80 3d f8 66 1c bd 7e a4 ee 3d c6 ea c0 bc
       0.06259881 -0.038184136 0.11652468 -0.023549449
000330 70 24 ae 3d 94 41 7e 3d f6 2a 0b bd 70 b2 33 bd
       0.08503044 0.06207426 -0.033976518 -0.043871343
000340 4b 91 58 bd b3 b3 66 3e ef 16 79 bd 43 40 8e 3d
       -0.052872937 0.22529487 -0.060812887 0.06945851
000350 9c cc 5c 3e 26 ad 34 3d fc 57 0a be 1b ab ae 3d
       0.21562427 0.04411044 -0.13510126 0.085287295
000360 69 c2 0f 3c 58 96 34 be ff 3f 8d 3d c6 be 76 bd
       0.008774378 -0.17635477 0.06896972 -0.06024053
000370 ce 0a 9d bd 21 c4 5b 3d 54 53 f3 3c 11 69 33 3d
       -0.076680765 0.05365384 0.02970282 0.04380137
000380 61 59 07 be d7 2b 1d 3d 08 a6 98 3d 0b c6 e3 3c
       -0.13217689 0.038371887 0.07453543 0.027804395
000390 80 c6 09 3d d3 2b 6c 3d b4 7b ab bd 8c 01 b1 bc
       0.03363657 0.05765898 -0.08373204 -0.021607183
0003a0 39 55 8f 3c 21 10 a7 3c c4 7f 83 3d 65 eb f9 3c
       0.017496692 0.020393433 0.06420854 0.030507753
0003b0 f2 c3 21 be 50 b1 05 3e cf 78 03 3e 92 c3 00 be
       -0.15797403 0.1305592 0.12839054 -0.12574604
0003c0 cf 72 a8 bc 46 ce 89 bd 0e a9 d6 3c 8b 63 83 bc
       -0.020562558 -0.06728797 0.026203658 -0.016038677
0003d0 8f 26 95 3d 80 ac 6e 3d 50 3c 36 be ff 05 c6 bd
       0.07282745 0.058269978 -0.17796445 -0.096691124
0003e0 c7 92 08 bd 6e 78 3b be ad 8e 02 3d d9 f8 59 bd
       -0.033343103 -0.18307659 0.031874347 -0.053215835
0003f0 e2 e1 6a 3d 17 7d 94 3d 01 95 8e bd b2 c3 a7 bc
       0.057344325 0.072504215 -0.06962014 -0.020479057

encoder.encoder.0.W_o.bias f4 [64]
000000 51 c7 52 3c 79 40 1f 3c ef db 4a bb 7b c4 e6 3c
       0.012864904 0.009719961 -0.0030953845 0.028169861
000010 95 1b de bc 91 3a 95 bc 17 fc 34 3c ce 40 1a bc
       -0.027112762 -0.018216403 0.011046431 -0.009414865
000020 66 5d c3 bc 1d 47 12 3c c0 5a 58 bc 45 0b 57 3c
       -0.023848247 0.008928088 -0.01320523 0.013125245
000030 18 cc a7 3c 3f 93 f2 bb 63 a5 1c bd 71 a2 26 bd
       0.020483062 -0.007402807 -0.038243663 -0.04068226
000040 3a ed bb 3c 77 11 54 3c d9 07 84 bb a5 4e 49 3c
       0.022940267 0.012943617 -0.004029256 0.012286817
000050 40 6c 5a 3a 60 4e 43 bd d8 68 96 bc b1 6e ad ba
       0.00083321705 -0.047682166 -0.01836054 -0.0013231841
000060 5b 89 5d 3c 84 4a b4 bc 28 b0 ae 3c 31 52 18 3c
       0.013521518 -0.022008188 0.021324232 0.00929694
000070 17 59 59 3b 63 19 33 ba 04 a2 03 3d f0 f0 0c bc
       0.0033164674 -0.0006832091 0.032136932 -0.008602366
000080 7f 49 93 bc 31 dc bf bc 60 de 84 3c 1e 62 5d 3c
       -0.017979382 -0.023420425 0.016219318 0.0135121625
000090 ab 77 59 bc 94 da e4 3b 2a 29 ca b9 59 10 8d 3c
       -0.01327316 0.0069840644 -0.00038559112 0.01721971
0000a0 2f 3a 86 3b cf f1 86 bb 92 72 a7 bc 98 57 9d 3c
       0.0040962915 -0.0041181813 -0.020440374 0.019206807
0000b0 4a b1 c8 bc a3 0f b0 bc ef 8b e5 ba 85 44 ec b9
       -0.0244986 -0.021491831 -0.0017513017 -0.0004506448
0000c0 d4 f0 0c ba 9e d6 94 3c cd 28 02 3d 46 d3 52 bb
       -0.00053764624 0.018168744 0.031777192 -0.0032169386
0000d0 f3 62 fd 3b 0e ef 27 3b 44 9a eb 3b c5 7d 40 bc
       0.007732743 0.0025624665 0.0071900208 -0.011748736
0000e0 c1 ff 09 bc 10 42 9d 3c b7 fe 98 bb 21 4a da 3c
       -0.008422793 0.01919654 -0.0046690363 0.026646676
0000f0 6d 00 d5 3c cd f9 a7 3c bf 17 d1 bc 2e 65 a2 bc
       0.02600118 0.020504856 -0.025524018 -0.019823637

ffn.1.weight f4 [64, 64]
000000 41 9e 4c bc 17 3c 50 3e 93 ad b1 bd f7 f9 40 bd
       -0.012488903 0.20335422 -0.08675685 -0.047113385
000010 4c bd da bc 98 3c 2c be 04 94 8c bd e9 ea 5d bd
       -0.026701592 -0.1681999 -0.06864169 -0.054179106
000020 df fc 97 3d c9 19 9e bd c1 85 15 3e f5 c5 c5 bc
       0.07421278 -0.07719762 0.14601804 -0.024142245
000030 58 48 81 3c cf ea 79 3d 75 dd 3d bd c0 f3 56 be
       0.015781567 0.061014947 -0.046353776 -0.20991421
000040 69 6a 7d 3d a9 e9 33 bd c2 3f 42 3e b8 2b e7 3d
       0.06186906 -0.043924008 0.18969634 0.112876356
000050 1c 0b d3 3c 47 7e 89 be 13 29 92 be 9a 71 e4 3d
       0.025762133 -0.26854154 -0.28546962 0.1115448
000060 a8 1c 34 3e e5 4b 38 3e b5 b5 4c 3e 07 56 08 bc
       0.17589056 0.17997701 0.1999119 -0.008321292
000070 90 a4 f8 3b fc 3e ad bd e7 b6 1a 3e 1d 67 a3 3d
       0.0075879768 -0.08459279 0.15108834 0.07978652
000080 db a3 21 3e 5c 75 58 bd 69 9e a5 3e a9 d0 87 3d
       0.15785162 -0.052846298 0.3234742 0.06631596
000090 aa d3 77 3d cd 96 52 3e 47 c9 21 be c5 41 19 be
       0.060504593 0.20565338 -0.15799437 -0.14966495
0000a0 4c a1 6d 3d 08 7c e4 3d e9 8b 18 bc 58 30 43 bd
       0.058015153 0.111564696 -0.009310701 -0.047653526
0000b0 08 2f 8c bd 5c d1 7f 3e 88 9a 32 3e 03 36 73 bc
       -0.06844908 0.24982208 0.17441761 -0.01484442
0000c0 ca 52 80 3b 0f a6 2a bd 4b 94 07 3c 87 4e 93 3c
       0.003916119 -0.041662272 0.008275102 0.01798178
0000d0 05 62 41 bd 08 18 a9 3d 2e 70 87 bd 88 f1 0f be
       -0.04721262 0.08256537 -0.066131935 -0.1405698
0000e0 67 87 5e bd e5 31 42 be e2 b7 d1 3d 70 73 0a 3e
       -0.05432835 -0.18964346 0.10240151 0.13520598
0000f0 6f 42 2a be 73 6c 13 be 6b a8 80 3d f2 36 f1 bd
       -0.16626905 -0.14396839 0.06282123 -0.11778058
000100 87 d2 d7 bd 1c 6c fa 3d cd 8d a8 3d 12 3b 2c bd
       -0.10538202 0.122276515 0.08230171 -0.04204852
000110 8d 71 52 3e ca 7d 33 3c 7d a5 f0 bd ec 9b 48 3c
       0.20551129 0.010955283 -0.117503144 0.012244206
000120 30 68 23 be 27 1e 23 3e 9f 18 4c 3c 2e 9c 4c 3d
       -0.15957713 0.15929471 0.012457042 0.049953632
000130 77 9a 89 bd 79 73 5e 3d 92 9d fa bd d0 8e bd 3c
       -0.06718915 0.054309342 -0.122370854 0.023139387
000140 8a de 26 3d 54 14 4a bd b2 66 7b 3c 90 fe 36 be
       0.040739574 -0.049335793 0.015344309 -0.17870545
000150 ee 28 80 3d 90 e7 25 be 93 0c ed 3c ec 3d b8 3c
       0.06257807 -0.16201615 0.02893666 0.022490464
000160 38 13 7a bd 20 02 58 3e 34 05 e2 bc 04 50 0c 3c
       -0.061053485 0.2109456 -0.027590372 0.008563999
000170 05 a0 59 bd d3 44 5d 3d c3 a2 77 bb 2d d3 25 be
       -0.053131122 0.054020714 -0.0037786223 -0.16193838
000180 83 65 ac bd 5b 83 2d be 77 d3 b9 bd 2f 6a 68 3e
       -0.08417799 -0.1694464 -0.09073537 0.22696756
000190 f8 b1 60 3d b5 97 9c bd ba 74 f7 3c 2c 5d 01 3c
       0.054857224 -0.07646123 0.030207027 0.007895749
0001a0 b6 47 19 bd 55 1b f5 3d 1f f6 0c bc eb 5a 1a bd
       -0.037421905 0.11968104 -0.008603602 -0.037684362
0001b0 c6 f8 26 be 09 d4 74 3e 1b 68 ad 3d dd 3d 4a be
       -0.16305837 0.2390901 0.08467122 -0.19750161
0001c0 6c 6d 87 3e fc 4b 4d 3e 9f 80 01 be 01 ae 08 be
       0.2645067 0.20048517 -0.12646721 -0.13347627
0001d0 6d 19 26 be e9 14 39 3c fa f9 1b be 21 58 7e 3d
       -0.16220637 0.011296489 -0.15232077 0.062095765
0001e0 d3 f4 5f 3e 7e 28 e9 bc 38 13 25 3d 07 7c 66 bd
       0.21870737 -0.028461691 0.04030153 -0.056270625
0001f0 f5 d2 02 3e 1d 37 a9 3d 29 ff 18 be 70 0e 8f be
       0.12775786 0.08262465 -0.14941086 -0.27940702
000200 4f 9f f7 3d 4b 6e 8f bd d9 c6 4c 3e 66 ca bd bb
       0.120909326 -0.070034586 0.1999773 -0.00579195
000210 67 a0 1f bd f4 eb 5d bd d7 44 94 3c 33 29 f7 3c
       -0.03897133 -0.0541801 0.018099232 0.030171013
000220 0c 78 9d 3e 6e 0a 2e 3e 23 e7 99 3c d0 6b 1e be
       0.3075565 0.16996166 0.018786972 -0.15470815
000230 8a d0 91 3c 32 f0 a1 bd bd 01 c5 bd ea 62 b2 3c
       0.017799634 -0.07907142 -0.09619472 0.021775682
000240 b3 65 58 3e 7b 15 1e 3d 24 1c 85 bd b2 6f 67 bd
       0.21132545 0.038594704 -0.06499508 -0.056503005
000250 fe a7 98 3e 11 bf 3e be 2f 69 21 3e 15 4e 65 3c
       0.29815668 -0.18627574 0.1576278 0.013995667
000260 45 18 2b be e8 27 0b 3d fe 9a a2 bd 60 d6 03 3e
       -0.16708477 0.033973604 -0.07939719 0.12874746
000270 9e 94 97 3d 9e 38 09 3d b0 cd 21 3e 63 3b 26 3e
       0.07401393 0.03350126 0.1580112 0.16233592
000280 38 8e a5 bd f5 d2 98 bb ee b7 0e 3e 8d 9a 81 bc
       -0.08083767 -0.00466382 0.13937351 -0.015820766
000290 79 13 fa 3c a1 eb 00 be 2a c4 b6 bd a3 8c 15 3e
       0.030526863 -0.12589885 -0.08924134 0.1460443
0002a0 b6 6d 99 3e 4a dc 5e bd af 23 2f 3d a2 3c 89 3e
       0.29966515 -0.054409303 0.04275864 0.26804072
0002b0 6b 5c 76 bd e5 e4 85 3d 9b d1 f1 3d d2 48 1b be
       -0.06014673 0.06537799 0.11807557 -0.15164497
0002c0 86 f4 28 3d a9 38 a6 3b 41 a2 32 be 48 b7 2e be
       0.04124882 0.0050726724 -0.17444707 -0.17062104
0002d0 31 59 dd 3d 1d d8 25 3d 0c 45 33 be 33 14 b4 3d
       0.108080275 0.040489305 -0.17506808 0.08792915
0002e0 59 cb 22 3e 6f 46 a9 bd 85 91 c4 bc fd c6 ab be
       0.15897883 -0.08265387 -0.02399517 -0.33550254
0002f0 fe e5 34 3e 4f d7 c8 3c 3d b1 dd 3d ab fe e9 bc
       0.1766586 0.02451673 0.10824821 -0.028563818
000300 a8 39 8c 3c c1 fe 96 bc cd fd 8b 3e 46 6e 39 be
       0.017117336 -0.018432023 0.27342072 -0.18108472
000310 da 30 16 3d 95 16 36 3e ca 82 ca 3c e2 59 b6 3d
       0.036667682 0.17782052 0.024720568 0.089038625
000320 1b af cd 3d be d9 1a 3e 30 3b c0 bc 3b 60 35 3d
       0.10043164 0.15122125 -0.023465723 0.044281226
000330 43 5a ad 3d e5 c1 5d 3d 79 79 7c bd 89 ec b1 3c
       0.08464482 0.05413999 -0.061639283 0.021719234
000340 f6 7f 3e 3e a8 ba 15 3d 92 0a 00 be 97 a4 e6 bc
       0.186035 0.036554962 -0.12504032 -0.028154654
000350 0f 35 7d bd d4 14 0b be 37 e8 81 bd b9 05 40 bd
       -0.06181818 -0.13582164 -0.063431196 -0.046880458
000360 35 67 9e bd aa ea bf 3c 7b 55 52 3e 5d 79 0a 3d
       -0.07734529 0.023427326 0.2054042 0.033807147
000370 e3 84 1c be d4 e8 2b be fc 4e 40 3e 83 c2 20 be
       -0.15285067 -0.16788036 0.1878013 -0.156992
000380 b8 35 3f bd 07 71 67 3e a6 3a f1 3d 92 18 5d bd
       -0.04668209 0.2260171 0.117787644 -0.05397851
000390 4a 1a 61 bd aa 8e c0 bd fa 48 40 be 91 4c 49 bc
       -0.05495671 -0.09402211 -0.18777838 -0.012286321
0003a0 48 94 34 3e 3b da f4 bd 30 d2 94 3c b4 c1 23 3e
       0.1763469 -0.11955687 0.018166631 0.1599186
0003b0 df 38 68 3e 60 32 e7 3d 0f d9 8e be d7 f6 b5 bd
       0.22677945 0.11288905 -0.27899978 -0.088849716
0003c0 c1 53 b8 3d 7d 58 70 3b 1f a2 8f bd 30 d9 2f 3e
       0.0900035 0.0036673837 -0.07013344 0.17172694
0003d0 65 be bd 3d 5b b2 55 3d 44 4b 28 3e af 50 67 be
       0.092648305 0.052172046 0.16434962 -0.22589372
0003e0 07 d2 ee 3d 22 fe d6 bd 15 f4 bd bd 83 c9 de bd
       0.11661153 -0.10497691 -0.092750706 -0.10878279
0003f0 ec 67 38 bc 2e b8 2b be ca b0 18 3d fa 44 4a 38
       -0.011255246 -0.16769478 0.037277974 4.8224792e-05

ffn.1.bias f4 [64]
000000 c0 39 99 3d 40 53 d4 3c 48 a1 eb 3c 2a 88 39 3d
       0.07481718 0.025918603 0.028763428 0.04529587
000010 22 cc 94 3c 3e f7 37 3d af df d6 3a e0 83 81 3c
       0.018163744 0.044913523 0.0016393567 0.015809953
000020 e9 86 55 3d 71 a7 f8 bc 7e 66 10 3d a2 61 c0 3c
       0.052130613 -0.03035328 0.035253994 0.023484055
000030 f2 90 80 3d 00 c6 be 3d 6a 99 90 3c 8b 12 62 3d
       0.06277646 0.09315109 0.017651279 0.055193465
000040 9b 37 92 b9 1d 7f 06 3c 14 3b b5 3b f6 ba ea ba
       -0.0002788872 0.008209017 0.0055307243 -0.0017908502
000050 da 70 93 3d c2 38 10 3d 0f f1 3f 3d 3a 1b 1d 3d
       0.07199259 0.03521038 0.04686075 0.038356043
000060 d6 cf 33 bc 5c 33 28 3d c6 67 01 3d 9d 08 a8 3c
       -0.010974845 0.041064605 0.031593107 0.02051192
000070 a2 89 e2 3c a2 36 ff 3b c3 bc 23 3d 06 66 42 3d
       0.027653519 0.007788495 0.03997494 0.04746058
000080 3a 06 9a bc fa 19 65 3c 70 2e c5 3c 45 98 bd 3c
       -0.018801797 0.013983244 0.024069995 0.023143897
000090 c2 b2 a2 3d 38 7b 07 3d 4d cf 26 3d 74 a1 ff 3b
       0.079442516 0.033076495 0.04072504 0.007801229
0000a0 67 5b 69 3d ba 0f bb 3c a8 89 ba 3c 1b ea 24 bd
       0.056971934 0.022834647 0.022770718 -0.040262323
0000b0 d5 2a c8 3c d3 fb 1e 3d 67 6c 15 3d ed be 7f bd
       0.024434486 0.038814377 0.036480334 -0.06243794
0000c0 2c 1f 49 3c c3 b3 49 3d 26 71 18 3d 99 27 13 3d
       0.012275498 0.0492437 0.03721728 0.035926435
0000d0 5d ca e7 3c aa 45 cc 3c e8 fb ba 3c c2 6b b7 3c
       0.028294737 0.024935562 0.022825196 0.02239025
0000e0 4a ca b6 3c f4 84 bf 3c b6 5b 8a 3c dd 20 13 bd
       0.022313256 0.023378827 0.016889434 -0.035920013
0000f0 c6 2c 2e bc ae d3 d0 3c 1f ce 08 ba 73 ee 35 3d
       -0.010630792 0.025491562 -0.0005218703 0.044416856

ffn.4.weight f4 [1, 64]
000000 2c 3a 64 3d 7a 0b d2 3e 68 c7 4d 3d 77 ec 4a 3e
       0.05571954 0.4102438 0.050238997 0.19816767
000010 59 55 31 3e d7 14 f3 bd b5 31 76 be 18 2b 47 be
       0.17317714 -0.11869209 -0.24042399 -0.19450033
000020 13 1b 62 3d eb 88 8c 3c 56 93 70 3e ed 3f 89 be
       0.0552016 0.017155131 0.23493704 -0.26806584
000030 fc dc 81 be 1a 9b 1b 3e 64 72 05 be a3 05 19 be
       -0.2536391 0.15195885 -0.13031918 -0.14943556
000040 69 a5 fa bd d9 5c 35 be 92 90 c2 3d 26 0a 26 be
       -0.12238581 -0.177112 0.09500231 -0.16214809
000050 04 9c 45 3e 18 db 37 be 71 23 b7 be 83 5c d8 3d
       0.19297796 -0.17954671 -0.35769227 0.1056452
000060 73 81 18 be dc d9 be be 65 55 80 be 03 a2 8f be
       -0.14893131 -0.3727559 -0.2506515 -0.28053293
000070 85 3f 21 3d 83 6d cf 3d b2 5e 8f 3e ac 4e 45 3e
       0.039367218 0.101283096 0.28001934 0.19268292
000080 07 c4 b1 bd 57 c5 44 be 32 11 34 be d5 06 6f be
       -0.086799674 -0.19215904 -0.17584684 -0.2334245
000090 4e 45 28 be d3 21 02 be e3 ac a1 3d cc 80 26 3d
       -0.16432688 -0.12708215 0.07894304 0.040650174
0000a0 1c b5 b8 3e 2b 99 62 3e bb a2 c0 3d cb ec 04 3e
       0.36075675 0.22128741 0.094060384 0.12980954
0000b0 82 a9 d5 bd d5 5a 1d be ee 60 24 3e 89 98 4f 3d
       -0.10432722 -0.15366681 0.160526 0.05068258
0000c0 44 0a 11 3f 6c 14 79 3e a9 12 8a be 71 3d b4 be
       0.5665629 0.24324197 -0.26967362 -0.35203126
0000d0 3a e9 2c 3e d8 29 a5 3e b1 e3 6d 3d d5 03 68 be
       0.16885844 0.32258487 0.05807847 -0.22657712
0000e0 f0 4f 90 3d b5 69 24 3e 2a cc 65 3e bd 88 96 bb
       0.07046497 0.16055949 0.22441164 -0.004593937
0000f0 af 2b 46 bd 0e 9b a4 bd 81 1b 43 be 24 ed 8a 3e
       -0.048381504 -0.08037387 -0.1905346 0.2713405
