githubproject/lbdd/amse_build/mmodel14/checkpoints_2_folds/fold_2/model_0/model.pt (torch, 127883 bytes, 8 tensors)

encoder.encoder.0.cached_zero_vector f4 [64]
0.0 0.0 0.0 0.0 0.0 0.0 0.0 0.0
0.0 0.0 0.0 0.0 0.0 0.0 0.0 0.0
0.0 0.0 0.0 0.0 0.0 0.0 0.0 0.0
0.0 0.0 0.0 0.0 0.0 0.0 0.0 0.0
0.0 0.0 0.0 0.0 0.0 0.0 0.0 0.0
0.0 0.0 0.0 0.0 0.0 0.0 0.0 0.0
0.0 0.0 0.0 0.0 0.0 0.0 0.0 0.0
0.0 0.0 0.0 0.0 0.0 0.0 0.0 0.0
00000000: 0000 0000 0000 0000 0000 0000 0000 0000
00000010: 0000 0000 0000 0000 0000 0000 0000 0000
00000020: 0000 0000 0000 0000 0000 0000 0000 0000
00000030: 0000 0000 0000 0000 0000 0000 0000 0000
00000040: 0000 0000 0000 0000 0000 0000 0000 0000
00000050: 0000 0000 0000 0000 0000 0000 0000 0000
00000060: 0000 0000 0000 0000 0000 0000 0000 0000
00000070: 0000 0000 0000 0000 0000 0000 0000 0000
00000080: 0000 0000 0000 0000 0000 0000 0000 0000
00000090: 0000 0000 0000 0000 0000 0000 0000 0000
000000a0: 0000 0000 0000 0000 0000 0000 0000 0000
000000b0: 0000 0000 0000 0000 0000 0000 0000 0000
000000c0: 0000 0000 0000 0000 0000 0000 0000 0000
000000d0: 0000 0000 0000 0000 0000 0000 0000 0000
000000e0: 0000 0000 0000 0000 0000 0000 0000 0000
000000f0: 0000 0000 0000 0000 0000 0000 0000 0000

encoder.encoder.0.W_i.weight f4 [64, 147]
-0.07206518 -0.05008537 -0.03968876 0.06903978 -0.15753886 -0.25201666 0.15517606 -0.14845593
0.046832927 -0.1744541 0.06616187 -0.055768475 -0.042501662 0.016607938 0.013867659 -0.08027023
0.12584896 0.024304211 -0.047194365 0.027352443 0.05805825 -0.096853465 -0.22523758 0.12055235
0.1030678 -0.10800645 0.009954981 0.072875276 -0.04661794 0.12174321 -0.008983664 -0.25265467
-0.016038883 0.11472349 -0.0058700847 -0.072658576 -0.040660072 0.0110483365 -0.1275476 -0.022325378
0.08997914 0.0040397127 -0.11196257 -0.079820275 -0.0010532818 0.03646381 -0.13950948 0.250508
-0.01464231 -0.120679356 0.15110002 0.025163768 -0.023953544 -0.1624579 0.05385661 -0.06687006
0.102403335 -0.098695785 -0.11267509 0.121024415 -0.025245808 -0.16821446 0.03424935 -0.056904566
0.109563224 0.20857297 0.08670766 0.055597864 -0.07195261 0.034120493 -0.15100701 0.12777835
-0.17828783 -0.07947635 0.17625384 0.051802684 -0.06526184 0.13117355 0.027745219 0.014155965
-0.06477524 0.18754484 0.101746 0.010129143 0.12582631 0.094975665 0.14879212 0.02158723
0.1837623 -0.050486863 -0.10029264 0.0046054106 -0.062097345 -0.046494916 -0.073667414 -0.17217438
0.026544746 0.0057292865 0.014081073 -0.1115586 0.10964224 0.061439436 -0.0052599874 0.015478494
0.15669267 0.12918682 -0.051758915 -0.04677218 0.012403757 0.08526237 0.09960573 0.04158415
-0.014262333 0.09440261 0.040941026 -0.13935493 0.1596771 0.08611987 0.16351599 -0.12590723
0.0747524 0.28901613 -0.09681318 0.07470537 -0.0017102805 0.24543783 0.21388546 0.035022993
-0.20972468 0.09597947 0.03808657 -0.31716433 0.06103122 -0.032503687 0.1356838 -0.0006165355
-0.06660818 -0.081614405 0.11150793 -0.40826333 -0.25367838 0.06452714 0.023727044 0.11185101
-0.045037225 -0.15935354 0.06582784 -0.019218838 -0.22305363 0.09488809 0.04173259 -0.029083224
0.059351142 -0.08451721 0.09805184 -0.08315897 0.10407295 -0.038219746 0.00072340504 0.015684042
-0.05218934 -0.00016142058 -0.1620653 0.0014654157 -0.21059418 0.085220926 -0.032427914 -0.13343497
-0.016177192 -0.052661188 -0.16781224 0.25560468 -0.15571274 -0.03274651 0.15914717 0.0070806136
0.1531932 -0.0031007768 -0.036305003 0.06860738 0.29921684 -0.053581886 0.008313128 0.023637611
-0.0006861927 0.026208803 0.06668769 0.039564654 0.042412106 -0.1434392 0.06835159 -0.010267966
-0.085570775 0.1123162 -0.032075666 0.021623833 -0.039438207 -0.005050593 0.009523742 -0.16484527
-0.034854412 -0.040606696 0.00630493 -0.005800814 0.16090551 -0.0380453 0.0038305835 -0.1371718
-0.01079254 0.041963644 0.026303852 -0.06427669 -0.0494635 -0.09259756 0.13367678 -0.119289026
0.18421161 0.18903896 0.035297874 0.14702244 0.11178716 0.11132716 -0.077981986 0.0014621149
-0.07806053 -0.14442223 0.18272494 0.092760496 0.020371687 0.082306825 -0.04376375 -0.022074493
0.087449014 0.010192933 0.041959044 0.015649088 -0.027045695 -0.07399044 -0.035217013 -0.10002875
-0.15356849 0.18731013 -0.043543898 -0.06364075 -0.027861157 0.013467901 0.071030945 0.05360097
-0.083656415 -0.04212672 0.03424234 0.0016358218 0.020811195 -0.17321806 0.06293659 0.14317465
00000000: e996 93bd 5126 4dbd ae90 22bd ba64 8d3d
00000010: de51 21be 5408 81be 79e6 1e3e d504 18be
00000020: e2d3 3f3d 18a4 32be e07f 873d 7c6d 64bd
00000030: 3916 2ebd 5f0d 883c 2d35 633c b864 a4bd
00000040: 8dde 003e a019 c73c e14e 41bd 3b12 e03c
00000050: 7dce 6d3d 1c5b c6bd aea4 66be 27e4 f63d
00000060: 3615 d33d 7c32 ddbd 371a 233c a23f 953d
00000070: 74f2 3ebd 8154 f93d 3830 13bc f45b 81be
00000080: fa63 83bc 26f4 ea3d d759 c0bb 05ce 94bd
00000090: 2d8b 26bd 1504 353c d79b 02be b6e3 b6bc
000000a0: fc46 b83d 915f 843b a24c e5bd d078 a3bd
000000b0: 460e 8aba 135b 153d 93db 0ebe 9642 803e
000000c0: 4de6 6fbc bd26 f7bd f7b9 1a3e 3f24 ce3c
000000d0: 393a c4bc 5d5b 26be c098 5c3d 2cf3 88bd
000000e0: d7b8 d13d 0421 cabd 33c2 e6bd a6db f73d
000000f0: 4cd0 cebc 6940 2cbe 0c49 0c3d c314 69bd
00000100: af62 e03d 2794 553e c993 b13d 96ba 633d
00000110: e45b 93bd eec1 0b3d 95a1 1abe 54d8 023e
00000120: 1691 36be 7fc4 a2bd e37b 343e 0d2f 543d
00000130: 00a8 85bd 5c52 063e f149 e33c 6cee 673c
00000140: e2a8 84bd c10b 403e 3560 d03d b4f4 253c
00000150: 9dd8 003e 9a82 c23d f65c 183e b4d7 b03c
00000160: 2f2c 3c3e 50cb 4ebd 3a66 cdbd fce8 963b
00000170: c959 7ebd 7471 3ebd f1de 96bd 7b4e 30be
00000180: 5e74 d93c bdbc bb3b 4db4 663c d678 e4bd
00000190: 1c8c e03d eba7 7b3d f95b acbb 8299 7d3c
000001a0: 0b74 203e 8d49 043e 2801 54bd 2f94 3fbd
000001b0: 2139 4b3c 0a9e ae3d 17fe cb3d 2454 2a3d
000001c0: 8fac 69bc 2856 c13d c7b1 273d 0fb3 0ebe
000001d0: 6582 233e 9d5f b03d bc70 273e d3ed 00be
000001e0: c917 993d ecf9 933e fd45 c6bd 21ff 983d
000001f0: 7e2b e0ba 0e54 7b3e ca04 5b3e 4574 0f3d
00000200: 11c2 56be e290 c43d aa00 1c3d 5d63 a2be
00000210: dffb 793d 9622 05bd b2f0 0a3e ff9e 21ba
00000220: df69 88bd 7425 a7bd 455e e43d e407 d1be
00000230: 22e2 81be ce26 843d 385f c23c 2412 e53d
00000240: f478 38bd 932d 23be bfd0 863d d370 9dbc
00000250: 2c68 64be b054 c23d cbef 2a3d f13f eebc
00000260: 2f1a 733d 5c17 adbd 67cf c83d 404f aabd
00000270: 3324 d53d 4f8c 1cbd e4a2 3d3a d27b 803c
00000280: 7dc4 55bd 0243 29b9 72f4 25be 3113 c03a
00000290: 00a6 57be 4f88 ae3d 22d3 04bd 2da3 08be
000002a0: 0886 84bc 42b3 57bd f9d6 2bbe 9ede 823e
000002b0: 2973 1fbe 3421 06bd 7af7 223e 7e04 e83b
000002c0: aede 1c3e 6736 4bbb 8eb4 14bd 0782 8c3d
000002d0: f332 993e ae78 5bbd c933 083c aaa3 c13c
000002e0: 9de1 33ba d8b3 d63c 8e93 883d 8c0e 223d
000002f0: 51b8 2d3d bae1 12be ebfb 8b3d f93a 28bc
00000300: bb3f afbd 0906 e63d c661 03bd 7724 b13c
00000310: f589 21bd 727f a5bb 7809 1c3c 33cd 28be
00000320: 80c3 0ebd 3553 26bd 9699 ce3b c114 bebb
00000330: 6ac4 243e 63d5 1bbd 870a 7b3b c476 0cbe
00000340: 32d3 30bc 12e2 2b3d 2d7b d73c 7fa3 83bd
00000350: 3d9a 4abd caa3 bdbd 91e2 083e ce4d f4bd
00000360: f8a1 3c3e 6e93 413e 8194 103d 0d8d 163e
00000370: abf0 e43d 7eff e33d 05b5 9fbd 6fa4 bf3a
00000380: 33de 9fbd 6ce3 13be 3f1c 3b3e 37f9 bd3d
00000390: 86e2 a63c 7b90 a83d 9e41 33bd 91d5 b4bc
000003a0: 7818 b33d 4200 273c 3fdd 2b3d 8432 803c
000003b0: ef8e ddbc 4d88 97bd b73f 10bd e0db ccbd
000003c0: 0f41 1dbe 3ace 3f3e 165b 32bd 1556 82bd
000003d0: 153d e4bc 79a8 5c3c ac78 913d b18c 5b3d
000003e0: 0e54 abbd 118d 2cbd b241 0c3d 1269 d63a
000003f0: 3d7c aa3c 1360 31be e6e4 803d 609c 123e

encoder.encoder.0.W_h.weight f4 [64, 64]
-0.24396199 -0.067805685 -0.3811284 0.10724188 0.041611176 -0.07847534 0.042558312 -0.0827566
0.026893774 -0.19212045 0.10480428 -0.1904379 0.27627245 -0.2544247 0.05295338 0.03817777
0.012917902 0.08748218 0.07125952 0.27656108 0.029471016 -0.30877942 0.034327082 -0.15701504
-0.24568105 -0.3388562 0.06783745 -0.22629608 0.21313208 0.16346566 0.07169147 0.18025038
-0.22654128 0.23745884 -0.08979638 -0.19529258 0.1996869 0.010604583 0.031481873 0.002871175
0.20105033 -0.16135453 -0.09121553 0.12056421 0.14005905 -0.13040641 -0.004640184 -0.069104746
0.088439144 0.16534519 -0.03524532 -0.16366374 -0.026961092 -0.019446585 0.03222881 -0.18875858
0.1422806 0.19858582 0.061151672 0.05234723 0.019572394 0.0728883 -0.18473329 0.11039681
0.16794856 -0.030174876 -0.096663274 0.22907609 -0.288243 0.036506243 0.119150884 -0.121964395
0.112109534 -0.22168632 -0.066028684 -0.004150307 -0.047725026 -0.17699885 0.10683671 0.13413927
0.12005721 -0.0029795105 -0.065022126 -0.12437103 0.04341902 0.27777782 0.121690944 -0.046242364
0.0047376016 -0.014294127 0.0219486 0.075972885 0.009695488 -0.026979975 -0.0655118 0.054487526
0.16311057 0.11765651 0.54741776 0.02975271 -0.04033734 -0.038256206 -0.039792974 -0.10627781
0.16906178 -0.10573922 0.13410155 -0.03740999 0.02790193 -0.21506613 -0.21411009 0.072796434
0.057757374 -0.2651641 0.051512443 -0.031204041 0.009506137 0.3117621 0.2716592 -0.08076026
0.022851035 -0.017472913 -0.28311542 -0.055460904 -0.11274714 0.0047095423 0.13757269 -0.10059959
0.09431212 -0.08703282 -0.08549664 0.34477264 -0.04598308 -0.10217809 0.225422 -0.0837577
-0.25574175 -0.2171612 0.070291914 -0.2123074 -0.2065288 -0.06852516 0.003829999 -0.06834493
-0.15120697 -0.1528236 0.025663499 0.0054733986 0.23811603 -0.008296893 -0.038755197 0.1934821
-0.2361256 -0.06442075 0.022984335 0.019917486 0.1541713 0.11373902 -0.0046720197 -0.010777431
0.16515748 0.1666064 0.11343788 -0.118218794 -0.07603958 -0.28226286 -0.06380318 -0.1602463
-0.11926004 0.029295107 -0.06252141 0.05922258 -0.17074567 0.44002664 0.2187183 0.11101824
0.042931575 -0.033461288 0.23770086 -0.013926317 0.13275038 -0.008479686 -0.18398823 -0.124325685
-0.09853611 0.06438836 0.011745003 0.07125964 -0.068711124 0.16783895 0.07122229 0.12640177
-0.024058415 0.11035276 -0.3050339 0.16102816 0.07424944 -0.027768336 0.1442868 -0.2189422
0.030889146 -0.17364301 -0.044217583 -0.054582503 0.12953915 -0.40086937 0.11878265 -0.1662562
-0.27413696 -0.09010811 0.34677276 -0.05044592 0.11444911 -0.013016889 0.13065523 0.102223806
0.19054013 0.032091398 0.04049366 -0.12171525 -0.20440966 -0.10614983 0.021820458 0.05749522
-0.051675882 -0.3082631 -0.11300781 -0.13685639 -0.010473788 -0.046231005 -0.017915225 0.07281564
0.22298224 0.12750524 0.19687554 0.1799753 -0.045965258 -0.010915894 -0.09783656 -0.039869774
-0.17496549 0.098487936 -0.22764081 -0.2558183 -0.19621533 0.038256425 -0.115706034 -0.09835193
-0.009899473 -0.15864472 0.03643466 -0.004821333 -0.020824969 0.09898522 -0.03905558 -0.15248498
00000000: 2cd1 79be b5dd 8abd 4323 c3be a1a1 db3d
00000010: 7b70 2a3d aeb7 a0bd a051 2e3d 4b7c a9bd
00000020: 5550 dc3c 39bb 44be a0a3 d63d 2702 43be
00000030: 9573 8d3e f443 82be a5e5 583d 4b60 1c3d
00000040: 9ca5 533c db29 b33d 83f0 913d 6a99 8d3e
00000050: 336d f13c 5618 9ebe 8e9a 0c3d 8dc8 20be
00000060: d093 7bbe 8f7e adbe 5cee 8a3d 29ba 67be
00000070: 4c3f 5a3e 8b63 273e fad2 923d 8e93 383e
00000080: 70fa 67be 6928 733e 2ae7 b7bd c7fa 47be
00000090: b97a 4c3e d8be 2d3c 23f3 003d 532a 3c3b
000000a0: 23e0 4d3e 1f3a 25be 35cf babd 5eea f63d
000000b0: a46b 0f3e 4289 05be af0c 98bb ca86 8dbd
000000c0: 951f b53d 4050 293e 665d 10bd 7897 27be
000000d0: 82dd dcbc 724e 9fbc 5b02 043d ee49 41be
000000e0: 01b2 113e 155a 4b3e 2d7a 7a3d 0d6a 563d
000000f0: 4956 a03c 7646 953d b92a 3dbe b917 e23d
00000100: b5fa 2b3e 4d31 f7bc 65f7 c5bd ec92 6a3e
00000110: 9694 93be 9287 153d 6105 f43d 78c8 f9bd
00000120: af99 e53d bd01 63be 0c3a 87bd 4cff 87bb
00000130: 517b 43bd 303f 35be 34cd da3d ce5b 093e
00000140: 8ee0 f53d e443 43bb 522a 85bd 3db6 febd
00000150: 24d8 313d e538 8e3e 1a39 f93d a268 3dbd
00000160: e23d 9b3b ea31 6abc 8dcd b33c ac97 9b3d
00000170: d3d9 1e3c 1c05 ddbc 0d2b 86bd 502e 5f3d
00000180: 7506 273e e5f5 f03d 9223 0c3f f5bb f33c
00000190: c438 25bd 8ab2 1cbd f5fd 22bd 2ea8 d9bd
000001a0: 881e 2d3e ce8d d8bd eb51 093e 383b 19bd
000001b0: 9792 e43c 4c3a 5cbe ad3f 5bbe 4c16 953d
000001c0: ff92 6c3d 97c3 87be b6fe 523d 9e9f ffbc
000001d0: a1bf 1b3c 489f 9f3e ea16 8b3e a365 a5bd
000001e0: 1832 bb3c 5b23 8fbc 81f4 90be f92a 63bd
000001f0: f9e7 e6bd 8152 9a3b dbdf 0c3e 2807 cebd
00000200: b626 c13d 433e b2bd dd18 afbd 0a86 b03e
00000210: c158 3cbd bf42 d1bd 06d5 663e 2889 abbd
00000220: 95f0 82be 815f 5ebe 35f5 8f3d 1c67 59be
00000230: 497c 53be eb56 8cbd b800 7b3b 6df8 8bbd
00000240: 00d6 1abe ca7d 1cbe 423c d23c 325a b33b
00000250: b0d4 733e b1ef 07bc c5bd 1ebd 2c20 463e
00000260: e9ca 71be 07ef 83bd a549 bc3c ff29 a33c
00000270: 15df 1d3e 01f0 e83d be17 99bb d293 30bc
00000280: 0b1f 293e de9a 2a3e 1f52 e83d b21c f2bd
00000290: a4ba 9bbd c284 90be 3eab 82bd 9b17 24be
000002a0: 9c3e f4bd 4bfc ef3c 3a0b 80bd 6093 723d
000002b0: f4d7 2ebe 2c4b e13e b1f7 5f3e 885d e33d
000002c0: 05d9 2f3d b40e 09bd db67 733e 352b 64bc
000002d0: b7ef 073e 62ee 0abc 6967 3cbe 779e febd
000002e0: 4dcd c9bd 0bde 833d 1d6e 403c 93f0 913d
000002f0: 6bb8 8cbd f9dd 2b3e fedc 913d 776f 013e
00000300: 2716 c5bc a100 e23d 672d 9cbe 91e4 243e
00000310: 1710 983d 6c7a e3bc ebbf 133e 6232 60be
00000320: 3c0b fd3c 79cf 31be 7f1d 35bd e791 5fbd
00000330: e9a5 043e c03e cdbe 5144 f33d 113f 2abe
00000340: ae5b 8cbe 9a8a b8bd 338c b13e 62a0 4ebd
00000350: 4c64 ea3d ca44 55bc 7cca 053e b75a d13d
00000360: f41c 433e 4572 033d aedc 253d d845 f9bd
00000370: c450 51be 1565 d9bd d1c0 b23c 1c80 6b3d
00000380: 17aa 53bd a9d4 9dbe a470 e7bd 1524 0cbe
00000390: 409a 2bbc b95c 3dbd f3c2 92bc 5e20 953d
000003a0: 7555 643e bc90 023e be99 493e 724b 383e
000003b0: 1146 3cbd 94d8 32bc 895e c8bd 7d4e 23bd
000003c0: 272a 33be 0bb4 c93d ac1a 69be 9efa 82be
000003d0: acec 48be c5b2 1c3d 49f7 ecbd bd6c c9bd
000003e0: 6631 22bc c373 22be 833c 153d 46fc 9dbb
000003f0: 2099 aabc c3b8 ca3d bef8 1fbd 0625 1cbe

encoder.encoder.0.W_o.weight f4 [64, 197]
-0.15037121 -0.06350561 0.019967698 -0.090437114 -0.07532705 -0.17576236 -0.17008707 0.054841064
0.22688226 0.018408965 0.069557965 -0.10245004 -0.07912757 -0.08915401 0.11563393 0.021294296
0.012604896 -0.1077228 -0.071461126 -0.029034711 -0.03098518 -0.052196823 -0.04558693 0.05807773
0.13837928 -0.10121035 0.05366002 0.111132376 -0.14819239 -0.057188116 0.069760785 0.08861752
-0.017195093 -0.037821747 0.040536467 0.083590135 -0.03306984 -0.027542805 0.062347148 -0.08980397
-0.022851622 -0.056820337 -0.002946272 -0.07800315 -0.031139499 0.07918255 -0.009265752 -0.13925666
0.12501313 -0.07268746 -0.037929118 -0.11085316 -0.13446343 -0.00031821695 0.092546836 0.22718926
-0.058064282 0.0009456087 0.03369114 -0.047043238 -0.108999014 -0.10129775 0.018375456 -0.033595446
0.0918047 -0.03690636 -0.1672274 -0.011869119 -0.045701895 -0.016187461 -0.00091690244 -0.07605318
-0.08728284 0.04549232 -0.0068161134 0.18101558 0.17812131 -0.13888009 -0.07237758 0.016429856
-0.13401277 0.03467455 0.0037734935 0.03366411 0.13169344 0.0023245502 0.028350206 0.07429919
0.048386578 -0.009090888 -0.009086684 0.026818465 0.024351036 -0.043643314 -0.11267451 0.06978112
-0.078002095 -0.057853814 -0.11995928 -0.006899921 0.0997571 -0.023453327 -0.058808737 -0.21755852
-0.08106788 0.17489664 -0.0028761849 -0.114580564 0.13376953 0.18914813 0.084402084 0.022086395
0.12517755 0.024621807 -0.08469886 0.251676 0.15638386 0.021016385 0.029421715 -0.23579189
0.0002994531 0.08785663 -0.10007188 0.050387636 0.07996882 -0.10948087 0.11257188 0.062452774
-0.14744288 0.13563736 0.055030007 0.09261564 -0.065680765 0.092361115 0.092860445 -0.13832274
-0.10015364 0.0017052637 -0.193783 -0.018432856 -0.1806908 -0.10077828 0.028296826 -0.114612296
-0.06858719 0.070569456 -0.031459276 -0.10283862 0.13211314 0.10146939 0.063580185 0.010655137
-0.13774319 -0.06023695 0.12391351 -0.03674545 -0.10029705 0.16090618 -0.15549225 -0.24891466
0.050555926 -0.018898536 -0.016193628 0.0127605125 0.08899858 0.039703187 0.0057698297 0.2988812
-0.102072716 -0.10216952 0.05673394 0.064131446 -0.1994933 0.08763945 -0.061989833 -0.035589326
0.057820693 -0.0010340014 -0.23362187 0.059162218 0.30391935 -0.18831769 0.1003073 0.17012039
-0.16501507 -0.14979318 0.08205279 -0.08038744 0.072151676 0.020249162 -0.07808762 0.095485516
0.042816706 -0.093215704 -0.031804953 0.13993607 0.06482404 0.036916353 0.071360424 -0.07938512
0.06259881 0.042267144 0.09527512 0.08495894 0.0013505319 0.17036983 -0.033976518 -0.043871343
-0.052872937 0.22529487 -0.057853088 0.073633984 0.2138222 0.07460848 -0.13510126 0.085287295
0.008774378 -0.17635477 0.06896972 -0.06024053 -0.076680765 0.05365384 0.02970282 0.04380137
-0.13217689 0.038371887 0.07453543 0.027804395 0.03363657 0.05765898 -0.066772826 -0.011499111
0.017496692 0.020393433 0.06420854 0.030507753 -0.15797403 0.1305592 0.12839054 -0.12574604
-0.020562558 -0.06728797 0.026203658 -0.016038677 0.07282745 0.058269978 -0.17796445 -0.096691124
-0.033343103 -0.16503279 0.031874347 -0.053215835 0.057344325 0.072504215 -0.06962014 -0.020479057
00000000: e9fa 19be 3b0f 82bd 4c93 a33c 1837 b9bd
00000010: 1245 9abd 0cfb 33be 4e2b 2ebe 06a1 603d
00000020: d353 683e 66ce 963c 6874 8e3d 54d1 d1bd
00000030: a30d a2bd 6196 b6bd 7bd1 ec3d 6071 ae3c
00000040: c484 4e3c c59d dcbd 365a 92bd 34da edbc
00000050: a2d4 fdbc 56cc 55bd 5cb9 3abd eae2 6d3d
00000060: 4cb3 0d3e 5f47 cfbd 9cca 5b3d 5f99 e33d
00000070: bfbf 17be 163e 6abd bede 8e3d 1a7d b53d
00000080: b9dc 8cbc faea 1abd 9109 263d 4e31 ab3d
00000090: 3e74 07bd 73a1 e1bc b95f 7f3d 25eb b7bd
000000a0: 5333 bbbc 71bc 68bd 3e16 41bb 1ec0 9fbd
000000b0: 4318 ffbc 762a a23d 61cf 17bc 4c99 0ebe
000000c0: 7103 003e 2add 94bd 905b 1bbd fb06 e3bd
000000d0: c8b0 09be 5bd6 a6b9 3289 bd3d 4da4 683e
000000e0: d0d4 6dbd bae2 773a b9ff 093d 69b0 40bd
000000f0: e03a dfbd 3275 cfbd 2088 963c 619b 09bd
00000100: 1a04 bc3d 202b 17bd a93d 2bbe b176 42bc
00000110: e931 3bbd 919b 84bc 485c 70ba c5c1 9bbd
00000120: 58c1 b2bd 2856 3a3d b459 dfbb 265c 393e
00000130: 6f65 363e 9536 0ebe b23a 94bd e897 863c
00000140: a53a 09be e706 0e3d b74c 773b 61e3 093d
00000150: a5da 063e 7b57 183b b13e e83c 2c2a 983d
00000160: 0131 463d f3f1 14bc 51e0 14bc 66b2 db3c
00000170: d37b c73c 55c3 32bd e5c1 e6bd 67e9 8e3d
00000180: 90bf 9fbd 1ff8 6cbd 36ad f5bd bc18 e2bb
00000190: 734d cc3d 3121 c0bc 6ee1 70bd a9c7 5ebe
000001a0: eb06 a6bd 1b18 333e 607e 3cbb 37a9 eabd
000001b0: e1fa 083e 0cb0 413e 00db ac3d 87ee b43c
000001c0: 8b2e 003e acb3 c93c 9976 adbd addb 803e
000001d0: 1723 203e 8e2a ac3c cf05 f13c 6e73 71be
000001e0: eaff 9c39 2dee b33d 7cf2 ccbd 4463 4e3d
000001f0: b1c6 a33d 8237 e0bd 168c e63d 7bce 7f3d
00000200: 44fb 16be 85e4 0a3e 2567 613d 45ad bd3d
00000210: a383 86bd d327 bd3d 9e2d be3d 7aa4 0dbe
00000220: 5a1d cdbd 2883 df3a 0d6f 46be 8000 97bc
00000230: 0207 39be d864 cebd bfce e73c dab9 eabd
00000240: 7177 8cbd b886 903d 71db 00bd 0e9d d2bd
00000250: ab48 073e 2fcf cf3d 5436 823d e292 2e3c
00000260: 8d0c 0dbe 05bb 76bd 5ec6 fd3d 6682 16bd
00000270: 8a68 cdbd 97c4 243e 5c39 1fbe 7ce3 7ebe
00000280: bb13 4f3d 1ad1 9abc 80a8 84bc 7811 513c
00000290: e344 b63d cf9f 223d d710 bd3b f506 993e
000002a0: 800b d1bd 413e d1bd d961 683d 5957 833d
000002b0: f947 4cbe 507c b33d 0de9 7dbd 1dc6 11bd
000002c0: 64d5 6c3d 5487 87ba 923a 6fbe 1554 723d
000002d0: 519b 9b3e 5ad6 40be ea6d cd3d 0a34 2e3e
000002e0: b6f9 28be 6263 19be 4b0b a83d 2ca2 a4bd
000002f0: 42c4 933d 92e1 a53c 67ec 9fbd e98d c33d
00000300: 9260 2f3d e0e7 bebd e945 02bd 674b 0f3e
00000310: 77c2 843d 9a35 173d 6a25 923d aa94 a2bd
00000320: ce33 803d 5020 2d3d 9a1f c33d f4fe ad3d
00000330: 5504 b13a 6e75 2e3e f62a 0bbd 70b2 33bd
00000340: 4b91 58bd b3b3 663e 5cf7 6cbd 6acd 963d
00000350: 35f4 5a3e 55cc 983d fc57 0abe 1bab ae3d
00000360: 69c2 0f3c 5896 34be ff3f 8d3d c6be 76bd
00000370: ce0a 9dbd 21c4 5b3d 5453 f33c 1169 333d
00000380: 6159 07be d72b 1d3d 08a6 983d 0bc6 e33c
00000390: 80c6 093d d32b 6c3d 31c0 88bd c466 3cbc
000003a0: 3955 8f3c 2110 a73c c47f 833d 65eb f93c
000003b0: f2c3 21be 50b1 053e cf78 033e 92c3 00be
000003c0: cf72 a8bc 46ce 89bd 0ea9 d63c 8b63 83bc
000003d0: 8f26 953d 80ac 6e3d 503c 36be ff05 c6bd
000003e0: c792 08bd 5bfe 28be ad8e 023d d9f8 59bd
000003f0: e2e1 6a3d 177d 943d 0195 8ebd b2c3 a7bc

encoder.encoder.0.W_o.bias f4 [64]
0.023121253 0.00030912875 -0.0075830054 0.02363545 -0.012858368 -0.013261404 0.0040556267 -0.010746639
0.006958857 -0.0064895214 -0.017238867 0.011138176 0.028760077 -0.015117214 -0.020481247 -0.04315828
0.019056724 0.017589664 -0.014898042 0.012368806 -0.0024944337 -0.015714042 -0.017520372 -0.00048825663
0.0013104476 -0.038828183 0.0130734285 0.00876391 0.0019236992 -0.008113925 0.02910407 -9.548141e-06
-0.023397233 -0.01698928 0.021120645 0.010492044 -0.016766617 0.013097281 0.004873581 0.010039362
0.0006222395 -0.00018418946 -0.017421916 0.016081644 0.0027735261 -0.029823098 -0.0014249781 -0.0036097316
0.004826288 0.029534215 0.03573122 -0.005373606 0.007976949 0.004621398 -0.006889816 -0.016631454
-0.0011166548 -0.008272912 0.019216308 0.03531873 -0.0074647246 0.015656 0.037176624 -0.009245152
00000000: c868 bd3c 8f12 a239 dc7a f8bb 229f c13c
00000010: e8ab 52bc 5c46 59bc 10e5 843b ac12 30bc
00000020: 2007 e43b 0da6 d4bb 8638 8dbc e57c 363c
00000030: 419a eb3c 31ae 77bc 4ac8 a7bc bdc6 30bd
00000040: d91c 9c3c 3318 903c eb16 74bc 88a6 4a3c
00000050: a779 23bb bcba 80bc e286 8fbc b2fc ffb9
00000060: 53c3 ab3a 4d0a 1fbd ef31 563c 8196 0f3c
00000070: a224 fc3a 45f0 04bc a96b ee3c f430 20b7
00000080: 8eab bfbc 1a2d 8bbc 3405 ad3c d2e6 2b3c
00000090: 255a 89bc fa95 563c 90b2 9f3b 237c 243c
000000a0: c91d 233a fb22 41b9 68b8 8ebc a7bd 833c
000000b0: 0cc4 353b 924f f4bc 55c6 baba 3f91 6cbb
000000c0: d725 9e3b bdf1 f13c e65a 123d 1315 b0bb
000000d0: c0b1 023c 196f 973b f7c3 e1bb b03e 88bc
000000e0: b85c 92ba 1c8b 07bc 856b 9d3c 5faa 103d
000000f0: a69a f4bb 0341 803c 8446 183d fa78 17bc

ffn.1.weight f4 [64, 64]
0.021210214 0.21512932 -0.087102816 -0.09259177 0.03440845 -0.21494657 -0.10964453 -0.040226664
-0.10347319 -0.101083316 0.111638956 -0.032265805 -0.006185371 0.037189245 -0.022389002 -0.21088322
0.05980571 -0.07181693 0.19377115 0.15266977 -0.030825282 -0.18231937 -0.34207895 0.16489314
0.16462252 0.1592287 0.15838501 -0.0068178843 -0.062293496 -0.110259 0.13445596 0.015754059
0.16707294 -0.06585963 0.31512356 0.0809009 0.012177099 0.24221693 -0.17182592 -0.16155456
0.05201053 0.099098966 -0.020048978 -0.04227722 -0.09988077 0.22745943 0.1606589 -0.017648574
0.009393603 -0.06158974 -0.017853547 0.03409972 -0.09006 0.06393821 -0.094497696 -0.13982771
-0.03650142 -0.17427175 0.14634348 0.11479743 -0.3001061 -0.16028303 0.111837454 -0.1444536
-0.06373395 0.14891118 0.06471723 -0.121822365 0.22497936 -0.0050948737 -0.108622044 0.02526686
-0.27687192 0.1461028 0.009675105 0.055836223 -0.0437067 0.065282874 -0.090247534 0.040540963
0.028528102 -0.04340063 0.015089319 -0.15719065 0.029931989 -0.12375427 0.019026665 0.015250383
-0.097171016 0.19622807 -0.021731898 0.014878548 -0.072252415 0.0422651 -0.024988988 -0.19071329
-0.08440517 -0.15200572 -0.06406946 0.27318045 0.06143469 -0.03252584 0.0378756 0.031018615
-0.035822947 0.1301547 0.0106727 -0.045800872 -0.15918991 0.24885002 0.15449645 -0.19762294
0.26346686 0.19278969 -0.120888725 -0.13088341 -0.17568903 0.00974244 -0.17449746 0.08838267
0.23205 0.017435355 0.086714745 -0.029379684 0.0876173 0.11127156 -0.09968948 -0.29063
0.13622575 -0.06913128 0.20315222 0.0077767307 0.008264406 -0.07467099 0.01400452 0.063848704
0.14486742 0.12013166 0.027462302 -0.16682479 0.02871929 -0.07636045 -0.061378974 0.025579968
0.22708656 0.054857403 -0.041592453 -0.0135409115 0.29303986 -0.13526508 0.12000169 0.05961402
-0.2457621 0.030930324 -0.09672558 0.12533161 0.10594606 0.03993965 0.140212 0.13451068
-0.06547129 -0.0064215213 0.16915162 0.0035713254 0.017884582 -0.06038217 -0.07374822 0.13248207
0.29199544 -0.04067286 0.053652763 0.29320014 -0.062128104 0.070001885 0.11116897 -0.1668226
0.05028247 0.012650851 -0.12406013 -0.14670287 0.07819863 0.052805673 -0.18027274 0.119724214
0.17487252 -0.01720421 0.018854907 -0.34124997 0.0040257405 0.03185132 0.17119727 -0.007969184
0.013334699 -0.012782523 0.25890806 -0.19408923 0.06440164 0.14182185 0.013069225 0.094887026
-0.08383881 0.11451092 -0.04386397 0.035024397 0.10815298 0.047802202 -0.048818447 0.019970275
0.16435723 0.020061575 -0.12792914 -0.0103701865 -0.11233882 -0.09630922 -0.06441494 -0.05098744
-0.087309785 -0.00078648096 0.20600471 0.035726108 -0.18310867 -0.19073537 0.14235581 -0.22478592
-0.046555996 0.21162684 0.119323924 -0.037486993 -0.06627737 -0.08050973 -0.20331289 0.022600185
0.17045364 -0.109372176 0.0088569205 0.11164717 0.22688232 0.109089844 -0.28370884 -0.086441085
0.07737228 -0.026194999 -0.07508362 0.15930746 0.06775679 0.04657944 0.14451647 -0.22012724
0.12831141 -0.07124744 -0.05780909 -0.1370616 -0.10963881 -0.15196344 0.049863998 -0.044275504
00000000: 0bc1 ad3c dc4a 5c3e f662 b2bd c1a0 bdbd
00000010: e0ef 0c3d f41a 5cbe 508d e0bd b7c4 24bd
00000020: c0e9 d3bd c504 cfbd f7a2 e43d 2629 04bd
00000030: a7ae cabb c053 183d 2469 b7bc c5f1 57be
00000040: d5f6 743d c114 93bd f26b 463e 7755 1c3e
00000050: 4d85 fcbc eeb1 3abe f924 afbe bfd9 283e
00000060: ce92 283e d90c 233e ae2f 223e 8f68 dfbb
00000070: 7727 7fbd 78cf e1bd d3ae 093e a80e 813c
00000080: 2b15 2b3e 6ae1 86bd e057 a13e 5faf a53d
00000090: 7482 473c b707 783e 22f3 2fbe 8f6e 25be
000000a0: fe08 553d 66f4 ca3d c13d a4bc e12a 2dbd
000000b0: 4a8e ccbd 20eb 683e c483 243e be93 90bc
000000c0: a0e7 193c 8645 7cbd 9a41 92bc 26ac 0b3d
000000d0: 6171 b8bd 09f2 823d 0288 c1bd ff2e 0fbe
000000e0: 8382 15bd 4b74 32be 11db 153e ea1a eb3d
000000f0: 82a7 99be 3c21 24be 090b e53d a5eb 13be
00000100: f286 82bd 2c7c 183e 788a 843d 017e f9bd
00000110: fd60 663e e6f2 a6bb 3c75 debd 72fc ce3c
00000120: 28c2 8dbe f99b 153e 5584 1e3c 86b4 643d
00000130: cc05 33bd 07b3 853d b3d3 b8bd 480e 263d
00000140: c4b3 e93c dcc4 31bd 3139 773c 96f6 20be
00000150: ee33 f53c e172 fdbd cfdd 9b3c bedc 793c
00000160: 9901 c7bd 03f0 483e 1807 b2bc 27c5 733c
00000170: 13f9 93bd 2b1e 2d3d b5b5 ccbc 584a 43be
00000180: 9edc acbd 63a7 1bbe d936 83bd 4fde 8b3e
00000190: f1a2 7b3d d139 05bd 7223 1b3d c01a fe3c
000001a0: 15bb 12bd 4647 053e 8cdc 2e3c b299 3bbd
000001b0: ae02 23be 8ad2 7e3e 5134 1e3e ab5d 4abe
000001c0: 21e5 863e a96a 453e 8294 f7bd 4d06 06be
000001d0: d3e7 33be c19e 1f3c 76af 32be f901 b53d
000001e0: 849e 6d3e 97d4 8e3c 8097 b13d aaad f0bc
000001f0: b370 b33d 58e2 e33d 002a ccbd 75cd 94be
00000200: c37e 0b3e b394 8dbd 2307 503e f2d3 fe3b
00000210: 6e67 073c 1bed 98bd 3773 653c 1cc3 823d
00000220: 2058 143e 9607 f63d 9ff8 e03c 1ed4 2abe
00000230: b744 eb3c de62 9cbd 8568 7bbd 158d d13c
00000240: 6189 683e 28b2 603d d95c 2abd b3da 5dbc
00000250: 5209 963e ee82 0abe 72c3 f53d d52d 743d
00000260: 0fa9 7bbe 9761 fd3c 1018 c6bd ee56 003e
00000270: 3ffa d83d c297 233d bc93 0f3e 2bbd 093e
00000280: d015 86bd a06b d2bb 1536 2d3e e60c 6a3b
00000290: b082 923c 4b53 77bd 4f09 97bd 61a9 073e
000002a0: 6d80 953e 9698 26bd 00c3 5b3d 541e 963e
000002b0: 0a7a 7ebd 265d 8f3d 8fac e33d 8bd3 2abe
000002c0: fef4 4d3d 8445 4f3c 3d13 febd 4739 16be
000002d0: 9a26 a03d c34a 583d 6b99 38be f831 f53d
000002e0: c811 333e d8ef 8cbc 9b75 9a3c 51b8 aebe
000002f0: 5cea 833b 8876 023d 564e 2f3e 2e91 02bc
00000300: c879 5a3c ca6d 51bc 998f 843e 54bf 46be
00000310: 02e5 833d bf39 113e 4d20 563c 2154 c23d
00000320: afb3 abbd b484 ea3d b5aa 33bd be75 0f3d
00000330: 4f7f dd3d 3ecc 433d daf5 47bd b498 a33c
00000340: 434d 283e 2c58 a43c dbff 02be b7e7 29bc
00000350: e511 e6bd c53d c5bd fbeb 83bd 35d8 50bd
00000360: 79cf b2bd d82b 4eba e6f2 523e 8a55 123d
00000370: d780 3bbe 2250 43be b9c5 113e 482e 66be
00000380: 80b1 3ebd b5b4 583e 1a60 f43d f68b 19bd
00000390: 6ebc 87bd 49e2 a4bd 4131 50be 0624 b93c
000003a0: 668b 2e3e 85fe dfbd 9e1c 113c 45a7 e43d
000003b0: d753 683e 7f6a df3d 4942 91be 0608 b1bd
000003c0: 5c75 9e3d e596 d6bc 71c5 99bd 7f21 233e
000003d0: 12c4 8a3d 15ca 3e3d 20fc 133e 0969 61be
000003e0: 1164 033e 2eea 91bd 39c9 6cbd e059 0cbe
000003f0: 508a e0bd 4e9c 1bbe 313e 4c3d 3b5a 35bd

ffn.1.bias f4 [64]
0.069531955 0.035151903 0.023394205 0.034829527 0.019754833 0.021388203 0.014589484 0.03557923
0.016167546 0.024431117 0.042716347 0.03524127 0.059732173 0.024326088 0.00964881 0.055493996
0.007708113 0.006060567 0.0056558717 0.0013721455 0.054640204 0.04756686 0.05555927 0.0408354
0.020936612 0.05114615 0.025480691 0.015759261 0.035179526 0.022533711 0.035595987 0.035366822
0.015301904 0.029695045 0.022809958 0.017338086 0.07979961 0.019216513 0.058165994 -0.015367467
0.05432163 0.035553828 0.03053295 -0.033966437 0.012434595 0.04081097 0.03761792 -0.0604236
0.022607272 0.0409383 0.031465266 0.019090937 0.013500183 0.017686294 0.041509874 0.026559582
0.04181375 0.025263136 0.026456486 0.09581925 -0.0028321098 -0.032486565 0.0063540842 0.038857486
00000000: c566 8e3d 71fb 0f3d 34a5 bf3c 68a9 0e3d
00000010: e3d4 a13c 5036 af3c bb08 6f3c 87bb 113d
00000020: cd71 843c c423 c83c 56f7 2e3d 2659 103d
00000030: b9a9 743d 8147 c73c 0b16 1e3c ac4d 633d
00000040: 5794 fc3b b997 c63b e454 b93b 90d9 b33a
00000050: 68ce 5f3d 78d5 423d 1e92 633d 0543 273d
00000060: 4283 ab3c a07e 513d e2bc d03c 9119 813c
00000070: 6818 103d 9e98 b83c 19cd 113d cddc 103d
00000080: d6b4 7a3c 0643 f33c f3db ba3c 9a08 8e3c
00000090: fa6d a33d f36b 9d3c 773f 6e3d d4c7 7bbc
000000a0: 5c80 5e3d e4a0 113d 3d20 fa3c 6420 0bbd
000000b0: 79ba 4b3c 6729 273d 4015 1a3d bd7e 77bd
000000c0: e332 b93c ebae 273d b9e1 003d 9964 9c3c
000000d0: df2f 5d3c d9e2 903c 4206 2a3d 7b93 d93c
000000e0: e544 2b3d a3f4 ce3c 46bb d83c e23c c43d
000000f0: eb9a 39bb a210 05bd ec35 d03b 0729 1f3d

ffn.4.weight f4 [1, 64]
0.06993956 0.42839187 0.039572783 0.19014123 0.17088409 -0.086282074 -0.24476057 -0.19631895
0.06180377 0.038686715 0.2293758 -0.27923498 -0.16820045 0.103657976 -0.1184721 -0.16790205
-0.13046889 -0.19121453 0.108529 -0.13993874 0.18337078 -0.2168937 -0.39082155 0.12160774
-0.15975851 -0.39697573 -0.22587945 -0.28817293 0.0650025 0.09378392 0.26971787 0.19001497
-0.12041782 -0.1701067 -0.15733553 -0.16712067 -0.12099018 -0.15075576 0.101847425 -0.01367498
0.36629245 0.23260161 0.121704236 0.1457558 -0.10565679 -0.15072587 0.20738418 0.08935279
0.5946738 0.259246 -0.27973464 -0.30897528 0.15418962 0.32902697 0.07877645 -0.24410227
0.15225144 0.16661601 0.24071379 0.080101594 -0.02348079 -0.00070104277 -0.16880286 0.25713
00000000: 793c 8f3d 2e56 db3e 1217 223d 62b4 423e
00000010: 3dfc 2e3e a8b4 b0bd 84a2 7abe d607 49be
00000020: f325 7d3d f675 1e3d 7de1 6a3e e3f7 8ebe
00000030: bd3c 2cbe a24a d43d 80a1 f2bd 84ee 2bbe
00000040: a399 05be becd 43be 7444 de3d 1a4c 0fbe
00000050: 8dc5 3b3e 6219 5ebe c319 c8be 7b0d f93d
00000060: bc97 23be 6740 cbbe f14c 67be 678b 93be
00000070: 0820 853d c911 c03d 7618 8a3e 4993 423e
00000080: 9e9d f6bd 7330 2ebe 911c 21be ae21 2bbe
00000090: b3c9 f7bd b85f 1abe 6295 d03d 060d 60bc
000000a0: af8a bb3e 1e2f 6e3e 1240 f93d 0241 153e
000000b0: 9662 d8bd e257 1abe 855c 543e 98fe b63d
000000c0: 8b3c 183f e4bb 843e 6139 8fbe 0232 9ebe
000000d0: e2e3 1d3e 3976 a83e 8c55 a13d f2f5 79be
000000e0: cde7 1b3e 639d 2a3e ad7d 763e 4e0c a43d
000000f0: c95a c0bc 2fc6 37ba a8da 2cbe 8ba6 833e
