githubproject/lbdd/hob/model1/checkpoints_36/fold_0/model_0/model.pt (torch, 360964 bytes, 10 tensors)

encoder.encoder.0.cached_zero_vector f4 [100]
0	0x00000000	0.0
1	0x00000000	0.0
2	0x00000000	0.0
3	0x00000000	0.0
4	0x00000000	0.0
5	0x00000000	0.0
6	0x00000000	0.0
7	0x00000000	0.0
8	0x00000000	0.0
9	0x00000000	0.0
10	0x00000000	0.0
11	0x00000000	0.0
12	0x00000000	0.0
13	0x00000000	0.0
14	0x00000000	0.0
15	0x00000000	0.0
16	0x00000000	0.0
17	0x00000000	0.0
18	0x00000000	0.0
19	0x00000000	0.0
20	0x00000000	0.0
21	0x00000000	0.0
22	0x00000000	0.0
23	0x00000000	0.0
24	0x00000000	0.0
25	0x00000000	0.0
26	0x00000000	0.0
27	0x00000000	0.0
28	0x00000000	0.0
29	0x00000000	0.0
30	0x00000000	0.0
31	0x00000000	0.0
32	0x00000000	0.0
33	0x00000000	0.0
34	0x00000000	0.0
35	0x00000000	0.0
36	0x00000000	0.0
37	0x00000000	0.0
38	0x00000000	0.0
39	0x00000000	0.0
40	0x00000000	0.0
41	0x00000000	0.0
42	0x00000000	0.0
43	0x00000000	0.0
44	0x00000000	0.0
45	0x00000000	0.0
46	0x00000000	0.0
47	0x00000000	0.0
48	0x00000000	0.0
49	0x00000000	0.0
50	0x00000000	0.0
51	0x00000000	0.0
52	0x00000000	0.0
53	0x00000000	0.0
54	0x00000000	0.0
55	0x00000000	0.0
56	0x00000000	0.0
57	0x00000000	0.0
58	0x00000000	0.0
59	0x00000000	0.0
60	0x00000000	0.0
61	0x00000000	0.0
62	0x00000000	0.0
63	0x00000000	0.0
64	0x00000000	0.0
65	0x00000000	0.0
66	0x00000000	0.0
67	0x00000000	0.0
68	0x00000000	0.0
69	0x00000000	0.0
70	0x00000000	0.0
71	0x00000000	0.0
72	0x00000000	0.0
73	0x00000000	0.0
74	0x00000000	0.0
75	0x00000000	0.0
76	0x00000000	0.0
77	0x00000000	0.0
78	0x00000000	0.0
79	0x00000000	0.0
80	0x00000000	0.0
81	0x00000000	0.0
82	0x00000000	0.0
83	0x00000000	0.0
84	0x00000000	0.0
85	0x00000000	0.0
86	0x00000000	0.0
87	0x00000000	0.0
88	0x00000000	0.0
89	0x00000000	0.0
90	0x00000000	0.0
91	0x00000000	0.0
92	0x00000000	0.0
93	0x00000000	0.0
94	0x00000000	0.0
95	0x00000000	0.0
96	0x00000000	0.0
97	0x00000000	0.0
98	0x00000000	0.0
99	0x00000000	0.0

encoder.encoder.0.W_i.weight f4 [100, 147]
0	0x3bcd7531	0.006270074
1	0xbdc4630a	-0.09589203
2	0x3dbbfee6	0.091794774
3	0xbd804862	-0.06263806
4	0x3e1de267	0.15418397
5	0x3d48b808	0.04900363
6	0x3e048774	0.12942296
7	0x3d11e3ae	0.035617523
8	0x3cc804c0	0.024416327
9	0xbb23f715	-0.0025019099
10	0x3dcfddd7	0.101497345
11	0xbd0c6b7a	-0.034282185
12	0x3d792f14	0.060835913
13	0xbd8899d6	-0.06669967
14	0x3e1fb6a7	0.1559702
15	0x3e23f268	0.1601044
16	0x3e0ffd9f	0.14061593
17	0xbdd7eaf0	-0.10542858
18	0x3e2805d9	0.1640848
19	0xbca4c66f	-0.020114152
20	0x3d78a2a0	0.060701966
21	0xbdeaf5ac	-0.114726394
22	0x3dcc308d	0.09970198
23	0x3e333f8c	0.1750471
24	0x3dd63f31	0.104612716
25	0x3c1adaf4	0.009451617
26	0xbd849688	-0.06474024
27	0xbd8a1917	-0.06743067
28	0x3c63cc6a	0.013903717
29	0x3d1dc3c2	0.038516767
30	0x3e016dc0	0.12639523
31	0x3d28b821	0.041191224
32	0xbd66acf0	-0.05631727
33	0x398d1f66	0.0002691701
34	0x3d84ce0b	0.06484612
35	0xbe27a3f6	-0.1637114
36	0xbc6079ea	-0.013700942
37	0xbe0d7664	-0.13814694
38	0x3db64f28	0.089018166
39	0xbda0a5b2	-0.07844104
40	0x3e01c8b7	0.12674223
41	0x3dafe272	0.08588113
42	0xbd5b45d9	-0.05353341
43	0x3b9e2fcd	0.0048274756
44	0xbccf7264	-0.0253231
45	0xbd1d21f8	-0.038362473
46	0xbdc44941	-0.095842846
47	0xbe4d9d7f	-0.20079611
48	0xbd5d2ace	-0.0539959
49	0xbe16a163	-0.14710002
50	0xbca415ce	-0.020029929
51	0xbd8e8965	-0.069598
52	0x3e02c724	0.12771279
53	0x3a3d271a	0.00072156044
54	0xbbf512ee	-0.0074790632
55	0x3e27f288	0.16401112
56	0x3e112948	0.14175904
57	0xbd091033	-0.033462714
58	0x3bf31f88	0.0074195303
59	0x3d227b8e	0.039668612
60	0xbc4a52f5	-0.01234888
61	0x3d9755af	0.0738939
62	0xbc3e0443	-0.011597696
63	0xbd632271	-0.055452768
64	0x3da89c42	0.08232929
65	0x3c87cc34	0.016576864
66	0xbd80ab66	-0.06282692
67	0x3d79355d	0.060841907
68	0x3d2c2c9e	0.042034738
69	0xbd9d5485	-0.076821364
70	0xbde154eb	-0.11002525
71	0xbd55fd58	-0.05224356
72	0x3d68e074	0.05685468
73	0x3c617d5b	0.013762797
74	0x3e0772e4	0.13227421
75	0x3dab6614	0.08369079
76	0x3dccb3e2	0.099952474
77	0xbc014819	-0.007890725
78	0x3dff5b52	0.1246859
79	0xbda848dc	-0.08217022
80	0x3bfe6c13	0.0077643483
81	0x3d597be5	0.05309667
82	0x3c3d36fc	0.011548754
83	0xbd10ab00	-0.03531933
84	0xbdec5078	-0.11538786
85	0x3d2fa480	0.04288149
86	0xbd4040f9	-0.046936963
87	0x3e0cdd41	0.13756277
88	0xbbd2c080	-0.006431639
89	0xbc208271	-0.009796725
90	0xbd0d2f3b	-0.03446887
91	0xbcdbd30a	-0.02683403
92	0xbe04a71e	-0.12954375
93	0xbd9048b8	-0.0704512
94	0xbdc0ff29	-0.09423668
95	0xbdd909bc	-0.1059756
96	0x3d814a3f	0.063129894
97	0xbe666205	-0.22498329
98	0x3d9f714d	0.07785282
99	0x3b0bc675	0.0021328006
100	0xbd2dd257	-0.042436924
101	0x3d13248d	0.03592353
102	0xbc5c930c	-0.013462793
103	0x3e435b01	0.19077684
104	0xbd34500d	-0.044021655
105	0x3d8223cc	0.06354484
106	0x3c1616f8	0.00916075
107	0x3d49dc2c	0.049282238
108	0x3e4bec21	0.19914295
109	0x3da0e0da	0.07855387
110	0xbd4489a9	-0.047982845
111	0xbc8c2935	-0.017109493
112	0x3c8e2d23	0.017355507
113	0xbd5b8b00	-0.053599358
114	0xbeb3e5bf	-0.3513622
115	0x3db41e29	0.08794815
116	0xbd6652ee	-0.05623143
117	0x3e3db0fe	0.18524548
118	0xbe30ea17	-0.17276798
119	0x3dc92551	0.09821571
120	0x3d8b5981	0.06804181
121	0xbe09eb55	-0.13468678
122	0xbe17e471	-0.14833237
123	0xbdf31c19	-0.118705936
124	0xbe1f0d0f	-0.15532325
125	0xbde46f54	-0.11154047
126	0xbdca9add	-0.09892819
127	0xbd6cf28a	-0.05784849
128	0x3d4adcb7	0.049526896
129	0x3d86dff3	0.06585684
130	0x3cf1dfaf	0.029525606
131	0x3c032650	0.00800474
132	0xbe072b8a	-0.13200203
133	0xbc02efff	-0.00799179
134	0xbd729ee7	-0.059233572
135	0xbd8b2dcb	-0.06795844
136	0x3dfb3f27	0.12267905
137	0x3e2b65eb	0.16738097
138	0xbe0497f1	-0.12948586
139	0xbdec0f86	-0.11526398
140	0xbdb71e46	-0.08941321
141	0xbd7db47c	-0.0619397
142	0xbd6307a0	-0.055427194
143	0x3dca6c89	0.09883983
144	0xbd32720b	-0.04356579
145	0xbd0eb95f	-0.034844752
146	0x3d517f96	0.051147066
147	0xbda1450b	-0.07874497
148	0xbda1efdb	-0.07907077
149	0x3c260a1d	0.010134247
150	0x3cef7af5	0.029233435
151	0x3c40aca4	0.011759911
152	0x3b0bace2	0.0021312763
153	0x3dec5590	0.11539757
154	0xbe0a5cdf	-0.1351199
155	0x3da005e3	0.07813623
156	0xbd88ebed	-0.06685624
157	0xbe115a37	-0.1419457
158	0xbc02eb26	-0.007990634
159	0x3da2a77f	0.079421036
160	0xbd5e8f7a	-0.05433605
161	0xbe56ef0e	-0.2098963
162	0x3d5d67bf	0.054054018
163	0xbd530bd8	-0.051524967
164	0xbda61626	-0.08109693
165	0xbd9977e2	-0.07493569
166	0xbc41b0a3	-0.011821899
167	0xbdd4b74c	-0.103865236
168	0xbe01cfdf	-0.12676953
169	0x3d8a6f3e	0.06759499
170	0x3bbf2039	0.0058326987
171	0x3dc0a2eb	0.09406074
172	0xbd9e0044	-0.077148944
173	0xbe031306	-0.12800226
174	0xbcc4c36a	-0.024018962
175	0x3df0d27c	0.11758897
176	0xbd93e809	-0.072219916
177	0x3cc5316d	0.02407142
178	0xbd30bc49	-0.043148313
179	0xbc45ddad	-0.012076777
180	0x3d005efa	0.031340577
181	0xbd1bd775	-0.038047273
182	0xbc97b9c5	-0.018521199
183	0xbd1556f9	-0.036459897
184	0x3e00e9fc	0.12589258
185	0xbcfc432c	-0.030793749
186	0x3d971d65	0.073786534
187	0x3de29e2b	0.110653244
188	0x3c2122d6	0.009834966
189	0x3b1d1ac8	0.0023972262
190	0x3da7defa	0.08196826
191	0xbdf3fe6b	-0.11913761
192	0x3d5086f5	0.050909955
193	0xbc3b29e7	-0.0114235645
194	0xbb8df26e	-0.0043318784
195	0x3e2a67fd	0.16641231
196	0xbc7cc5a9	-0.015427985
197	0xbbb382cb	-0.005478238
198	0xbd49e052	-0.049286194
199	0xbd80ab15	-0.06282631
200	0x3d4dd0eb	0.050248068
201	0xbdbe0c20	-0.092796564
202	0xbda26824	-0.079300195
203	0xbdba8797	-0.09107893
204	0xbceda1ff	-0.02900791
205	0xbde99063	-0.11404493
206	0xbe1a27d4	-0.15054256
207	0xbd7ebdf3	-0.06219287
208	0xbe32528d	-0.17414303
209	0x3e006511	0.12538554
210	0xbd91cc3f	-0.07119035
211	0x3e15b7b4	0.14620858
212	0xbd780c8f	-0.06055885
213	0xbdb697d6	-0.08915679
214	0x3d8ff782	0.0702963
215	0x3e255be8	0.1614834
216	0xbd1e7a1b	-0.038690668
217	0xbceda794	-0.029010572
218	0x3cd376f1	0.025813552
219	0xbc2d42ce	-0.0105750095
220	0xbd171f25	-0.036894936
221	0x3c52a834	0.012857486
222	0xbdc5ac20	-0.09651971
223	0xbd902437	-0.070381574
224	0xbdb17b24	-0.08666065
225	0xbdffae84	-0.12484458
226	0x3d876bee	0.06612383
227	0xbd405697	-0.04695758
228	0x3d99887e	0.07496737
229	0xbdc8139c	-0.09769365
230	0xbb4f9f03	-0.0031680472
231	0x3ca68c20	0.020330489
232	0x3c9281b9	0.017884122
233	0xbde47c02	-0.11156465
234	0x39904c54	0.0002752269
235	0x3cd9941b	0.02655988
236	0xbda8a152	-0.082338944
237	0xbd2bd3b7	-0.041949954
238	0xbcb805ed	-0.022463763
239	0xbe4f1cb6	-0.20225796
240	0xbb38936b	-0.002816404
241	0x3d04e02b	0.032440346
242	0x3d4b97e7	0.049705412
243	0x3db1e5ba	0.08686395
244	0xbb0c8fb7	-0.0021447965
245	0x3ced0f49	0.028937953
246	0x3e37af17	0.17937885
247	0xbcef9061	-0.02924365
248	0x3d0a1c19	0.033718202
249	0xbe235bb7	-0.15952955
250	0xbdb1f894	-0.08689991
251	0xbe303d8f	-0.17210983
252	0x3e388f7f	0.1802349
253	0x3d65d420	0.0561105
254	0xbe037e58	-0.12841165
255	0x3cbe2935	0.023213008

encoder.encoder.0.W_h.weight f4 [100, 100]
0	0x3c19b300	0.009381056
1	0x3dce60c1	0.10077048
2	0x3d14326e	0.036180906
3	0x3cd49ac8	0.025952712
4	0xbe0754dc	-0.13215965
5	0xbdaffb4c	-0.08592853
6	0xbd58fcfd	-0.052975643
7	0xbea8b515	-0.32950655
8	0xbd0fe8ac	-0.035134003
9	0x3d8ecf29	0.069731064
10	0x3d19260e	0.037389807
11	0xbca0525d	-0.019570524
12	0x3d663900	0.056206703
13	0x3d3994ae	0.045307808
14	0x3d505a5b	0.05086742
15	0x3b90a6eb	0.0044144294
16	0xbe5ebac1	-0.21750928
17	0xbdcc7761	-0.09983707
18	0x3e23e9bd	0.16007133
19	0xbe1f8c04	-0.15580755
20	0x3c8d0bc6	0.017217528
21	0xbc381fcd	-0.011238051
22	0x3d007771	0.03136391
23	0xbd48b600	-0.049001694
24	0xbe054f92	-0.13018635
25	0xbe32e322	-0.17469457
26	0xbe2126e1	-0.15737487
27	0xbd27a575	-0.040929276
28	0xbc50b274	-0.012737859
29	0xbe7783f9	-0.24171437
30	0xbbfc7b5b	-0.007705135
31	0x3d4d239f	0.0500828
32	0xbe7425a9	-0.23842491
33	0x3c16836b	0.009186606
34	0xbd1503a6	-0.036380433
35	0xbdeaba5d	-0.11461327
36	0x3d51eb07	0.05124953
37	0x3d174a7a	0.03693626
38	0xbd537f86	-0.051635288
39	0x3d04f0a7	0.032456066
40	0x3cb23fe4	0.021758981
41	0x3dbc1d70	0.09185302
42	0x3dba06bb	0.09083315
43	0x3d9bdb4e	0.076101884
44	0xbe0c32cf	-0.13691257
45	0xbdc347fd	-0.09535215
46	0x3d8bf1c9	0.06833226
47	0xbd86b4fb	-0.06577488
48	0xbd484761	-0.048896197
49	0xbd87534c	-0.066076845
50	0xbac3611f	-0.0014906264
51	0x3dc46ddb	0.09591266
52	0xbcea8e88	-0.028632417
53	0x3d455383	0.048175346
54	0x3ccd69b7	0.025074823
55	0x3de137e8	0.109969914
56	0xbe85996f	-0.26093623
57	0x3d470921	0.04859269
58	0xbd76e4cc	-0.06027679
59	0xbd6c98fa	-0.057763077
60	0xbcf9db23	-0.0305
61	0xbd2d2f8e	-0.04228168
62	0x3e1894a8	0.14900458
63	0xbd9d5256	-0.0768172
64	0xbdeb890b	-0.11500748
65	0xbc4a55c0	-0.012349546
66	0xbdab36ae	-0.08360039
67	0xbc34f6fd	-0.011045215
68	0xba604092	-0.00085545436
69	0xbe4b83d5	-0.19874509
70	0xbc1a525d	-0.009419051
71	0xbe3cd777	-0.18441568
72	0x3c5f3e9b	0.013625766
73	0x3e8088ea	0.25104457
74	0x3dad7a01	0.08470536
75	0xbc18873c	-0.009309586
76	0xbe0e1406	-0.13874826
77	0x3caafaa6	0.020871472
78	0x3cf6f42b	0.030145725
79	0x3999bcaa	0.00029323
80	0xbcc2e531	-0.023790928
81	0x3d219236	0.03944608
82	0x3c698fee	0.014255507
83	0x3cf5285a	0.029926468
84	0x3de8df98	0.11370772
85	0xbdd2c7e5	-0.10292033
86	0x3d21b274	0.039476827
87	0xbddbf5bc	-0.107402295
88	0xbe50767e	-0.20357701
89	0x3e158c9e	0.14604422
90	0x3d9dbc57	0.077019386
91	0xbcc79c2b	-0.024366459
92	0x3d62a7f1	0.055335943
93	0xbdb6a1e8	-0.089176
94	0x3b1784ba	0.0023119883
95	0x3df6fb78	0.120596826
96	0x3d53f54f	0.051747616
97	0xbe01d216	-0.12677798
98	0xbdd7296a	-0.10505946
99	0xbd515335	-0.051104743
100	0x3d15e4b5	0.036595065
101	0x3df68837	0.120377
102	0xbbf3afdc	-0.0074367356
103	0xbd0272f4	-0.03184791
104	0xbc342033	-0.010994005
105	0x3e634254	0.22193271
106	0xbc3b544c	-0.011433672
107	0x3d2d8c7c	0.042370304
108	0xbd554d53	-0.052075695
109	0xbcd02f94	-0.025413312
110	0x3e01591c	0.12631649
111	0x3dc31b5a	0.09526701
112	0xbd1ce8bb	-0.038307887
113	0x3d3c76f8	0.046011895
114	0x3d9f1f0f	0.07769596
115	0x3e34b7be	0.17648217
116	0xbe2cb20f	-0.16864799
117	0x3ddae4c7	0.10688167
118	0xbb4fcee7	-0.0031709017
119	0xbd0a066e	-0.033697538
120	0xbcdfd56f	-0.027323453
121	0xba2299ac	-0.00062027085
122	0xbbe06c20	-0.006848827
123	0xbcc81d75	-0.024428109
124	0x3e8952ba	0.26820928
125	0xbe8c3b28	-0.27388883
126	0xbd88bf1f	-0.066770785
127	0x3e4d167d	0.2002811
128	0x3d92acac	0.07161841
129	0xbe960ecd	-0.29308167
130	0xbe8a31a0	-0.26990986
131	0xbd0b4838	-0.03400442
132	0xbdf356e5	-0.11881808
133	0xbdd28e57	-0.102810554
134	0xbd613b60	-0.054988265
135	0xbe4e2eed	-0.20135088
136	0x3ddd6244	0.10809758
137	0xbd216aaa	-0.039408363
138	0x3e8b97eb	0.27264342
139	0x3dfbd958	0.122973144
140	0xbd925f3b	-0.0714707
141	0xbd8b89b1	-0.06813372
142	0x3d9ed4c2	0.07755424
143	0x3bef3b29	0.0073007536
144	0xba440a33	-0.00074783264
145	0x3d01d3d4	0.031696156
146	0x3d2b9086	0.041885875
147	0x3e39efea	0.18157926
148	0x3d4ef3e7	0.050525572
149	0xb9e67969	-0.00043959476
150	0xbcb5bb22	-0.022183958
151	0x3d6c6a75	0.057718713
152	0xbe0bd8cf	-0.13656925
153	0xbd2fe7e1	-0.042945746
154	0xbde4f0b0	-0.1117872
155	0x3d920b9d	0.07131121
156	0x3cde42ef	0.027131526
157	0xbe5fdd39	-0.21861733
158	0x3df3f2c8	0.11911541
159	0xbe3fd737	-0.18734442
160	0xbe25668d	-0.16152401
161	0xbdf922b1	-0.1216482
162	0xbdccb82a	-0.09996064
163	0x3db2fada	0.087392524
164	0x3cc91f1e	0.02455097
165	0x3d927da6	0.07152872
166	0x3e4a6605	0.1976548
167	0xbcd10b92	-0.025518212
168	0xbd09a4bd	-0.033604372
169	0x3d59a5a8	0.053136498
170	0xbe17f489	-0.14839377
171	0xbe1d46de	-0.15359065
172	0x3e312a72	0.17301348
173	0x3dded12c	0.1087974
174	0x3c84f45c	0.0162298
175	0x3d8f6578	0.070017755
176	0xbe22926d	-0.1587617
177	0x3e324654	0.1740964
178	0x3d8581b4	0.065188795
179	0xbd499793	-0.049216818
180	0xbe947371	-0.28994325
181	0xbd31025f	-0.043215152
182	0x3e3927ef	0.1808164
183	0x3dabf77d	0.08396814
184	0x3d29d6f6	0.04146477
185	0x3d517c7b	0.051144104
186	0x3db6d496	0.08927266
187	0x3cb71a73	0.02235148
188	0xbdda1d29	-0.10650093
189	0xbdbc9fbe	-0.09210156
190	0xbc8cfb16	-0.01720957
191	0xbe1b1a5c	-0.15146774
192	0x3da443f6	0.08020775
193	0x3e20fd37	0.15721594
194	0xbdad54a4	-0.084634095
195	0x3d6cb541	0.057790045
196	0xbddaabc7	-0.10677295
197	0xbd19bc4e	-0.037533097
198	0xbd484413	-0.048893046
199	0x3dcef051	0.101044305
200	0xbe1773d9	-0.14790286
201	0x3e8555e1	0.26042083
202	0xbe8d6faf	-0.2762427
203	0x3c5a6674	0.013330091
204	0xbdb2442e	-0.087044105
205	0x3d1dd6c9	0.038534913
206	0x3d9b8924	0.07594517
207	0xbdd1fc9c	-0.102532595
208	0xbe1e7845	-0.15475567
209	0xbe2999f1	-0.1656263
210	0xbdbe699d	-0.09297488
211	0x3b5e232d	0.0033895478
212	0xbd8c012d	-0.06836162
213	0x3e710d1c	0.23540157
214	0x3c406417	0.011742613
215	0xbc18bf2f	-0.0093229255
216	0x3e3c18d3	0.18368845
217	0x3d9f79d9	0.077869125
218	0x3d681480	0.056660175
219	0x3d151de5	0.036405463
220	0x3d4d6e8c	0.050154254
221	0x3d19d1f2	0.037553735
222	0x3e100a31	0.14066388
223	0x3cb58e62	0.02216262
224	0xbdceac58	-0.10091466
225	0x3de0af60	0.1097095
226	0xbe24997e	-0.16074178
227	0xbcce909f	-0.025215445
228	0x3d40e802	0.04709626
229	0x3cde2316	0.02711634
230	0xbdf62e14	-0.120205075
231	0xbd23cd5e	-0.039990775
232	0x3dc7c3ea	0.097541645
233	0xbd8a4b78	-0.06752676
234	0x3de2d7e1	0.11076332
235	0xbe11c60d	-0.14235707
236	0x3d5c48a6	0.05378022
237	0x3da0a1e8	0.07843381
238	0xbe31633b	-0.1732301
239	0x3d201105	0.03907873
240	0xbdb48a45	-0.08815435
241	0x3d27fa70	0.04101032
242	0xbd217709	-0.03942016
243	0x3e66ad5e	0.22527072
244	0x3dc96138	0.09832996
245	0x3dd00299	0.101567455
246	0xbcdbc4b4	-0.026827194
247	0x3d480707	0.048834827
248	0xbc5a4446	-0.013321942
249	0xbdf5b2f6	-0.11997025
250	0xbd5c92e7	-0.053851034
251	0x3d7ec96c	0.06220381
252	0xbea50944	-0.32233632
253	0xbcecb04b	-0.028892657
254	0xbd29971a	-0.041403867
255	0xbd1d4d7b	-0.03840397

encoder.encoder.0.W_o.weight f4 [100, 233]
0	0x3e08ba3c	0.13352293
1	0x3cf0a4c8	0.029375449
2	0xbda7596c	-0.08171353
3	0xbd0d21c9	-0.03445605
4	0xbe3ece0d	-0.1863329
5	0x3de32084	0.11090186
6	0x3e0dfd2e	0.13866112
7	0xbe057663	-0.13033442
8	0x3da36355	0.079779305
9	0xbe193797	-0.14962612
10	0xbcbb3ed9	-0.022857117
11	0x3e027b0e	0.12742254
12	0xbdff426a	-0.12463839
13	0xbb0774c3	-0.002066896
14	0x3e00e509	0.1258737
15	0xbd962b2d	-0.07332454
16	0xbd2abeb1	-0.041685764
17	0xbd337d46	-0.043820642
18	0x3d8d6f73	0.06906023
19	0x3cc9093e	0.02454054
20	0xbc42b0b1	-0.011882947
21	0xbd93bdd6	-0.07213943
22	0x3e143bd8	0.14475954
23	0x3bfe9999	0.007769775
24	0xbddbc79a	-0.1073143
25	0xbe0833b5	-0.13300975
26	0xbcd10b85	-0.025518188
27	0x3b36fcfa	0.0027921782
28	0xbbc03168	-0.0058652647
29	0x3cbeb833	0.023281192
30	0xbd5ee9f5	-0.054422338
31	0xbc11eca8	-0.008906521
32	0xbe0eeb9d	-0.13957067
33	0xbd026ff8	-0.031845063
34	0xbd9b9b1e	-0.07597946
35	0x3e30e6bc	0.17275518
36	0xbd873160	-0.066012144
37	0x3de502e2	0.111821905
38	0xbced4141	-0.02896178
39	0x39848912	0.00025279127
40	0xbd8dc96d	-0.069231845
41	0xbc57a9d1	-0.013163046
42	0xbd25b5c2	-0.04045654
43	0x3d744fae	0.0596463
44	0x3de22e3d	0.110439755
45	0x3cd62a57	0.026143236
46	0xbdc5e0c8	-0.09662014
47	0xbc95c99d	-0.018284613
48	0xbd3fda7d	-0.046839226
49	0x3e1df508	0.15425503
50	0x3e1f8fb0	0.15582156
51	0xbc5b8c74	-0.013400186
52	0xbd1ee464	-0.03879203
53	0x3da12ca3	0.07869842
54	0x3d9a22c6	0.07526164
55	0x3d0d3e2c	0.03448312
56	0xbd910098	-0.070801914
57	0x3dae0dcf	0.084987275
58	0xbb611ab4	-0.0034348192
59	0x3d5ec72e	0.05438917
60	0xbcb9d789	-0.022685783
61	0xbd282cb7	-0.04105827
62	0xbd1e0f17	-0.03858861
63	0x3d1e5281	0.0386529
64	0x3d1e3917	0.038628664
65	0x3d6fc21a	0.05853472
66	0xbdbf0b28	-0.093283
67	0xbca610b6	-0.02027164
68	0x3e1f387c	0.15548891
69	0xbdccc161	-0.099978216
70	0x3df4dc91	0.11956132
71	0x3dfd2748	0.12361008
72	0xbe0b9a40	-0.1363306
73	0x3d32af36	0.043624125
74	0xbe19f694	-0.15035468
75	0xbe12c641	-0.1433344
76	0xbc5c515a	-0.01344713
77	0xbdd84963	-0.105608724
78	0x3d31fde7	0.04345503
79	0xbcf2458b	-0.029574176
80	0x3d0d6849	0.034523282
81	0x3d6703f9	0.056400273
82	0xbd84be58	-0.06481618
83	0x3db65a1d	0.089039065
84	0x3d098641	0.0335753
85	0xbe3cff5c	-0.18456787
86	0xbd4a0605	-0.049322147
87	0x3a2f50b8	0.0006687748
88	0x3da9b752	0.08286919
89	0xbda15af0	-0.07878673
90	0xbd9aab7d	-0.0755224
91	0x3d50ba46	0.050958894
92	0x3cc76178	0.024338469
93	0xbd8107f7	-0.06300347
94	0xbcf4c31e	-0.029878195
95	0xbd4964f8	-0.049168557
96	0xbd5eef4e	-0.054427437
97	0x3c98897a	0.018620241
98	0x3ca904c0	0.020632148
99	0xbe5271f6	-0.20551285
100	0xbcae41e8	-0.02127166
101	0x3e018e0c	0.12651843
102	0xbceacb29	-0.028661327
103	0xbda290ad	-0.07937751
104	0x3d865edb	0.06561061
105	0xbe008702	-0.12551501
106	0xbd88c282	-0.066777244
107	0x3c6cb372	0.01444708
108	0xbd411458	-0.047138542
109	0xbd80a6ba	-0.062818006
110	0x3d8fad9a	0.07015534
111	0xbd51db1e	-0.051234357
112	0xbd840959	-0.064470954
113	0xbd1e9aca	-0.038721837
114	0x3dd74bca	0.105125025
115	0xbe031bc4	-0.1280356
116	0xbda5b665	-0.080914296
117	0x3d847db8	0.064692914
118	0xbb80b430	-0.00392773
119	0xbdae5309	-0.085119314
120	0xbd338241	-0.04382539
121	0x3e6dc4f8	0.23219669
122	0xbe3100be	-0.1728544
123	0xbcc78af9	-0.02435826
124	0x3b96202d	0.0045814724
125	0x3d83344d	0.0640646
126	0x3c367b38	0.011137776
127	0x3d4bfa67	0.04979935
128	0x3d2fd4c1	0.042927507
129	0x3a69b1fb	0.0008914766
130	0xbc934b88	-0.017980352
131	0x3be63331	0.0070251455
132	0x3d753b79	0.05987117
133	0x3d4ddcf4	0.050259545
134	0xbe1bc0f2	-0.15210322
135	0x3e0aa1c1	0.13538267
136	0x3cbbb88c	0.022915147
137	0xbd6245d3	-0.05524237
138	0xbdb1cfb7	-0.086821966
139	0x3da33585	0.079691924
140	0xbd54a534	-0.051915362
141	0xbbe32563	-0.006931947
142	0x3be7b7fd	0.0070714937
143	0x3b133e17	0.0022467428
144	0xbcd0653f	-0.025438903
145	0x3e1ba607	0.15200053
146	0x3c9f0349	0.019410746
147	0x3e3f7072	0.18695238
148	0xbdeb60e7	-0.11493092
149	0x3d2f5686	0.042807125
150	0xbda25197	-0.07925718
151	0xbe3980a3	-0.18115477
152	0x3c6ee029	0.014579811
153	0x3c3c6027	0.011497534
154	0x3e390ddf	0.18071698
155	0xbcc1a57d	-0.023638481
156	0x3da4f5a5	0.080546655
157	0xbe08d49d	-0.13362356
158	0xbdd0e38b	-0.101996504
159	0x3d9cd90c	0.07658586
160	0xbde75c8e	-0.1129695
161	0x3d021bfb	0.031764966
162	0xbd8fbabe	-0.0701804
163	0xbe11523d	-0.14191528
164	0xbb4502c0	-0.0030061454
165	0xbd42146d	-0.04738276
166	0xbdad5e6c	-0.08465275
167	0xbdb91a64	-0.09038237
168	0xbdcf42ee	-0.10120188
169	0x3d95f910	0.073228955
170	0xbd943930	-0.0723747
171	0xbbc8b45b	-0.0061250157
172	0xbd921c67	-0.071343236
173	0xbc869465	-0.016428182
174	0x3d09a958	0.033608764
175	0xbdaaea86	-0.08345513
176	0x3d226a81	0.03965235
177	0x3d6fe5d9	0.05856881
178	0x3c69c3c6	0.014267867
179	0x3e00bf18	0.12572896
180	0x3d4da4e0	0.050206065
181	0xbd092397	-0.033481207
182	0x3ab0ccf0	0.001348881
183	0xbccf8afc	-0.025334828
184	0xbe07e63f	-0.13271426
185	0xbdeb01ad	-0.11474929
186	0xbde65e23	-0.11248424
187	0x3e6a47b7	0.2287892
188	0xbd9271fd	-0.07150648
189	0xbd1dc389	-0.038516555
190	0xbd19704a	-0.037460603
191	0x3dae9df1	0.08526219
192	0xbcb8511c	-0.022499613
193	0xbd23718c	-0.03990321
194	0xbe43bac6	-0.19114217
195	0xbd1c0cfe	-0.038098328
196	0xbd44b472	-0.04802365
197	0xbe1ab124	-0.15106636
198	0x3d1bfb64	0.03808154
199	0x3e034775	0.12820227
200	0xbbfe9c5f	-0.0077701057
201	0xbcd3dc3f	-0.025861857
202	0xbd4ba926	-0.04972186
203	0x3dcceb99	0.10005874
204	0x3d440a7f	0.047861572
205	0xbceecef7	-0.029151423
206	0xbc909066	-0.01764698
207	0x3cf02cf4	0.02931831
208	0xbbe4145c	-0.006960435
209	0xbcc96202	-0.024582867
210	0xbd9abc49	-0.07555444
211	0xbdbe2535	-0.092844404
212	0xbd85354f	-0.065043084
213	0xbd596e6b	-0.05308382
214	0xbcaa48cb	-0.020786664
215	0xbdb9aa5f	-0.09065699
216	0xbb905d8d	-0.0044056834
217	0x3cfda896	0.030964177
218	0xbe135fcd	-0.14392014
219	0xbdb55391	-0.0885383
220	0xbda9d257	-0.08292072
221	0xbdd77c40	-0.10521746
222	0xbd73db08	-0.059535056
223	0x3cfcf872	0.030880187
224	0x3dea44c6	0.11438899
225	0xbdaf6c54	-0.08565584
226	0xbd566a89	-0.052347694
227	0xbd17a0cd	-0.037018586
228	0xbe2ae32b	-0.1668822
229	0x3cbeed9a	0.023306657
230	0xbde1498c	-0.11000356
231	0xbde52b77	-0.11189931
232	0xbd94ab0d	-0.07259188
233	0x3dfea48b	0.12433728
234	0x3e1c3ba5	0.15257128
235	0x3d6911db	0.056901794
236	0x3d4166c2	0.047217138
237	0xbe001278	-0.12507045
238	0xba8ea074	-0.0010881559
239	0x3cf01e67	0.029311372
240	0xbe3483e3	-0.17628436
241	0x3d3e7f5a	0.04650817
242	0xbd9c42dc	-0.0762994
243	0xbcd03b26	-0.02541883
244	0x3dfede95	0.12444798
245	0xbd04f780	-0.032462597
246	0xbdc31f33	-0.09527435
247	0x3e827ca5	0.2548572
248	0xbb474459	-0.0030405729
249	0x3e893308	0.26796746
250	0xbd7336ee	-0.059378557
251	0xbd556d5f	-0.052106258
252	0x3dcb7987	0.09935289
253	0xbd22ac2c	-0.039714977
254	0xbd75385e	-0.05986821
255	0xbdb0bed4	-0.086301476

encoder.encoder.0.W_o.bias f4 [100]
0	0xbb860ac9	-0.004090641
1	0x3c2e1edd	0.010627476
2	0xbbd7c5a9	-0.006584842
3	0x3accd67d	0.0015627887
4	0x3b5d10bf	0.0033731905
5	0x3a9d4f8a	0.0012001854
6	0x3b43425c	0.0029794192
7	0xbc80035c	-0.015626602
8	0x3ba1bd2c	0.004935881
9	0x3c20d836	0.009817174
10	0xbc82616d	-0.015915597
11	0x3c321f87	0.0108717745
12	0x3b8114ac	0.003939232
13	0x3703a305	7.846164e-06
14	0xbbf0bd66	-0.007346797
15	0xbc5550bd	-0.013019738
16	0x3c941007	0.018074049
17	0xbbbe49e5	-0.0058071488
18	0xbd116d61	-0.035504702
19	0x3c8dc469	0.01730557
20	0x3c5ddaa8	0.013540901
21	0xbb971e78	-0.0046117865
22	0x3b6f6462	0.0036528339
23	0x3d067583	0.03282691
24	0xbb10ddca	-0.0022104853
25	0x3b9958cf	0.0046797763
26	0x3b25cb1b	0.0025298062
27	0x3bfad3f5	0.007654662
28	0xbc2cc587	-0.010545141
29	0x3c93821e	0.01800638
30	0xbb25c525	-0.002529451
31	0xbc0b1f59	-0.008491361
32	0xbc1d9219	-0.009617352
33	0x3c21fe5b	0.009887303
34	0xbc16fb20	-0.009215146
35	0xbd07cf1f	-0.03315651
36	0xbc439954	-0.011938412
37	0xbcbf2825	-0.023334572
38	0x3b83b720	0.004019633
39	0xbb817eb6	-0.0039518727
40	0xbba97e60	-0.005172536
41	0xbba629f0	-0.0050709173
42	0xba8fa4b1	-0.0010959116
43	0x3ceb8d7a	0.028753985
44	0x3c094725	0.008378779
45	0x3c02672b	0.0079591675
46	0xbc097860	-0.008390516
47	0x3b4369ce	0.0029817703
48	0xb917ee86	-0.00014489339
49	0xbab8239a	-0.0014048696
50	0x3c16a158	0.009193741
51	0xbb9c83e7	-0.004776466
52	0x3bdb64e8	0.0066953786
53	0x3c07a6fd	0.008279559
54	0xbbabf3a1	-0.0052475487
55	0xbc8f9a02	-0.017529491
56	0x3ba73595	0.005102823
57	0xbb3c80a4	-0.00287632
58	0x3ac75bf9	0.0015209905
59	0x3cadc086	0.021209966
60	0xbc126630	-0.008935496
61	0xbc7ce7dd	-0.01543614
62	0xbbdd2528	-0.006748814
63	0x38b17a0e	8.462752e-05
64	0xbc4f142f	-0.0126390895
65	0xbc828ad6	-0.015935343
66	0x3c74e761	0.014947743
67	0xbc18c27c	-0.009323712
68	0x3b9a6732	0.004712009
69	0x3b29aef3	0.0025891631
70	0xbba8dd3f	-0.0051533277
71	0xbc394e7a	-0.011310214
72	0xbcb39d7c	-0.02192568
73	0xbc3fcbb7	-0.011706284
74	0xbc9ea964	-0.019367881
75	0x3d2b440d	0.041812945
76	0xbbeb477d	-0.007180153
77	0x3b88d8a8	0.004176218
78	0xbb09ecc3	-0.0021045662
79	0x3b9eba1b	0.004843963
80	0x3b22602d	0.0024776564
81	0x3bfc01ba	0.0076906355
82	0xbc4e6d3e	-0.012599288
83	0x3b89738d	0.004194683
84	0xbccf1bf0	-0.025281876
85	0x3c7efe45	0.015563552
86	0xbbdf14a9	-0.006807883
87	0xbc3f4749	-0.011674711
88	0xbab2ab07	-0.0013631292
89	0x3c178a0a	0.00924922
90	0xbaab9f29	-0.0013093698
91	0x3a20dc78	0.0006136368
92	0xbc802e9f	-0.01564723
93	0x3c0d11f2	0.0086102355
94	0x3b37617c	0.002798169
95	0x3a04367c	0.0005043519
96	0xbbb537da	-0.0055303397
97	0x3a77082f	0.00094235217
98	0x3b150ffc	0.0022745123
99	0xbb41a388	-0.0029546935

ffn.1.weight f4 [100, 300]
0	0x3e0a1bc4	0.13487154
1	0x3cb2a98b	0.02180936
2	0x3deb1c70	0.114800334
3	0xbc5ae06a	-0.013359169
4	0x3cefe5be	0.029284354
5	0xbe05d132	-0.13068083
6	0x3dad4d04	0.08461955
7	0xbc9a6493	-0.018846786
8	0xbdfa3faa	-0.12219174
9	0x3d69beb0	0.05706662
10	0xbdcff74e	-0.101545915
11	0x3d2ba818	0.041908354
12	0xbd3168f8	-0.043312997
13	0xbdb9436c	-0.09046063
14	0xbcce49a4	-0.025181599
15	0x3ca6f840	0.020382047
16	0x3d6d7ad6	0.057978474
17	0xbd795ae2	-0.06087769
18	0xbc36cde7	-0.011157489
19	0xbe8f38ba	-0.27972966
20	0xbc9b4b03	-0.018956667
21	0xbdd53e84	-0.104123145
22	0x3b326c64	0.002722525
23	0x3e0c8eaa	0.13726297
24	0x3cf84e03	0.030310636
25	0x3d1cbb9e	0.038264863
26	0xbd4c24ec	-0.0498399
27	0xbc556473	-0.013024437
28	0x3d253289	0.040331397
29	0xbd47c73c	-0.04877399
30	0xbd932b24	-0.07185963
31	0xbda3ee39	-0.08004422
32	0x3dcbbae2	0.099477544
33	0xbd7236f2	-0.05913443
34	0x3d850000	0.064941406
35	0xbdf1ad83	-0.11800673
36	0x3c8a702b	0.016899189
37	0x3d73cb79	0.05952022
38	0xbda23450	-0.07920134
39	0xbd12e2e8	-0.035860926
40	0xbb6f5f95	-0.0036525477
41	0xbdb6e421	-0.08930231
42	0x3d251efd	0.040312756
43	0x3dd5c1e8	0.10437375
44	0xbd8d03b9	-0.06885476
45	0x3959f773	0.00020786915
46	0xbdbb19da	-0.0913579
47	0x3db6771a	0.089094356
48	0x3d0e9161	0.034806613
49	0x3d08db7a	0.033412434
50	0xba888908	-0.0010416815
51	0xbd618563	-0.055058848
52	0xbb06e056	-0.0020580492
53	0xbcc0b493	-0.023523604
54	0xbd23321f	-0.03984272
55	0xbda6e2a3	-0.08148696
56	0xbd3f0d9b	-0.046643835
57	0xbd3bdf78	-0.045867413
58	0x3dd52cd2	0.104089394
59	0xbdcef9f8	-0.101062715
60	0x3dc9b325	0.09848622
61	0x3de06710	0.109571576
62	0xbdcdd62b	-0.10050615
63	0x3d7f79a8	0.06237188
64	0x3d5bd7ce	0.053672604
65	0xbc889fac	-0.0166777
66	0xbdb52824	-0.08845547
67	0xbcf9799e	-0.0304535
68	0x3b55f547	0.0032647417
69	0x3dddfaee	0.10838877
70	0x3b69a258	0.0035649743
71	0xbbe5845a	-0.007004303
72	0xbd2d68d2	-0.042336293
73	0x3d9b3bfa	0.07579799
74	0xbc323a7c	-0.010878202
75	0xbe1fcb6e	-0.15604946
76	0xbe18bf5b	-0.14916746
77	0x3d58faab	0.05297343
78	0x3e0037bd	0.12521262
79	0xbe1948ea	-0.14969221
80	0x3dc40cec	0.09572777
81	0xbd2ce14f	-0.04220706
82	0x3bed338c	0.007238811
83	0xba576a33	-0.0008217424
84	0xbd8f523f	-0.06998109
85	0x3d3ba401	0.045810703
86	0xbd537ee8	-0.0516347
87	0x3c879cbb	0.016554227
88	0xbcc4cea9	-0.024024324
89	0xbc8d604a	-0.017257828
90	0x3d4ca9e3	0.049966704
91	0x3c951bd0	0.018201739
92	0xbd811620	-0.06303048
93	0x3e25f53e	0.16206834
94	0x3c2cd460	0.010548681
95	0x3d95f7fe	0.073226914
96	0x3c88de2a	0.016707499
97	0xbcdbb78a	-0.026820917
98	0xbe23d2ee	-0.15998432
99	0x3bf78a1c	0.0075543057
100	0xbdda5180	-0.10660076
101	0xbd7e7669	-0.062124643
102	0xbd34efc7	-0.044173982
103	0xbd0fa7cc	-0.035072133
104	0x3d7aeefd	0.061263073
105	0xbd5356bd	-0.051596392
106	0xbd6d75d5	-0.0579737
107	0xbd871270	-0.065953135
108	0xbd3515e6	-0.044210337
109	0xbe207b55	-0.15672047
110	0x3c010e8b	0.0078770025
111	0xbd5f199f	-0.054467794
112	0x3aadab59	0.0013249918
113	0xbbad6305	-0.005291345
114	0x3ce3c46f	0.027803628
115	0x3d9fc78c	0.078017324
116	0xbd16fbd8	-0.03686127
117	0xbe2dc136	-0.16968235
118	0x3d05117c	0.032487378
119	0x3da2385a	0.079209045
120	0xbb0a8601	-0.0021137001
121	0x3d2785c4	0.040899053
122	0x3c0a89dd	0.008455721
123	0xbd0a5d76	-0.033780538
124	0xbc632a2a	-0.013865033
125	0xbbd694cb	-0.006548499
126	0x3d845077	0.0646066
127	0x3ce76115	0.028244535
128	0x3d883ac8	0.06651837
129	0x3d5af953	0.05346043
130	0x3c9befbd	0.019035215
131	0xbd6e951e	-0.058247678
132	0xbe005941	-0.12534048
133	0x3c7e161e	0.015508203
134	0xbd449985	-0.04799797
135	0x3e11c1d1	0.14234091
136	0x3d8ac711	0.0677625
137	0xbe05f4c6	-0.13081655
138	0x3d87c4c8	0.0662933
139	0xbd558e35	-0.052137572
140	0x3b8ae0e3	0.0042382344
141	0xbc565230	-0.013081118
142	0x3db204d5	0.08692328
143	0x3d8b50b7	0.068025045
144	0x3cc0a17d	0.023514504
145	0x3d7598de	0.05996024
146	0xbd03c69c	-0.03217183
147	0x3cbe4cdb	0.023230007
148	0xbd8ed63f	-0.06974458
149	0x3cc7e1e1	0.0243997
150	0xbc863521	-0.016382756
151	0xbdd0e7fa	-0.10200496
152	0x3d08260d	0.033239413
153	0xbd3de850	-0.04636413
154	0xbd4dd15b	-0.050248485
155	0xbd62e261	-0.055391673
156	0xbd33dbdc	-0.043910846
157	0xbbac09c6	-0.0052501885
158	0x3d350688	0.04419568
159	0xbc34bf75	-0.011031975
160	0x3d5fbc2c	0.054622814
161	0x3e1632c8	0.14667809
162	0x3dd1df07	0.10247617
163	0xbda4dfde	-0.08050512
164	0xbddc236c	-0.10748944
165	0xbd2031c5	-0.039109964
166	0x3d0e7dcf	0.03478795
167	0x3c8dbceb	0.017301997
168	0x3d410432	0.04712314
169	0x3d8d257f	0.068919174
170	0x3b47845f	0.003044389
171	0xbd7f8fc6	-0.062392972
172	0xbd3ce497	-0.046116438
173	0xbca5c2b9	-0.020234453
174	0x3c202893	0.009775299
175	0x3b29719b	0.0025855068
176	0xbdc7fa64	-0.09764555
177	0xbd43b41d	-0.04777919
178	0x3d8dc28f	0.06921875
179	0xbce0ed70	-0.027456969
180	0x3e208203	0.15674596
181	0x3d2a3363	0.041552912
182	0x3c6e1a54	0.014532644
183	0x3db9d5d7	0.0907399
184	0x3d599240	0.05311799
185	0xbe07b556	-0.13252768
186	0xbd85127a	-0.06497665
187	0x3d0d81a7	0.034547474
188	0xbd871984	-0.065966636
189	0x3c464ac2	0.012102785
190	0x3e0ecd7f	0.13945578
191	0x3ca946fc	0.02066373
192	0x3d25b639	0.040456984
193	0x3cc7687b	0.024341812
194	0xbb0b41a0	-0.0021248832
195	0x3dacdc12	0.084404126
196	0xbd97b800	-0.07408142
197	0x3dc64508	0.096811354
198	0xbd61593e	-0.05501675
199	0xbe34b617	-0.17647587
200	0x3cee1568	0.029062942
201	0x3d6466cb	0.055762094
202	0x3d63537a	0.05549953
203	0xbdde3a44	-0.10850957
204	0x3cac37eb	0.021022758
205	0xbc7d2ce5	-0.015452598
206	0xbc7bce2f	-0.015368982
207	0xbc4cbd36	-0.012496283
208	0x3da27569	0.079325505
209	0xbd776d93	-0.060407232
210	0xbdd3ffe2	-0.1035154
211	0xbd20e839	-0.039283965
212	0x3e010667	0.12600099
213	0x3db73255	0.08945147
214	0xbd51994a	-0.05117158
215	0x3cd7b03a	0.026329149
216	0x3d1ae63d	0.03781723
217	0xbc54aed7	-0.012981138
218	0x3d4664a1	0.04843581
219	0xbccd5b96	-0.025068086
220	0xbda2100a	-0.079132155
221	0xbdd3d55e	-0.10343431
222	0x3d0e3a21	0.034723405
223	0x3d561100	0.052262306
224	0xbd9db644	-0.0770078
225	0xbda93fe8	-0.08264142
226	0xbc197867	-0.009367085
227	0x3cd82944	0.026386864
228	0x3ce2b5a5	0.027674505
229	0x3c64c3a8	0.013962664
230	0x3d10ec43	0.035381567
231	0x3cc51e71	0.024062367
232	0x3c868def	0.016425101
233	0x3cab779d	0.02093106
234	0x3c990640	0.018679738
235	0x3d1b3266	0.03788986
236	0xbd0510f9	-0.03248689
237	0x3d614c0e	0.055004172
238	0xbd7ea7f4	-0.06217189
239	0x3dc125b6	0.09431021
240	0x3dbb27ee	0.09138475
241	0xbe1a8c86	-0.15092668
242	0x3c058b0d	0.008150828
243	0x3c6b4351	0.014359311
244	0x3d7e3c7c	0.0620694
245	0x3be0bcb0	0.006858431
246	0xbd970203	-0.073734306
247	0xbc848893	-0.016178405
248	0xbce3a16b	-0.027786931
249	0xbd9a2eb9	-0.07528443
250	0xbe1ff708	-0.15621579
251	0xbd390587	-0.045171287
252	0xbd18c6bc	-0.037298903
253	0xbd9a300f	-0.07528698
254	0xbc933fc7	-0.017974747
255	0x3b88a13d	0.0041696117

ffn.1.bias f4 [100]
0	0x3c758f4c	0.014987778
1	0xbc67112e	-0.014103217
2	0x3c0e62df	0.008690565
3	0xbcab55a8	-0.020914868
4	0x3ba3058e	0.0049750274
5	0xbccd971d	-0.02509647
6	0xbcdc695b	-0.026905706
7	0xbae4853b	-0.0017434725
8	0x3c44679e	0.011987595
9	0xbb8b7a06	-0.0042564897
10	0xbbfc0479	-0.007690963
11	0x3bde4edb	0.0067843026
12	0xbb947169	-0.004530121
13	0xba0416d0	-0.00050388
14	0x3cee453b	0.029085746
15	0x3b971a51	0.0046112915
16	0xbc35779b	-0.011075879
17	0x3c338286	0.010956412
18	0xbc4eaef5	-0.012614955
19	0xbc95154e	-0.018198635
20	0xbcdd101e	-0.026985224
21	0xbb8ee3a6	-0.004360634
22	0x3c25bce8	0.01011584
23	0x3c4dd184	0.012562159
24	0xbcc80003	-0.024414068
25	0xbc7b1267	-0.015324212
26	0xbc485b78	-0.012228839
27	0xbb06ce26	-0.0020569651
28	0xbcccd9c3	-0.02500618
29	0xbbb0130d	-0.005373365
30	0xbc5c3d79	-0.013442391
31	0x3c3f44fe	0.011674164
32	0x3cc3fc00	0.023923874
33	0x3c8c1122	0.017098013
34	0xbbf026fd	-0.0073288665
35	0xbc4bc902	-0.012438061
36	0xbc096515	-0.008385916
37	0xbba05f92	-0.0048942054
38	0xbcaa2c5b	-0.020773103
39	0xbbdcc842	-0.00673774
40	0x3b43e9db	0.0029894027
41	0xbc013b04	-0.007887606
42	0x3c44e771	0.012018071
43	0x3b9ddde6	0.004817712
44	0xbc1f73cc	-0.009732198
45	0xbc71bcb3	-0.014754462
46	0x3c8f7fc3	0.017516976
47	0x3c4bd1f1	0.012440191
48	0xbc7408e8	-0.014894702
49	0xbc8feecc	-0.017569922
50	0x3c8ee8fb	0.017445078
51	0x3c7bd21d	0.015369919
52	0x3c93e788	0.018054739
53	0xbb19d565	-0.002347314
54	0x3c9e75a1	0.0193432
55	0xbc9c3d09	-0.019072073
56	0xbbb18d48	-0.0054184534
57	0x3ba682df	0.005081519
58	0xbc4c7b02	-0.012480499
59	0x3b7d7a4c	0.003867763
60	0xba92cee1	-0.0011200571
61	0xbb964157	-0.004585426
62	0x3c8b4742	0.017001752
63	0xbbaba382	-0.0052379975
64	0xbc146122	-0.009056361
65	0x3b4d6c91	0.0031345228
66	0x3bf6f0c2	0.007536025
67	0xbb98b864	-0.004660653
68	0x3c0b1895	0.0084897475
69	0xbc1f2a9d	-0.00971475
70	0x3ba2f0ac	0.004972538
71	0xbc82bff1	-0.015960665
72	0xbc3fc891	-0.011705534
73	0x3ba74abc	0.0051053446
74	0xbb96aea9	-0.004598458
75	0xb9505ce2	-0.00019871027
76	0x3c3d706b	0.011562447
77	0xbc391c40	-0.011298239
78	0x3ca361c5	0.019944081
79	0x3c32a896	0.010904452
80	0xbc876d4d	-0.01653161
81	0x3bfbf2e3	0.0076888665
82	0x3c287a9e	0.01028314
83	0x3be00c94	0.006837437
84	0x3c464039	0.012100273
85	0xbca78e22	-0.020453516
86	0x3c6e2e01	0.014537335
87	0xbb391fde	-0.0028247754
88	0x3aaa40ea	0.0012989317
89	0xbca2c831	-0.01987085
90	0xbca5d93c	-0.020245187
91	0xbac6c4b9	-0.0015164829
92	0x3cb96cb6	0.022634845
93	0xbb958677	-0.0045631486
94	0xbc96a9cc	-0.018391512
95	0xbc8a2696	-0.016864102
96	0x3bad8dab	0.005296429
97	0xbb6293b0	-0.0034572892
98	0xbbfcbb8f	-0.0077127884
99	0xba0fb7b3	-0.00054823904

ffn.4.weight f4 [100, 100]
0	0x3d106c3e	0.035259478
1	0x3d9a9a5d	0.07548974
2	0xbe3abca1	-0.18236019
3	0x3e1bc351	0.15211226
4	0xbe0c5888	-0.13705647
5	0xbd2afd8b	-0.041745704
6	0xbdb5657a	-0.08857246
7	0x3e1e4378	0.15455425
8	0x3d9ad1d7	0.07559555
9	0x3bbb076b	0.0057076714
10	0x3e086039	0.13317956
11	0xbe492824	-0.19644219
12	0xbd809a1d	-0.06279395
13	0xbe759a6b	-0.23984687
14	0x3d087f65	0.033324618
15	0x3d4a28f6	0.04935547
16	0x3ca81ea3	0.020522421
17	0xbe3afea7	-0.18261205
18	0x3d97ebd8	0.074180305
19	0xbda375d5	-0.07981459
20	0xbc868fa5	-0.016425917
21	0xbddbbca5	-0.107293405
22	0xbcc8a2fe	-0.024491783
23	0xbd9d1740	-0.0767045
24	0xbda439fc	-0.08018872
25	0x3dd5460e	0.104137525
26	0xbda1e07b	-0.079041444
27	0x3a1aebd0	0.00059097726
28	0x3d8e1e12	0.06939329
29	0x3e799100	0.2437172
30	0x3dcda220	0.100406885
31	0x3c07a65f	0.008279412
32	0xbcbcafc2	-0.023033027
33	0xbde2e42c	-0.110786766
34	0x3e5d1bb6	0.21592602
35	0x3ca0d942	0.019634847
36	0xbe0787d8	-0.13235414
37	0xbe0ca59f	-0.13735054
38	0xbb5a361c	-0.0033296412
39	0x3db5e4a2	0.08881499
40	0xbdbdf7ce	-0.092757806
41	0x3b2ef467	0.0026695968
42	0xbe0bf765	-0.13668592
43	0x3dcac220	0.09900308
44	0x3e17c2fa	0.14820471
45	0xbbb6e0ba	-0.0055809887
46	0x3d895784	0.067061454
47	0xbd275482	-0.040852077
48	0xbd34f856	-0.044182144
49	0xbd86a0c6	-0.06573634
50	0xbca9deb4	-0.020736076
51	0x3dd44c18	0.10366076
52	0xbe8b48b0	-0.27203894
53	0x3e59321f	0.21210526
54	0xbd107fb7	-0.03527805
55	0xbd97da1b	-0.07414647
56	0x3e4191b0	0.18903232
57	0x3dec47ad	0.115371086
58	0x3e5bc84f	0.2146313
59	0x3de3533a	0.110998586
60	0x3e59cf53	0.21270494
61	0x3dca84e5	0.09888629
62	0x3cd86a3a	0.02641784
63	0x3e17c65e	0.14821765
64	0x3da11c86	0.078667685
65	0x3d674674	0.056463674
66	0x3d1e3f19	0.038634393
67	0x3d379aea	0.044825472
68	0xbe19fd32	-0.15037993
69	0xb9dbce18	-0.00041924487
70	0x3cb6bff1	0.022308322
71	0xbd092713	-0.03348453
72	0x3dcd48ad	0.100236274
73	0x3d013fe5	0.031555075
74	0x3d9cdb0a	0.07658966
75	0xbd410d6a	-0.047131933
76	0xbe092756	-0.13393912
77	0xbda8e079	-0.0824594
78	0x3da96169	0.08270533
79	0x3da5ff59	0.08105344
80	0xbd4b1d20	-0.049588323
81	0x3b021804	0.001985074
82	0xbe187b8b	-0.14890878
83	0xbddc2615	-0.10749451
84	0xbd6c57d4	-0.057700947
85	0x3d3d95d3	0.04628546
86	0x3de631cb	0.11239966
87	0xbba489fc	-0.005021332
88	0x3cee61bc	0.029099338
89	0x3d95eeb0	0.07320917
90	0x3cc48ad2	0.023991976
91	0x3e13aae7	0.14420663
92	0xbd6dfe9d	-0.058104146
93	0x3d85fbab	0.065421425
94	0x3e671513	0.22566633
95	0x3d3cd196	0.046098314
96	0x3e36dd30	0.17857814
97	0x3d9d167d	0.07670305
98	0xbda7e2e2	-0.08197571
99	0xbe0b7674	-0.13619405
100	0xbb694f13	-0.003560011
101	0xbdda3c30	-0.10656011
102	0x3ea4e7e6	0.32208174
103	0xbc5f8367	-0.013642169
104	0xbe0b2787	-0.13589297
105	0xbe408c9e	-0.18803641
106	0xbd028485	-0.03186466
107	0xbc95a8df	-0.018269
108	0xbda4e6fb	-0.080518685
109	0xbdfeff5b	-0.12451049
110	0x3de6cc90	0.11269486
111	0x3c3c5b5d	0.011496392
112	0x3df2ea6d	0.118611194
113	0xbe51a480	-0.20472908
114	0x3de65b9b	0.11247941
115	0xbe1673e4	-0.14692646
116	0x3e5806f5	0.21096404
117	0xbe357dd8	-0.17723787
118	0x3e2731e0	0.1632762
119	0xbd6cfaef	-0.057856496
120	0x3d1decf9	0.038556073
121	0xbdb511d9	-0.08841295
122	0xbca55b00	-0.020184994
123	0xbd855350	-0.06510031
124	0x3d811207	0.063022666
125	0x3d04dbb3	0.032436084
126	0xbe57b7b6	-0.21066174
127	0xbd88b870	-0.06675804
128	0x3d4f89cd	0.050668526
129	0x3da082c0	0.078374386
130	0xbe09cf5a	-0.13458005
131	0xbd7274c3	-0.059193384
132	0xbcd7b498	-0.026331231
133	0x3e4adec7	0.19811545
134	0x3c36a791	0.011148349
135	0x3ca4da13	0.020123517
136	0x3d527a3b	0.0513861
137	0xbddd24d6	-0.107980415
138	0x3e0796c3	0.13241105
139	0x3dc11829	0.09428436
140	0xbe09329d	-0.13398214
141	0xbd60a127	-0.054841187
142	0xbdea4761	-0.11439396
143	0xbe4e14df	-0.20125149
144	0xbde9301e	-0.11386131
145	0x3d0ab1a9	0.033860836
146	0x3e054d7f	0.13017844
147	0x3dc84e8a	0.09780605
148	0x3d34001d	0.04394542
149	0xbd5962c8	-0.05307272
150	0xbc942bd3	-0.018087303
151	0x3dc4f08f	0.096161954
152	0xbdf2970e	-0.11845218
153	0x3d113533	0.035451125
154	0xbd7150ea	-0.058915056
155	0xbde1ef27	-0.11031943
156	0xbd4550e3	-0.048172843
157	0x3e04014c	0.1289112
158	0x3ac8e8fd	0.0015328225
159	0xbcef1074	-0.02918265
160	0xbdcbc289	-0.09949214
161	0x3dc3f8b5	0.095689215
162	0x3d36c91d	0.04462539
163	0x3ea039a8	0.31293988
164	0xbdd9b6db	-0.1063058
165	0xbe3ae3ef	-0.18251012
166	0xbd7e4d64	-0.062085524
167	0x3da1db3e	0.07903145
168	0x3ded65c3	0.11591675
169	0x3ccf0b6d	0.025274003
170	0xbda27698	-0.07932776
171	0xbd35dde9	-0.044401083
172	0x3d80f76c	0.06297192
173	0x3dfbc997	0.122943096
174	0x3d9cb4d9	0.076516815
175	0x3e4e8de0	0.20171309
176	0x3cff7a9d	0.031186396
177	0x3e041b48	0.12901032
178	0xbccfa2d7	-0.025346203
179	0xbe692d50	-0.22771192
180	0x3d8d4787	0.068984084
181	0x3e50b35f	0.20380925
182	0xbc36d2de	-0.011158673
183	0xbd197e12	-0.037473746
184	0x3d7c4867	0.061592486
185	0x3d4f0ee4	0.05055131
186	0x3d78ac68	0.060711294
187	0xbe683051	-0.22674681
188	0xbd6ebd96	-0.058286272
189	0x3e14e771	0.14541413
190	0xbd53c368	-0.051700026
191	0xbcdc2570	-0.02687332
192	0x3de0e192	0.10980524
193	0x3df79aa5	0.12090043
194	0xbdecce1a	-0.11562748
195	0x3e4e8d24	0.20171028
196	0x39d977f0	0.00041478826
197	0x3cd91541	0.026499392
198	0xbd9ae530	-0.07563245
199	0xbca26fa9	-0.019828634
200	0x3bcb1acf	0.006198264
201	0x3d7ffd59	0.06249747
202	0xbdbdc7f1	-0.092666514
203	0x3e10a2b6	0.1412457
204	0xbe3d1756	-0.18465933
205	0xbd81788b	-0.0632182
206	0x3da1f061	0.07907177
207	0xbd9b4c87	-0.07582956
208	0xbd7291ea	-0.059221186
209	0x3d4724ca	0.04861907
210	0x3e41260d	0.18862171
211	0x3e10bed8	0.14135301
212	0x3dbe7fc6	0.093017146
213	0x3d944a4e	0.07240735
214	0x3d903010	0.07040417
215	0x3c592f63	0.013255927
216	0x3e2b39ee	0.16721317
217	0xbd101098	-0.035172075
218	0x3c9ee69c	0.019397072
219	0x3cb4f90f	0.022091417
220	0xba722403	-0.00092369335
221	0xbe2256d5	-0.15853436
222	0xbc1fd3e5	-0.009755109
223	0x3c35c64a	0.011094639
224	0xbd8a36a1	-0.06748701
225	0xbb920ef5	-0.0044573494
226	0x3de0e7b4	0.10981694
227	0xbd493957	-0.04912695
228	0xbc16970f	-0.009191289
229	0xbd96330c	-0.07333955
230	0xbdca9655	-0.09891955
231	0xbd29c01e	-0.041442983
232	0xbd859297	-0.065221004
233	0xbc209b1f	-0.009802609
234	0xbde4b46c	-0.11167225
235	0x3d041f60	0.032256484
236	0x3c704ad3	0.014666277
237	0x3e4e2505	0.2013131
238	0x3e455cb2	0.19273642
239	0xbd7aa12d	-0.061188865
240	0x3c4fa503	0.012673619
241	0x3db7c18d	0.08972464
242	0xbdf825b3	-0.121165656
243	0x3d31986c	0.04335825
244	0x3c42f10b	0.011898289
245	0x3d490dce	0.04908543
246	0x39139c43	0.00014077224
247	0xbe632a84	-0.22184187
248	0x3d8dbbde	0.069205984
249	0x3d846783	0.06465056
250	0xbdd18cba	-0.102319196
251	0x3ce92346	0.028459202
252	0xbd8dbfe4	-0.06921366
253	0x3e42cc8d	0.19023342
254	0xbd890508	-0.06690413
255	0xbda509fa	-0.080585435

ffn.4.bias f4 [100]
0	0xbc9f4576	-0.019442301
1	0xbc9a82ba	-0.018861163
2	0xbcb75a4f	-0.02238193
3	0x3d248c2d	0.040172745
4	0xbc4b2a36	-0.012400201
5	0x3c15d9a7	0.009146131
6	0x3d3123ab	0.043246906
7	0x3d76bdd8	0.060239643
8	0x3dbbab50	0.09163535
9	0xbc80f8b2	-0.015743587
10	0xbd095360	-0.03352678
11	0x3c4719f6	0.012152186
12	0x3d32d9db	0.043664794
13	0xbc4dbaa3	-0.012556705
14	0x3d6db499	0.05803356
15	0xbbd21e88	-0.006412331
16	0x3d7a1416	0.06105431
17	0xbc792108	-0.015205629
18	0x3d84bdb4	0.064814955
19	0x3cbd87a4	0.023135968
20	0xb9a2d2bc	-0.00031056057
21	0x3da09c11	0.07842267
22	0xbc540069	-0.012939551
23	0x3d5733f0	0.052539766
24	0x3d0ee417	0.034885492
25	0xbc92d180	-0.017922163
26	0x3d46c4cf	0.048527535
27	0xbca7e1af	-0.020493357
28	0xbc650a7f	-0.013979553
29	0x3d807145	0.062716044
30	0xbd14ac1d	-0.036296953
31	0x3d7d88dc	0.061898097
32	0xbd2a1860	-0.041527152
33	0x3d83dd55	0.064387
34	0xbcd08984	-0.025456198
35	0xbcd52fab	-0.026023706
36	0x3d1dc3d4	0.038516834
37	0x3c68348e	0.014172686
38	0xbd3586e7	-0.044318106
39	0x3d6621ee	0.0561847
40	0xbcbf5b5c	-0.023358993
41	0x3da47955	0.08030955
42	0xbcf7953b	-0.030222526
43	0x3d7f5bed	0.062343527
44	0x3d28e209	0.04123119
45	0xbc95b033	-0.018272495
46	0x3b85a629	0.0040786457
47	0xbc1c5195	-0.009540935
48	0xbc7ff2b0	-0.015621826
49	0xbca9626f	-0.02067682
50	0x3ce483dc	0.027894907
51	0x3cecd31e	0.028909262
52	0x3d0554b1	0.03255147
53	0xbcee4764	-0.029086776
54	0xbcc3b8d4	-0.023891844
55	0x3d57e3d2	0.0527075
56	0x3d7289f1	0.059213582
57	0x3d978b98	0.07399672
58	0x3b15c612	0.0022853655
59	0xbbc11897	-0.005892824
60	0xbbe0da0b	-0.0068619302
61	0xbc95147c	-0.018198244
62	0x3bb80205	0.005615475
63	0x3c4d6488	0.012536176
64	0xb8bde087	-9.054044e-05
65	0xbd05ce19	-0.032667253
66	0x3cf9d32b	0.0304962
67	0x3b2c9c4d	0.002633828
68	0xbcc72987	-0.024311794
69	0x3d794ad4	0.060862377
70	0xbbe94ec0	-0.0071199834
71	0xbc90799d	-0.017636115
72	0xbc8ab947	-0.01693405
73	0xbd202072	-0.039093442
74	0x3c078e5d	0.008273688
75	0xbd060383	-0.032718193
76	0x3d3fedf6	0.046857797
77	0xbc802409	-0.015642183
78	0xbcb40625	-0.021975586
79	0x3c30fe17	0.010802767
80	0x3c38e0d7	0.011284075
81	0x3d4e20ac	0.050324127
82	0x3d0d3c8c	0.03448157
83	0x3cb67a3f	0.022275088
84	0xbb63ea1b	-0.003477699
85	0xbb8ffed9	-0.004394394
86	0x3d89448f	0.0670253
87	0x3d366bc8	0.044536382
88	0x3d7edb01	0.062220577
89	0xba14a229	-0.00056699157
90	0x3bd2c19d	0.006431772
91	0xbcb8ba59	-0.022549795
92	0x3d610d9f	0.05494463
93	0xbb6473bf	-0.003485903
94	0xbc985d15	-0.018599072
95	0x3c71340e	0.014721883
96	0x3ccb1a01	0.024792673
97	0x3de420b1	0.11139048
98	0xb9e8bcb4	-0.00044391083
99	0xbc7e60fe	-0.015526054

ffn.7.weight f4 [1, 100]
0	0xbe926ce6	-0.28598708
1	0xbdb54677	-0.08851331
2	0xbe383977	-0.17990671
3	0x3e8ee438	0.27908492
4	0xbecc8703	-0.39946756
5	0x3e34c6a9	0.17653908
6	0x3e251b21	0.1612363
7	0x3e6f9ce5	0.23399694
8	0x3e21aeea	0.1578938
9	0xbe051448	-0.12996018
10	0x3c0b38ce	0.00849743
11	0xbeb0e69d	-0.34550944
12	0x3da3c1ba	0.07995935
13	0xbdf91643	-0.12162449
14	0x3e47072b	0.19436328
15	0xbe595c9f	-0.21226738
16	0x3e45bc66	0.1931015
17	0xbda90e49	-0.08254678
18	0x3daf72a4	0.08566788
19	0xbdc6495c	-0.09681961
20	0xbd8de48b	-0.06928357
21	0x3e291c76	0.16514763
22	0xbe924aec	-0.28572786
23	0x3e0a2202	0.13489535
24	0x3d7de454	0.06198533
25	0xbe7d65b6	-0.24745831
26	0x3d5a8f34	0.053359225
27	0xbd91850b	-0.07105454
28	0xbe0fc723	-0.14040808
29	0x3e941cd3	0.2892824
30	0xbd38e90a	-0.04514412
31	0x3e14298d	0.14468975
32	0xbdf48a24	-0.11940411
33	0x3e2f3343	0.17109399
34	0xbd3dc973	-0.046334695
35	0xbdbfda59	-0.093678184
36	0x3dd9bc3d	0.10631607
37	0xbe07a10f	-0.13245033
38	0xbdfe89da	-0.12428637
39	0x3e16bbe1	0.14720108
40	0x3bbf6051	0.005840339
41	0x3e04fd54	0.12987262
42	0xbd275f41	-0.040862326
43	0x3d96cba3	0.07363059
44	0x3ee2857b	0.44242463
45	0xbe34ca03	-0.17655186
46	0xbd6da563	-0.058019053
47	0xbe35379e	-0.17696998
48	0xbe5c7ecf	-0.21532749
49	0xbd7bacf6	-0.061444245
50	0x3de012e9	0.10941107
51	0x3e60eb3f	0.2196474
52	0x3e1b28aa	0.15152231
53	0xbe7055a7	-0.23470174
54	0xbe063236	-0.13105091
55	0x3d5c9655	0.053854305
56	0x3e732503	0.23744588
57	0x3e27d114	0.1638835
58	0xbea117a1	-0.3146334
59	0xbe7651c9	-0.24054636
60	0xbec5030b	-0.38478884
61	0xbd41c925	-0.047310967
62	0xbeabbffd	-0.33544913
63	0xbda0ddab	-0.0785478
64	0xbe51e86b	-0.20498817
65	0xbeadd618	-0.33952403
66	0x3dd8c3d4	0.10584226
67	0xbe5226fc	-0.20522684
68	0xbdee1c7b	-0.11626526
69	0x3e42e45f	0.19032429
70	0xbe5e05e4	-0.21681935
71	0xbe05a512	-0.1305125
72	0xbe0c7af7	-0.13718782
73	0xbd9bc7c4	-0.07606462
74	0xbdfdf900	-0.124010086
75	0xbd48dd5c	-0.04903923
76	0x3e3cc8c4	0.18435961
77	0xbe9e16cd	-0.3087677
78	0xbd9354ca	-0.071939066
79	0xbe438100	-0.19092178
80	0xbe0a5062	-0.13507226
81	0x3e05980d	0.13046284
82	0xbdde8705	-0.10865597
83	0xbe00ad5f	-0.12566136
84	0xbe6e9142	-0.23297599
85	0x3d82ae2c	0.06380877
86	0x3dc18325	0.09448842
87	0x3d8cc22a	0.06872971
88	0x3e4124e9	0.18861736
89	0xbe0cc5b9	-0.137473
90	0x3ca5f1d2	0.02025691
91	0xbe3694f5	-0.1783026
92	0x3dddc3ac	0.10828337
93	0xbe3075e7	-0.17232476
94	0xbe1b3bb4	-0.15159494
95	0xbeb8737d	-0.3602561
96	0x3e3967bf	0.18105982
97	0x3ddf79f4	0.109119326
98	0xbe7727b1	-0.24136235
99	0xbe35f174	-0.17767888
