githubproject/lbdd/amse_build/mmodel14/checkpoints4/fold_4/model_0/model.pt (torch, 127883 bytes, 8 tensors)

encoder.encoder.0.cached_zero_vector f4 [64]
000000 00 00 00 00 00 00 00 00 00 00 00 00 00 00 00 00
       0.0 0.0 0.0 0.0
000010 00 00 00 00 00 00 00 00 00 00 00 00 00 00 00 00
       0.0 0.0 0.0 0.0
000020 00 00 00 00 00 00 00 00 00 00 00 00 00 00 00 00
       0.0 0.0 0.0 0.0
000030 00 00 00 00 00 00 00 00 00 00 00 00 00 00 00 00
       0.0 0.0 0.0 0.0
000040 00 00 00 00 00 00 00 00 00 00 00 00 00 00 00 00
       0.0 0.0 0.0 0.0
000050 00 00 00 00 00 00 00 00 00 00 00 00 00 00 00 00
       0.0 0.0 0.0 0.0
000060 00 00 00 00 00 00 00 00 00 00 00 00 00 00 00 00
       0.0 0.0 0.0 0.0
000070 00 00 00 00 00 00 00 00 00 00 00 00 00 00 00 00
       0.0 0.0 0.0 0.0
000080 00 00 00 00 00 00 00 00 00 00 00 00 00 00 00 00
       0.0 0.0 0.0 0.0
000090 00 00 00 00 00 00 00 00 00 00 00 00 00 00 00 00
       0.0 0.0 0.0 0.0
0000a0 00 00 00 00 00 00 00 00 00 00 00 00 00 00 00 00
       0.0 0.0 0.0 0.0
0000b0 00 00 00 00 00 00 00 00 00 00 00 00 00 00 00 00
       0.0 0.0 0.0 0.0
0000c0 00 00 00 00 00 00 00 00 00 00 00 00 00 00 00 00
       0.0 0.0 0.0 0.0
0000d0 00 00 00 00 00 00 00 00 00 00 00 00 00 00 00 00
       0.0 0.0 0.0 0.0
0000e0 00 00 00 00 00 00 00 00 00 00 00 00 00 00 00 00
       0.0 0.0 0.0 0.0
0000f0 00 00 00 00 00 00 00 00 00 00 00 00 00 00 00 00
       0.0 0.0 0.0 0.0

encoder.encoder.0.W_i.weight f4 [64, 147]
000000 e9 96 93 bd 51 26 4d bd ae 90 22 bd ba 64 8d 3d
       -0.07206518 -0.05008537 -0.03968876 0.06903978
000010 5c 57 05 3d 31 1f 83 be 49 ce 3f 3e ea 19 76 be
       0.032554016 -0.25609735 0.18731035 -0.24033323
000020 e2 d3 3f 3d 18 a4 32 be e0 7f 87 3d 7c 6d 64 bd
       0.046832927 -0.1744541 0.06616187 -0.055768475
000030 39 16 2e bd 1d 41 0c be 99 ee 32 bd 7a 7c e0 bd
       -0.042501662 -0.13696714 -0.043684576 -0.10961242
000040 ae 85 9b 3d a0 19 c7 3c e1 4e 41 bd 3b 12 e0 3c
       0.07593857 0.024304211 -0.047194365 0.027352443
000050 7d ce 6d 3d 1c 5b c6 bd ae a4 66 be 27 e4 f6 3d
       0.05805825 -0.096853465 -0.22523758 0.12055235
000060 36 15 d3 3d 7c 32 dd bd 37 1a 23 3c a2 3f 95 3d
       0.1030678 -0.10800645 0.009954981 0.072875276
000070 74 f2 3e bd 81 54 f9 3d 38 30 13 bc f4 5b 81 be
       -0.04661794 0.12174321 -0.008983664 -0.25265467
000080 fa 63 83 bc c4 25 3c 3e d7 59 c0 bb 05 ce 94 bd
       -0.016038883 0.18373781 -0.0058700847 -0.072658576
000090 2d 8b 26 bd 15 04 35 3c d7 9b 02 be b6 e3 b6 bc
       -0.040660072 0.0110483365 -0.1275476 -0.022325378
0000a0 fc 46 b8 3d 91 5f 84 3b a2 4c e5 bd d0 78 a3 bd
       0.08997914 0.0040397127 -0.11196257 -0.079820275
0000b0 46 0e 8a ba 13 5b 15 3d 93 db 0e be 96 42 80 3e
       -0.0010532818 0.03646381 -0.13950948 0.250508
0000c0 4d e6 6f bc bd 26 f7 bd f7 b9 1a 3e 3f 24 ce 3c
       -0.01464231 -0.120679356 0.15110002 0.025163768
0000d0 39 3a c4 bc 5d 5b 26 be c0 98 5c 3d 2c f3 88 bd
       -0.023953544 -0.1624579 0.05385661 -0.06687006
0000e0 d7 b8 d1 3d 04 21 ca bd 33 c2 e6 bd a6 db f7 3d
       0.102403335 -0.098695785 -0.11267509 0.121024415
0000f0 4c d0 ce bc 69 40 2c be 0c 49 0c 3d c3 14 69 bd
       -0.025245808 -0.16821446 0.03424935 -0.056904566
000100 af 62 e0 3d 27 94 55 3e c9 93 b1 3d 96 ba 63 3d
       0.109563224 0.20857297 0.08670766 0.055597864
000110 e4 5b 93 bd ee c1 0b 3d 95 a1 1a be 54 d8 02 3e
       -0.07195261 0.034120493 -0.15100701 0.12777835
000120 16 91 36 be 7f c4 a2 bd e3 7b 34 3e 0d 2f 54 3d
       -0.17828783 -0.07947635 0.17625384 0.051802684
000130 00 a8 85 bd 5c 52 06 3e f1 49 e3 3c 6c ee 67 3c
       -0.06526184 0.13117355 0.027745219 0.014155965
000140 e2 a8 84 bd c1 0b 40 3e 35 60 d0 3d b4 f4 25 3c
       -0.06477524 0.18754484 0.101746 0.010129143
000150 9d d8 00 3e 9a 82 c2 3d f6 5c 18 3e b4 d7 b0 3c
       0.12582631 0.094975665 0.14879212 0.02158723
000160 2f 2c 3c 3e 50 cb 4e bd 3a 66 cd bd fc e8 96 3b
       0.1837623 -0.050486863 -0.10029264 0.0046054106
000170 c9 59 7e bd 74 71 3e bd f1 de 96 bd 7b 4e 30 be
       -0.062097345 -0.046494916 -0.073667414 -0.17217438
000180 5e 74 d9 3c bd bc bb 3b 4d b4 66 3c d6 78 e4 bd
       0.026544746 0.0057292865 0.014081073 -0.1115586
000190 1c 8c e0 3d eb a7 7b 3d 62 b8 ce bd e7 43 49 3d
       0.10964224 0.061439436 -0.10093762 0.049137022
0001a0 0d 47 3f 3e be 76 ac 3d 60 54 d9 bd 2f 94 3f bd
       0.18679447 0.08421086 -0.106117964 -0.04677218
0001b0 02 f2 a2 be 0a 9e ae 3d 35 c8 ad 3d 24 54 2a 3d
       -0.31825262 0.08526237 0.08485452 0.04158415
0001c0 ec a9 bf 3b d4 5b 93 bc 26 11 44 3d 13 3d 20 be
       0.0058491137 -0.017988123 0.047867917 -0.15648298
0001d0 90 d8 37 3e 9d 5f b0 3d bc 70 27 3e 18 d6 04 be
       0.17953706 0.08611987 0.16351599 -0.12972295
0001e0 ef 0c 65 3d 1f c9 8d 3e fd 45 c6 bd 21 ff 98 3d
       0.055920538 0.27692506 -0.09681318 0.07470537
0001f0 7e 2b e0 ba 3c 75 8f 3e e6 97 4f 3e 04 31 d8 3c
       -0.0017102805 0.2801913 0.20272788 0.02639056
000200 f0 35 87 be e2 90 c4 3d aa 00 1c 3d 9c 82 ae be
       -0.2640834 0.09597947 0.03808657 -0.34084022
000210 96 28 a0 3d 96 22 05 bd 37 54 08 3e 24 b5 55 3c
       0.07820241 -0.032503687 0.13313375 0.013043676
000220 71 6c b6 bd de d2 0d be 91 7e 87 3d 4c 4c e7 be
       -0.08907402 -0.1384997 0.066159375 -0.45175397
000230 e1 44 85 be ce 26 84 3d 15 1d b4 3d e3 95 ef 3d
       -0.26029113 0.06452714 0.087946095 0.116985105
000240 f4 78 38 bd 93 2d 23 be bf d0 86 3d d3 70 9d bc
       -0.045037225 -0.15935354 0.06582784 -0.019218838
000250 2c 68 64 be b0 54 c2 3d cb ef 2a 3d 28 f3 b2 bd
       -0.22305363 0.09488809 0.04173259 -0.087377846
000260 bf 84 07 3d 98 6e bb 3d 69 fc 0c 3e 36 4e d3 bd
       0.03308558 0.091519535 0.13768162 -0.10317652
000270 33 24 d5 3d 4f 8c 1c bd e4 a2 3d 3a d2 7b 80 3c
       0.10407295 -0.038219746 0.00072340504 0.015684042
000280 8f e0 39 be 04 ce dc 3b 3f 5e 83 be 46 41 a7 bd
       -0.18152069 0.006738426 -0.25657842 -0.08166747
000290 00 a6 57 be 4f 88 ae 3d 22 d3 04 bd 2d a3 08 be
       -0.21059418 0.085220926 -0.032427914 -0.13343497
0002a0 08 86 84 bc 42 b3 57 bd f9 d6 2b be 9e de 82 3e
       -0.016177192 -0.052661188 -0.16781224 0.25560468
0002b0 29 73 1f be 34 21 06 bd 7a f7 22 3e 7e 04 e8 3b
       -0.15571274 -0.03274651 0.15914717 0.0070806136
0002c0 ae de 1c 3e 67 36 4b bb 8e b4 14 bd 07 82 8c 3d
       0.1531932 -0.0031007768 -0.036305003 0.06860738
0002d0 8d c6 a9 3e 05 d4 2b bd c9 33 08 3c aa a3 c1 3c
       0.33159295 -0.041950244 0.008313128 0.023637611
0002e0 9d e1 33 ba d8 b3 d6 3c 8e 93 88 3d 8c 0e 22 3d
       -0.0006861927 0.026208803 0.06668769 0.039564654
0002f0 51 b8 2d 3d ba e1 12 be eb fb 8b 3d f9 3a 28 bc
       0.042412106 -0.1434392 0.06835159 -0.010267966
000300 bb 3f af bd 09 06 e6 3d c6 61 03 bd 77 24 b1 3c
       -0.085570775 0.1123162 -0.032075666 0.021623833
000310 f5 89 21 bd 72 7f a5 bb 78 09 1c 3c 08 b3 1e be
       -0.039438207 -0.005050593 0.009523742 -0.15497983
000320 80 c3 0e bd 35 53 26 bd 96 99 ce 3b c1 14 be bb
       -0.034854412 -0.040606696 0.00630493 -0.005800814
000330 6a c4 24 3e 63 d5 1b bd 87 0a 7b 3b c4 76 0c be
       0.16090551 -0.0380453 0.0038305835 -0.1371718
000340 32 d3 30 bc 12 e2 2b 3d 2d 7b d7 3c 7f a3 83 bd
       -0.01079254 0.041963644 0.026303852 -0.06427669
000350 3d 9a 4a bd ca a3 bd bd 91 e2 08 3e ce 4d f4 bd
       -0.0494635 -0.09259756 0.13367678 -0.119289026
000360 f8 a1 3c 3e 6e 93 41 3e 81 94 10 3d 0d 8d 16 3e
       0.18421161 0.18903896 0.035297874 0.14702244
000370 ab f0 e4 3d 7e ff e3 3d 05 b5 9f bd 6f a4 bf 3a
       0.11178716 0.11132716 -0.077981986 0.0014621149
000380 33 de 9f bd 6c e3 13 be 3f 1c 3b 3e 37 f9 bd 3d
       -0.07806053 -0.14442223 0.18272494 0.092760496
000390 86 e2 a6 3c 7b 90 a8 3d 9e 41 33 bd 91 d5 b4 bc
       0.020371687 0.082306825 -0.04376375 -0.022074493
0003a0 78 18 b3 3d 42 00 27 3c 3f dd 2b 3d 84 32 80 3c
       0.087449014 0.010192933 0.041959044 0.015649088
0003b0 ef 8e dd bc 4d 88 97 bd b7 3f 10 bd e0 db cc bd
       -0.027045695 -0.07399044 -0.035217013 -0.10002875
0003c0 0f 41 1d be 3a ce 3f 3e 16 5b 32 bd 15 56 82 bd
       -0.15356849 0.18731013 -0.043543898 -0.06364075
0003d0 15 3d e4 bc 79 a8 5c 3c ac 78 91 3d b1 8c 5b 3d
       -0.027861157 0.013467901 0.071030945 0.05360097
0003e0 0e 54 ab bd 68 1f e5 bd 56 da 20 3e f7 c0 9f bc
       -0.083656415 -0.11187631 0.15708289 -0.019501192
0003f0 32 b9 ff 3c cd 85 12 be e6 e4 80 3d 5c 72 ee 3d
       0.031216238 -0.14308853 0.06293659 0.11642906

encoder.encoder.0.W_h.weight f4 [64, 64]
000000 24 70 c5 bd 87 22 17 3b da cf 88 be 41 31 82 3c
       -0.0964053 0.0023061351 -0.26721078 0.015892627
000010 1e 89 40 bd 66 d7 2d 3e 22 26 fa ba 93 2c 68 3b
       -0.047005765 0.16976699 -0.0019084851 0.003542696
000020 a0 29 51 bd 5f 6d 96 be 3e 6e 7f 3e 1f db 5f be
       -0.051065087 -0.2938032 0.24944398 -0.21860932
000030 33 d7 9e 3e a8 19 67 be e9 f1 0b bd 95 2b ee 3c
       0.3102356 -0.22568381 -0.03416625 0.029073516
000040 e4 33 aa 3d d9 4d 5f 3e d8 c8 99 3c 69 7a 12 3e
       0.083106786 0.2180704 0.018772528 0.14304508
000050 e2 3b a4 3c 44 a8 27 be 7b e2 45 bd 76 93 2f be
       0.020048086 -0.16372782 -0.04831169 -0.17146096
000060 11 6e 6d be a0 50 90 be 21 69 b2 3d 20 da 3d be
       -0.23186518 -0.28186512 0.08711458 -0.1854024
000070 cb 83 b3 3d 88 8c 67 3e 85 4e 39 3e 75 33 84 3d
       0.08765372 0.22612202 0.18096359 0.06455127
000080 be 9c 23 bd 1b 43 78 3e fc 4f 7f be b2 fb d9 3c
       -0.039944403 0.24244349 -0.24932855 0.026609275
000090 88 5f 52 3e 05 25 f7 3d 52 21 fb bc b5 53 f9 3d
       0.20544255 0.12067608 -0.030655537 0.12174169
0000a0 99 e9 59 3e 4d ca 9c bd b4 63 65 3c 7c b8 90 bd
       0.21280517 -0.07655773 0.014000822 -0.070664376
0000b0 3c 5b c8 bd 10 ce 10 be 65 24 c8 bc 07 8e 1f be
       -0.097830266 -0.14141107 -0.024431417 -0.15581523
0000c0 61 88 67 3e d0 64 aa 3e f6 fc c0 bd a9 29 c7 bd
       0.22610618 0.3328004 -0.094232485 -0.09724743
0000d0 7c cc 1c be 04 2f 16 3e 64 30 94 bc 41 07 24 3d
       -0.1531238 0.14666373 -0.01808948 0.04004598
0000e0 ec 8c 07 3e 36 41 8a 3d 03 31 aa bd b2 a7 3a 3d
       0.13237351 0.06750719 -0.083101295 0.045570083
0000f0 05 73 bc 3c 0c af 61 bd 20 36 59 be cf 23 f3 3d
       0.023004064 -0.05509858 -0.21212053 0.11872064
000100 de fb 2a 3e fb f1 b2 bd 20 0c e1 bd 1d fd d0 3d
       0.16697642 -0.0873756 -0.10988641 0.102045275
000110 67 c1 70 be 59 24 9f 3c 0c 8e f2 3d 5c 1a ef bd
       -0.23511277 0.019426512 0.118434995 -0.116749495
000120 da 98 78 3d 07 45 02 be 44 ae fa ba c2 c1 51 3d
       0.060692646 -0.12721644 -0.0019125422 0.051210172
000130 37 98 87 bd 9e 11 52 be ef bb 5c 3d a2 3b b8 3d
       -0.066208296 -0.20514533 0.053890165 0.08995749
000140 33 8b 1e 3e 3e e7 a9 3d df de 96 bd fe 0b 2e be
       0.15482788 0.08296059 -0.07366728 -0.16996762
000150 9b 71 12 3d e4 c1 88 3e 2c 76 10 3e 6b 44 1c 3c
       0.035752874 0.26710427 0.14107579 0.0095377965
000160 3a 23 41 bd cf 65 f9 bc 87 22 96 3d 07 06 92 3c
       -0.047152735 -0.030444054 0.07330804 0.01782514
000170 6f ce 48 3d 78 f8 f1 3c 35 8f 47 bd 04 06 85 3d
       0.049024995 0.029537424 -0.048720557 0.06495288
000180 8e 07 56 3e 48 b8 d5 3d 9b 17 ed 3e 4e fd 6a 3b
       0.2090132 0.104355395 0.46307072 0.0035856548
000190 48 11 99 ba 15 4a 22 3d 8b 21 36 bd d2 73 5c bd
       -0.0011678124 0.03962143 -0.044465583 -0.053821392
0001a0 78 02 fd 3d 0b 37 59 bd b8 11 f6 3d 75 22 ab bd
       0.123539865 -0.05303101 0.12015098 -0.083561815
0001b0 31 8a ca 3c 59 f3 20 be 24 d5 15 be 48 3a e0 bd
       0.024724098 -0.1571783 -0.14632088 -0.10948616
0001c0 d3 95 1a bc 48 63 91 be 53 ba 35 3d 24 fa 52 bd
       -0.009435135 -0.28396058 0.044367146 -0.051508084
0001d0 f5 df c3 3d c3 27 81 3e e0 80 04 3e 7a 4f a5 bd
       0.09564201 0.25225648 0.12939787 -0.080717996
0001e0 1b 5a 3c 3d a4 d1 39 3c ba a6 b6 be 83 d2 8e bd
       0.04598437 0.011341486 -0.35674077 -0.06973746
0001f0 d1 d0 c4 bd 90 5d 5c 3d eb fd 9d 3d 41 aa 07 be
       -0.09610141 0.053800166 0.07714447 -0.1324854
000200 a4 43 8a bd 0c bd 0b bd cd 45 1a be 67 b0 8e 3e
       -0.06751183 -0.034115836 -0.1506569 0.2786896
000210 ca 39 0d bd 3b 22 8d bd 88 22 98 3e e2 26 0a be
       -0.03447894 -0.068912946 0.29713845 -0.13491395
000220 3b a6 94 be f1 60 29 be 35 8e 77 3d 9e 08 56 be
       -0.29033074 -0.16540886 0.060438354 -0.20901725
000230 b5 bb cd bd 3b 69 8c bd f3 e7 85 3d 12 1f 86 3c
       -0.10045568 -0.068560086 0.065383814 0.016372237
000240 01 b3 55 be 8e ad 37 be 4c e8 ec 3c 81 b8 bd 3d
       -0.20869066 -0.179373 0.028919362 0.09263707
000250 cd a4 88 3e f5 bf 91 bc 99 cb bd 3c 77 3d 4b 3e
       0.26688233 -0.017791728 0.023168372 0.19847666
000260 09 95 a2 be ea 22 90 bd d3 d6 c6 3d 90 a3 61 3d
       -0.3175433 -0.07037909 0.09708943 0.055087626
000270 02 d6 ec 3d ca 51 3f 3e 9e f8 b0 3c 48 57 f6 3c
       0.11564256 0.18683544 0.021602925 0.030070916
000280 bf a3 03 3e 40 5c 37 3d ac 95 e5 3d 74 c4 0e be
       0.12855433 0.04476571 0.11210188 -0.13942128
000290 3d b2 6c bd 85 13 9b be f6 43 42 bd ea 19 1a be
       -0.05778717 -0.3028833 -0.047428094 -0.15048948
0002a0 af 83 34 bd 1a d1 d0 3c 50 02 f8 3c 9e 13 47 3d
       -0.044070896 0.025490332 0.03027454 0.048602693
0002b0 08 fd 1e be 41 0c e9 3e 63 ac 93 3e cc 7c 62 3e
       -0.15526211 0.4551716 0.28842458 0.22117919
0002c0 d5 24 e6 3d 87 81 9d bb a9 bd 3d 3e fa ee e7 3c
       0.11237494 -0.0048067006 0.18529381 0.028312195
0002d0 d3 57 bf 3d d9 f3 b3 3d 28 c0 2d be 3c 33 f0 bd
       0.09342923 0.087867446 -0.16967833 -0.11728522
0002e0 d5 2f d9 bd a1 04 56 3e ab 02 01 3d 51 07 57 bd
       -0.10604826 0.20900203 0.031496685 -0.05249721
0002f0 b5 ea 33 bd 44 62 0c 3e 02 74 0f 3e ac 3f f6 3d
       -0.043925006 0.1370936 0.14009097 0.12023863
000300 f4 20 2f bd 56 6b ac 3d 02 5d d3 bd a4 47 03 3e
       -0.042756036 0.0841891 -0.10320474 0.12820297
000310 f1 e1 23 3e 76 5f d9 bc 81 93 20 bd 7e ed 38 be
       0.16004159 -0.026534777 -0.03920317 -0.18059346
000320 3e 52 4b 3d c6 73 a3 bd e0 04 95 be 92 8f 79 3d
       0.04963898 -0.079810664 -0.29105282 0.060927935
000330 1a 84 c8 bd c0 46 cf be ad 97 8d bd 5f 30 97 bd
       -0.097908214 -0.40483665 -0.069136955 -0.07382273
000340 dd 0f 09 be 74 d0 38 be 8f be 9e 3e ea b7 a2 be
       -0.13384958 -0.18048269 0.3100476 -0.3178094
000350 63 1f ec 3d a1 67 6a 3d dd 79 b3 3d 55 34 43 3c
       0.11529424 0.057227734 0.08763478 0.011914332
000360 e8 df a7 3e c2 cf 6e 3d de ba 9a bd 6d 44 e4 3b
       0.32788014 0.058303602 -0.07555173 0.006966165
000370 04 9f 4f be f0 a7 42 be b5 a8 15 3e ab fb 13 3e
       -0.20275503 -0.19009376 0.14615138 0.14451472
000380 da bf 1c 3c ef f6 76 be d6 5d 35 bd 9f 8d 1f bd
       0.009567225 -0.24117635 -0.044278942 -0.03895342
000390 81 01 ed 3a 38 8e 3d bd 64 5d 3a be 5c d0 b4 3c
       0.0018082113 -0.04627821 -0.18199688 0.02207201
0003a0 d2 b0 b1 3e 83 9c 02 3e 6f 45 a8 3e d2 ba 4d 3d
       0.34705216 0.12755017 0.32865474 0.050226994
0003b0 c5 69 a3 3c 90 95 a3 3d 2c 26 2b bd 84 1b 57 3c
       0.019947896 0.07987511 -0.04178445 0.013129119
0003c0 ed b3 e4 bd 1a 76 12 3e ee 06 d9 bd 55 d9 13 be
       -0.111671306 0.14302865 -0.10597025 -0.14438374
0003d0 27 fb 00 be 2d ce 7b 3d e5 45 51 be 71 29 17 3b
       -0.12595807 0.06147592 -0.20436819 0.0023065472
0003e0 27 39 64 bd e1 9a 0b be 27 93 e7 3c 02 bc f9 3b
       -0.055718567 -0.136333 0.02826841 0.007621289
0003f0 79 22 74 bb f9 5d a1 bd b4 bf e5 3c 88 bb 23 bd
       -0.0037251993 -0.07879252 0.028045513 -0.039973766

encoder.encoder.0.W_o.weight f4 [64, 197]
000000 e9 fa 19 be 3b 0f 82 bd 4c 93 a3 3c 18 37 b9 bd
       -0.15037121 -0.06350561 0.019967698 -0.090437114
000010 99 d7 85 bd 20 bb 5d be 76 50 96 bd 88 a3 8b 3d
       -0.065352626 -0.21653414 -0.073395655 0.068183005
000020 d6 1b d7 3d 66 ce 96 3c 68 74 8e 3d 54 d1 d1 bd
       0.10503356 0.018408965 0.069557965 -0.10245004
000030 a3 0d a2 bd 46 33 02 be ee df 15 b9 e0 5b 5d bd
       -0.07912757 -0.12714872 -0.00014293168 -0.054042697
000040 0e f7 31 bd c5 9d dc bd 36 5a 92 bd 34 da ed bc
       -0.0434485 -0.1077228 -0.071461126 -0.029034711
000050 a2 d4 fd bc 56 cc 55 bd 5c b9 3a bd ea e2 6d 3d
       -0.03098518 -0.052196823 -0.04558693 0.05807773
000060 4c b3 0d 3e 5f 47 cf bd 9c ca 5b 3d 5f 99 e3 3d
       0.13837928 -0.10121035 0.05366002 0.111132376
000070 bf bf 17 be 16 3e 6a bd be de 8e 3d 1a 7d b5 3d
       -0.14819239 -0.057188116 0.069760785 0.08861752
000080 b9 dc 8c bc fa ea 1a bd 29 04 ec bc 4e 31 ab 3d
       -0.017195093 -0.037821747 -0.028810577 0.083590135
000090 3e 74 07 bd 73 a1 e1 bc b9 5f 7f 3d 25 eb b7 bd
       -0.03306984 -0.027542805 0.062347148 -0.08980397
0000a0 53 33 bb bc 71 bc 68 bd 3e 16 41 bb 1e c0 9f bd
       -0.022851622 -0.056820337 -0.002946272 -0.07800315
0000b0 43 18 ff bc 76 2a a2 3d 61 cf 17 bc 4c 99 0e be
       -0.031139499 0.07918255 -0.009265752 -0.13925666
0000c0 71 03 00 3e 2a dd 94 bd 90 5b 1b bd fb 06 e3 bd
       0.12501313 -0.07268746 -0.037929118 -0.11085316
0000d0 e7 4a f0 bd 5b d6 a6 b9 32 89 bd 3d 4d a4 68 3e
       -0.117330365 -0.00031821695 0.092546836 0.22718926
0000e0 d0 d4 6d bd ba e2 77 3a b9 ff 09 3d 69 b0 40 bd
       -0.058064282 0.0009456087 0.03369114 -0.047043238
0000f0 e0 3a df bd 32 75 cf bd 20 88 96 3c 61 9b 09 bd
       -0.108999014 -0.10129775 0.018375456 -0.033595446
000100 1a 04 bc 3d 20 2b 17 bd a9 3d 2b be b1 76 42 bc
       0.0918047 -0.03690636 -0.1672274 -0.011869119
000110 e9 31 3b bd 91 9b 84 bc 48 5c 70 ba c5 c1 9b bd
       -0.045701895 -0.016187461 -0.00091690244 -0.07605318
000120 58 c1 b2 bd 28 56 3a 3d b4 59 df bb 26 5c 39 3e
       -0.08728284 0.04549232 -0.0068161134 0.18101558
000130 6f 65 36 3e 95 36 0e be b2 3a 94 bd e8 97 86 3c
       0.17812131 -0.13888009 -0.07237758 0.016429856
000140 a5 3a 09 be e7 06 0e 3d b7 4c 77 3b 61 e3 09 3d
       -0.13401277 0.03467455 0.0037734935 0.03366411
000150 a5 da 06 3e 7b 57 18 3b b1 3e e8 3c 2c 2a 98 3d
       0.13169344 0.0023245502 0.028350206 0.07429919
000160 01 31 46 3d f3 f1 14 bc 51 e0 14 bc 66 b2 db 3c
       0.048386578 -0.009090888 -0.009086684 0.026818465
000170 d3 7b c7 3c 55 c3 32 bd e5 c1 e6 bd 67 e9 8e 3d
       0.024351036 -0.043643314 -0.11267451 0.06978112
000180 90 bf 9f bd 1f f8 6c bd 36 ad f5 bd bc 18 e2 bb
       -0.078002095 -0.057853814 -0.11995928 -0.006899921
000190 73 4d cc 3d 31 21 c0 bc af 82 24 3d 4b 27 a3 be
       0.0997571 -0.023453327 0.040163692 -0.31865916
0001a0 58 e3 bf bd 74 ae e5 3d bd 9d a8 3c 37 a9 ea bd
       -0.09369534 0.11214915 0.020583028 -0.114580564
0001b0 3a 4e 7e 3e 0c b0 41 3e c7 39 3c bd 87 ee b4 3c
       0.24834529 0.18914813 -0.04595354 0.022086395
0001c0 50 6c d3 3d ac b3 c9 3c 81 24 d3 bd 9a d6 21 3e
       0.10323393 0.024621807 -0.10309697 0.1580452
0001d0 20 76 5b 3e 8e 2a ac 3c cf 05 f1 3c 8a 39 43 be
       0.2143178 0.021016385 0.029421715 -0.19064918
0001e0 58 40 2f bd 9d 40 2d 3d a5 c4 2e be 44 63 4e 3d
       -0.042785972 0.04229795 -0.17067201 0.050387636
0001f0 b1 c6 a3 3d 01 c7 09 be 20 ed ed 3d f9 20 ee bc
       0.07996882 -0.1345482 0.11617494 -0.029068457
000200 65 eb fd bd 85 e4 0a 3e 25 67 61 3d cd fc 66 3d
       -0.123984136 0.13563736 0.055030007 0.056393433
000210 de 7b c8 bd fb d3 0b 3e 75 34 be 3d ba c3 48 be
       -0.09789251 0.13655083 0.09287349 -0.19605914
000220 9b 8e 0e be e3 4d b8 3c 60 3e 03 be b2 57 b0 3d
       -0.13921587 0.022498077 -0.12816763 0.086104766
000230 ba 87 7e be c6 f3 fd bc 82 9e b8 3d 15 ef 18 bd
       -0.24856463 -0.03100003 0.09014608 -0.03733738
000240 12 2b b0 bd 9a fc 2a 3d 1a f1 0e bd 34 87 7c bd
       -0.08601965 0.041744806 -0.0348979 -0.061652377
000250 e4 0f df 3d 7e b3 c9 3d 2a 9c 33 3d 53 43 fd bd
       0.10891703 0.098486885 0.0438501 -0.12366357
000260 f1 66 f9 bb f9 f7 02 be f6 ff df 3d b7 58 12 3c
       -0.0076111485 -0.12789907 0.109374925 0.008932284
000270 d5 88 8f bd 6a 7a c2 3d 22 32 eb bd 5d d5 7c be
       -0.070085205 0.09496005 -0.114841715 -0.24690767
000280 07 32 42 3d 72 ef 2e bd 52 56 48 3e ef df 91 bd
       0.04741099 -0.04270882 0.19564179 -0.0712279
000290 8a 17 e9 3d 82 12 be 3a 14 bc e2 bd 39 5e b1 3e
       0.11381443 0.0014501365 -0.11071029 0.346422
0002a0 93 9d 89 bd 35 e7 c2 bd ef 03 91 3d 64 10 3f 3d
       -0.06719508 -0.095167555 0.070808284 0.04664649
0002b0 01 d3 ea bd a2 15 3c 3d 2d a7 1a 3e 12 b0 a7 bc
       -0.11466027 0.04591907 0.15102835 -0.020469699
0002c0 e9 2c 06 bd 18 13 49 3c 37 63 5d be ef 8e 5f bc
       -0.032757673 0.012272619 -0.21619879 -0.013644918
0002d0 45 df 96 3e 80 5b 06 be 7f 1e 57 3e fd cf 27 3e
       0.29467216 -0.13120842 0.21007727 0.16387935
0002e0 2c 27 ea bd 4c d1 64 3d 7d 85 0c 3d 99 b5 00 be
       -0.11433253 0.055863664 0.03430699 -0.12569274
0002f0 35 55 17 3d 51 4f d7 bc b3 20 9c bc 3f a7 b1 3d
       0.036946494 -0.026282938 -0.019058561 0.08674478
000300 30 a1 53 bb 98 c1 99 bd 1e 48 6c 3d 25 b3 05 3e
       -0.003229212 -0.07507628 0.057685964 0.1305662
000310 2f 83 b6 3c 9a 35 17 3d 6a 25 92 3d aa 94 a2 bd
       0.02227935 0.036916353 0.071360424 -0.07938512
000320 ce 33 80 3d 77 06 04 bd 7f a1 c3 3d ff 03 a1 3c
       0.06259881 -0.032232728 0.09552287 0.019655226
000330 c3 7a 08 3d 78 05 05 3e f6 2a 0b bd 70 b2 33 bd
       0.0333202 0.12990367 -0.033976518 -0.043871343
000340 4b 91 58 bd b3 b3 66 3e 6e c0 2f 3b db 39 e0 3d
       -0.052872937 0.22529487 0.0026817578 0.10948535
000350 1b 0d 11 3e 1b 1f a3 3d fc 57 0a be 1b ab ae 3d
       0.14165156 0.07964917 -0.13510126 0.085287295
000360 69 c2 0f 3c 58 96 34 be ff 3f 8d 3d c6 be 76 bd
       0.008774378 -0.17635477 0.06896972 -0.06024053
000370 ce 0a 9d bd 21 c4 5b 3d 54 53 f3 3c 11 69 33 3d
       -0.076680765 0.05365384 0.02970282 0.04380137
000380 61 59 07 be d7 2b 1d 3d 08 a6 98 3d 0b c6 e3 3c
       -0.13217689 0.038371887 0.07453543 0.027804395
000390 80 c6 09 3d d3 2b 6c 3d dd 58 48 bd 01 f3 0d be
       0.03363657 0.05765898 -0.04891287 -0.1386223
0003a0 39 55 8f 3c 21 10 a7 3c c4 7f 83 3d 65 eb f9 3c
       0.017496692 0.020393433 0.06420854 0.030507753
0003b0 f2 c3 21 be 50 b1 05 3e cf 78 03 3e 92 c3 00 be
       -0.15797403 0.1305592 0.12839054 -0.12574604
0003c0 cf 72 a8 bc 46 ce 89 bd 0e a9 d6 3c 8b 63 83 bc
       -0.020562558 -0.06728797 0.026203658 -0.016038677
0003d0 8f 26 95 3d 80 ac 6e 3d 50 3c 36 be ff 05 c6 bd
       0.07282745 0.058269978 -0.17796445 -0.096691124
0003e0 c7 92 08 bd 1f 9b 7e be ad 8e 02 3d d9 f8 59 bd
       -0.033343103 -0.24863862 0.031874347 -0.053215835
0003f0 e2 e1 6a 3d 17 7d 94 3d 01 95 8e bd b2 c3 a7 bc
       0.057344325 0.072504215 -0.06962014 -0.020479057

encoder.encoder.0.W_o.bias f4 [64]
000000 c4 f6 09 3b 57 ff 5e bc c9 30 eb bc 1c ae ad 3c
       0.0021051625 -0.013610682 -0.028709786 0.021201186
000010 a5 31 b9 3b 63 78 91 bc 94 2f 05 3a 1b f4 97 bc
       0.00565167 -0.0177576 0.0005080637 -0.018549016
000020 b6 70 15 3d fe b3 65 bc 94 37 07 bd e9 f3 c3 3b
       0.036484443 -0.014019964 -0.033011988 0.005980004
000030 c0 22 91 3c d1 cc e4 bc 71 38 c8 bb c3 2a 23 bd
       0.017716765 -0.027929695 -0.006110244 -0.039835703
000040 1f 17 f8 3b 72 d7 e1 3b 72 dc 98 bc da cb f4 bc
       0.0075711156 0.006892138 -0.018659804 -0.02988236
000050 b6 5e 10 bc f5 16 1b bc 5e 0d 68 bc bf 5b b3 bc
       -0.008811643 -0.009465923 -0.014163343 -0.021894334
000060 9e 2f 5b bc d1 5c 55 bc e6 97 2c bb 1f 77 69 bb
       -0.013378052 -0.013022617 -0.0026335656 -0.003562398
000070 75 ce 7d bc 33 83 8d bc 51 30 bc 3c 2a 1b db 3b
       -0.015491118 -0.017274475 0.022972258 0.006686588
000080 b7 0a b2 bc 80 b3 22 bd 11 ec 59 3c eb 4c 8c bb
       -0.021733625 -0.039721966 0.0133009115 -0.0042816303
000090 29 81 c3 bc e0 92 78 3c 15 3c 0d bb 5a 24 f2 b9
       -0.0238653 0.0151717365 -0.0021550704 -0.0004618492
0000a0 10 fb dc bb 55 5f fc b9 0e da 8d bc 49 ac 31 3c
       -0.006743796 -0.00048136213 -0.01731589 0.010844299
0000b0 1e aa 0d bd 8d 64 1f bd 30 16 34 3c 1d 59 ce ba
       -0.034586065 -0.038914252 0.010991618 -0.001574311
0000c0 c8 ec 7e bc b8 37 a2 bb 7a f4 df 3c cf 27 47 bc
       -0.015559383 -0.00495049 0.027338255 -0.012155487
0000d0 b9 c5 09 bc 89 fc 5c bc eb 72 80 3b 6b e3 90 bb
       -0.008408957 -0.013487943 0.0039199493 -0.0044216416
0000e0 83 16 cb bc 9e cb 9b 3c 6b f3 01 3b cd 42 fd 3b
       -0.024791008 0.01901799 0.0019828926 0.0077289105
0000f0 44 c7 d6 3b 07 db ca 3b 92 3b 94 3c 67 ce d0 ba
       0.006554516 0.006190661 0.018094812 -0.0015930653

ffn.1.weight f4 [64, 64]
000000 a9 99 ab bd d2 3c dd 3d af 8a e4 bd c1 cb 9a bc
       -0.08378918 0.10802616 -0.11159264 -0.018895986
000010 f7 7e ad bd 65 df 5d be 57 f0 c8 bd 08 91 75 bc
       -0.08471482 -0.2166725 -0.09811466 -0.014988191
000020 76 97 06 3e 05 f5 81 bd 41 ea db 3d 38 ec a9 b9
       0.13143715 -0.06345562 0.1073804 -0.0003241019
000030 22 be f0 3c 84 15 e9 3d d3 ca a7 bd 95 ba 5b be
       0.029387537 0.11381057 -0.081929825 -0.21457894
000040 f7 84 79 3d 23 fe ad bd 8b a5 6e 3e 5e b7 03 3e
       0.06091782 -0.08495738 0.23305337 0.12862918
000050 b4 a0 b3 3a c5 f4 76 be 1e de fe bd 9f 63 65 3e
       0.001370451 -0.2411681 -0.12444709 0.22401284
000060 77 df e7 3d 71 37 f8 3d 1f 79 48 3e 28 dc 0c 3d
       0.113219194 0.121199496 0.19577454 0.034389645
000070 ed a5 00 bd ca 53 11 be 3a 27 c8 3d e4 84 87 3c
       -0.03140824 -0.14192119 0.09773107 0.01654286
000080 66 88 49 3e 98 ec d1 bd 97 4c 9c 3e 79 c2 9f 3d
       0.19680938 -0.10250205 0.30527183 0.078007646
000090 fb 7c 99 bc 28 34 9b 3e a1 06 11 be fd 83 9e bd
       -0.018736353 0.3031323 -0.14162685 -0.077400185
0000a0 2e e3 0c 3d ca 71 04 3e be 81 e0 bd ba a2 35 bd
       0.034396343 0.12934032 -0.10962246 -0.04434464
0000b0 e2 f9 9c bd 03 df 72 3e e9 4f 1f 3e 67 86 22 bd
       -0.07664849 0.23717885 0.15557827 -0.039678957
0000c0 ca 06 f4 3a 2f 60 54 bd c6 14 b0 3c a2 54 7d bd
       0.0018617746 -0.05184954 0.02149428 -0.06184829
0000d0 30 d5 c2 bd da 50 98 3d 04 aa 13 be d6 80 e4 bd
       -0.095133185 0.07437296 -0.14420325 -0.11157386
0000e0 f5 3c 0e bd 54 e8 30 bd 98 db 07 3e 34 ce 0d 3e
       -0.034726102 -0.043190315 0.13267362 0.13848191
0000f0 9f 0f 4b be 3a 8e 26 be 09 84 39 3e 32 32 e1 bd
       -0.19830178 -0.16265193 0.18116774 -0.10995902
000100 5a 98 d1 bd ca fd e0 3d c5 33 a2 3d 59 de d4 bc
       -0.10234137 0.109859064 0.079200305 -0.02598493
000110 ba cf 2c 3e 9c c0 97 3a 7b 87 f5 bd 76 66 34 3d
       0.16876116 0.0011577788 -0.119887315 0.044043027
000120 0b 1b e9 bd 2a 1c 22 3e 17 a4 c9 3c b2 85 82 3d
       -0.11382111 0.15831056 0.024614377 0.063731566
000130 12 d4 82 bd 01 8c 98 3d a3 ef 0a be a1 42 0e 3d
       -0.063881055 0.074485786 -0.13567977 0.03473151
000140 7f 40 b5 3c c4 f1 34 bd 75 85 12 3d 32 bf 12 be
       0.02212548 -0.04417588 0.035771806 -0.14330748
000150 b8 5e 45 3d 35 c9 d7 bd cc 46 9b 3d de a9 8a 3c
       0.048186034 -0.10536424 0.07581863 0.016926702
000160 73 db cb bd 14 6c 36 3e 4d 11 84 bb 4e da 47 3c
       -0.09953966 0.17814666 -0.0040303827 0.012198044
000170 de 9d 52 bd dd bf 51 3d 1f f1 6b bd e2 db 52 be
       -0.051420085 0.051208366 -0.057602998 -0.20591691
000180 5c 1f 6b bd 68 33 26 be 62 74 97 bd cf bc 7a 3e
       -0.057402954 -0.16230547 -0.07395245 0.24486087
000190 ba 70 2e 3d e6 0c 4c bd eb 62 62 3d 2a 14 5d 3d
       0.042587973 -0.04981699 0.055270117 0.053974308
0001a0 89 e7 cd bc af 8f 09 3e f4 91 d8 bc f5 3d 0a bc
       -0.025134819 0.13433717 -0.026436783 -0.008437623
0001b0 86 e2 17 be 72 36 78 3e 23 77 0f 3e bb 0e 4a be
       -0.14832506 0.24239519 0.14010291 -0.19732182
0001c0 15 0c 9a 3e 29 e6 65 3e 61 ac dd bd 1e 41 2a be
       0.30087343 0.2245108 -0.10823894 -0.16626403
0001d0 cc cf 41 be 49 dc 23 3d 27 2b 54 be 7c a6 8d 3d
       -0.18926924 0.040005002 -0.20719586 0.0691652
0001e0 97 ff 57 3e bb 38 83 3d b6 5c 9c 3d 62 4e 4a bd
       0.21093594 0.06407305 0.07634871 -0.049391158
0001f0 1b 43 09 3e 5b 42 d5 3d ca 66 e6 bd 56 b6 80 be
       0.13404505 0.10413047 -0.11250074 -0.2513911
000200 ed cd fa 3d 4b ad b1 bd 5b 00 85 3e 8c ae 38 3b
       0.122463085 -0.08675631 0.25976834 0.002818021
000210 c1 5e b8 bd bd ee 82 bd 18 15 58 3c d6 42 c4 3d
       -0.09002448 -0.06393192 0.013188623 0.095830604
000220 80 5a fb 3e 84 df 35 3e 66 66 3a 3c a0 50 e7 bd
       0.49092484 0.17761046 0.011376953 -0.11294675
000230 58 5b 1a 3d d0 52 18 bb 1e b3 00 be 59 29 84 3d
       0.03768477 -0.002324272 -0.12568328 0.06453199
000240 e3 da 80 3e 52 5e f7 3c 5b a4 d8 b9 f5 2a 24 bc
       0.25166997 0.030196343 -0.00041321185 -0.010020007
000250 9c 40 a0 3e 92 ba 78 be dc 01 81 3e 01 0d bd 3d
       0.31299293 -0.24289921 0.2519673 0.09230996
000260 c5 2e 73 be 5a 12 25 bc b5 3e dc bc 36 80 48 3e
       -0.2374831 -0.010075176 -0.02688537 0.19580159
000270 c4 5f 6c 3d 38 ae 5c 3d 4c 94 f5 3d 44 52 03 3e
       0.057708517 0.053877085 0.11991176 0.1282435
000280 a7 5c fc bb fe 2b 97 3c 0e 6b 46 3e 66 31 1a bd
       -0.0077014747 0.018453594 0.19376776 -0.037644766
000290 a4 4c 81 3c 0d 59 01 bd 03 28 3e bd 0f 16 81 3e
       0.015783615 -0.031579066 -0.046424877 0.25212142
0002a0 45 68 a2 3e e6 01 a3 bc ea 02 07 bd fa 20 a3 3e
       0.31720176 -0.019898366 -0.032961763 0.31861097
0002b0 de d8 fc bb 01 ff 9c 3d f7 6f 18 3e 6e ff 1f be
       -0.0077162823 0.07665826 0.14886461 -0.15624782
0002c0 d5 d9 df 3d fd 65 78 3d 88 7d 3a be 95 db 57 be
       0.1093022 0.06064414 -0.18211949 -0.21079858
0002d0 49 03 95 3d 67 b8 ea 3d 95 a1 4d be 31 c8 b5 3d
       0.07276017 0.11460953 -0.2008117 0.08876074
0002e0 57 81 47 3e 1d bb d2 3d 76 42 8a 3d 3b 6a a1 be
       0.19482933 0.10289595 0.06750958 -0.3152636
0002f0 5c dc 16 3e 20 81 4a bc d0 c4 82 3e a4 eb 23 3c
       0.14732498 -0.012359887 0.2554078 0.010004912
000300 7c f4 08 bc a7 9f 2f bd 7d 59 87 3e e4 a9 02 be
       -0.008359071 -0.042876866 0.26435462 -0.1276012
000310 bd a0 dd bb dc 08 17 3e d0 70 c5 3c 10 5f e4 3d
       -0.0067635463 0.14749473 0.024101645 0.11150944
000320 9c 01 3b 3e a9 74 e8 3d 03 2f 54 bd 3d b2 5e 3d
       0.18262333 0.11350376 -0.051802646 0.0543692
000330 c8 46 e7 3d 8b c7 a9 3d cc 03 aa bd 18 e3 86 3c
       0.11292797 0.08290013 -0.083015054 0.016465709
000340 de 98 40 3e 19 4f b9 3c e1 ef cb bd af 0d 61 bd
       0.18808314 0.022620725 -0.09957863 -0.05494469
000350 b6 26 c1 bd a6 9f 0c be 02 e2 cd 3c 20 2a ae bc
       -0.09431212 -0.13732776 0.025132183 -0.021260321
000360 b7 83 0a be bc 11 b7 bc ec 8d 74 3e fb 00 96 3d
       -0.13526808 -0.022347324 0.23882264 0.07324406
000370 11 5a fb bd f7 23 40 be 11 55 0c 3e e3 4a 4f be
       -0.12273038 -0.1876372 0.13704325 -0.20243411
000380 7e bb 62 bc 6a f6 64 3e 3e 44 13 3e 97 e7 33 bd
       -0.013838647 0.22359625 0.14381501 -0.043922033
000390 81 e9 83 bd 76 0f bb bd 31 41 31 be e1 5d ab 3d
       -0.06441022 -0.09133808 -0.17310025 0.08367515
0003a0 5b 30 2d 3e 96 6b bf bd c9 53 0e bd 21 27 25 3e
       0.16912977 -0.09346692 -0.034747873 0.16128208
0003b0 7e 58 73 3e 71 15 e4 3d ea a0 96 be ab 02 d4 bd
       0.23764226 0.11136902 -0.29419643 -0.103520714
0003c0 9e b1 ff 3d 0a 19 8b 3c 58 cb c0 bc c7 9b ee 3d
       0.1248505 0.016979713 -0.023534462 0.11650806
0003d0 e4 64 86 3d 24 ba ae 3d a8 5d 00 3e 01 8a 56 be
       0.06562212 0.08531597 0.12535727 -0.20951082
0003e0 a9 ab 06 3e 74 4a b8 bc 32 db 5d bd c8 83 da bd
       0.1315142 -0.02249644 -0.05416412 -0.106696665
0003f0 55 34 3f bd 4b a5 40 be 43 c7 ea 3d cb 26 c3 bc
       -0.046680767 -0.18813054 0.114637874 -0.023822209

ffn.1.bias f4 [64]
000000 4c e7 3a 3d dd a9 bb 3c 02 53 58 3d 3f 31 f7 3c
       0.04563074 0.022908146 0.052813537 0.03017485
000010 df 4a 87 3c 85 97 93 3d 95 64 09 3d 01 c3 27 3d
       0.016515194 0.072066344 0.033543188 0.040957455
000020 8e cc 16 3d 1b 5a 4f 3d 7b c9 91 3c 0e 17 50 3d
       0.036816172 0.05062304 0.017796269 0.050803237
000030 b1 d1 95 3d 6a ed 82 3d 9c 5b 61 3c 38 28 be 3d
       0.07315386 0.063929394 0.0137547515 0.09285015
000040 17 0b 0c 3d 93 f2 02 3d cc 6d 45 3c 5b 5b 69 3c
       0.034190264 0.031969618 0.012050103 0.014242972
000050 a4 18 ff 3c 62 65 66 3d ba 81 fa 3c 91 fa 32 3d
       0.03113968 0.05624903 0.030579437 0.04369599
000060 3c 82 54 bc 14 91 89 3d e4 46 39 3d ac 1c ec 3c
       -0.012970503 0.067171246 0.045233622 0.028822266
000070 5a 55 ac 3c e8 0a c6 3c df 2c ce 3c 80 76 24 3d
       0.021036793 0.024175122 0.02516788 0.040152073
000080 01 54 f1 3c 72 bb bb 3c eb 69 55 3d 01 11 72 3d
       0.029459001 0.02291653 0.052102964 0.059098247
000090 80 cd da 3d fa 6e 6e 3d 6d 25 4c 3d 9b 3c 80 3d
       0.10683727 0.058211304 0.04984038 0.062615596
0000a0 a8 f5 39 3d 53 a9 f0 3c 29 d4 b2 3b f4 cb 40 3d
       0.04540029 0.029377615 0.0054574204 0.047069505
0000b0 7e 34 f4 3c 72 b3 83 3d d1 7e 14 3d 86 76 50 39
       0.029810186 0.06430711 0.036253754 0.00019880579
0000c0 dc 21 d4 3b a4 0a 02 3d ef cf 32 3d a3 fd 4e 3d
       0.006473763 0.03174843 0.043655332 0.050534856
0000d0 a5 ad 3e 3c a4 17 7c 3c 85 34 51 3d 89 b6 6f 3d
       0.01163808 0.015386496 0.051075477 0.05852369
0000e0 ad d2 07 3d 4b 0a 72 3c 4d 90 f2 ba 43 30 e7 3d
       0.0331599 0.014772962 -0.001850614 0.11288502
0000f0 3c a1 20 3d bd c3 c2 bc a2 8d ac ba d1 0c 97 3c
       0.039216265 -0.023774976 -0.0013164768 0.018438729

ffn.4.weight f4 [1, 64]
000000 94 32 7b 3d 4f 17 d5 3e 4d 4d d4 3d 30 33 47 3e
       0.061327532 0.41619346 0.103663065 0.1945312
000010 f2 28 3e 3e bc 12 1a be 5d c1 86 be 47 cc 47 be
       0.18570307 -0.15046209 -0.263194 -0.1951152
000020 94 db 4f bd c2 51 be 3d 22 65 62 3e 04 20 94 be
       -0.050746515 0.09292938 0.22108892 -0.28930676
000030 c1 a9 24 be 5b 63 06 3e 22 08 38 be c0 12 25 be
       -0.16080381 0.13123839 -0.17971852 -0.16120434
000040 e5 7e d5 bd c8 30 4a be 19 a8 fb 3d c0 9a 25 be
       -0.10424594 -0.19745171 0.122879215 -0.16172314
000050 f0 7b 11 3e b9 e5 5a be e6 2b 98 be fc 97 1d 3e
       0.14207435 -0.21376695 -0.29720992 0.15390009
000060 9d 63 21 be 99 e5 c6 be 2b 48 73 be 3f ff 88 be
       -0.15760656 -0.38847044 -0.23757999 -0.26757237
000070 8b 97 31 3d ce a9 d4 3d 55 0f 90 3e 93 18 3b 3e
       0.043357413 0.1038395 0.28136697 0.18271093
000080 32 ff 02 be a4 34 2f be 5a b6 3b be d3 cf 71 be
       -0.12792662 -0.17109925 -0.1833128 -0.23614435
000090 2b bf 37 be 3f e8 4d be da ef 02 3e b3 ba b6 bd
       -0.17944019 -0.20108126 0.12786809 -0.08922329
0000a0 5a 48 b3 3e 16 4b 64 3e af 01 b5 3d eb 92 52 3e
       0.35016137 0.22294268 0.08838212 0.20563857
0000b0 4b 7e 93 bd dd 94 13 be 9f 14 57 3e 88 34 0c 3e
       -0.07201823 -0.14412256 0.2100396 0.13691914
0000c0 af b8 14 3f 8b 3b 76 3e 59 b1 81 be 5c ea 9b be
       0.58094305 0.24046151 -0.25330618 -0.3045224
0000d0 39 20 2d 3e 50 67 a9 3e 19 7e 0c 3e 86 70 8f be
       0.16906823 0.33086634 0.13719977 -0.28015536
0000e0 76 4f 05 3e bb 7b 25 3e b8 43 60 3e 0a 28 15 be
       0.13018593 0.1616048 0.21900833 -0.14566055
0000f0 28 34 d9 bd c7 22 ac bc 28 08 0c be 26 e4 7c 3e
       -0.10605651 -0.021012677 -0.13674986 0.24696407
