githubproject/lbdd/amse_build/mmodel14/checkpoints4/fold_0/model_0/model.pt (torch, 127883 bytes, 8 tensors)

encoder.encoder.0.cached_zero_vector f4 [64]
000000 00 00 00 00 00 00 00 00 00 00 00 00 00 00 00 00
       0.0 0.0 0.0 0.0
000010 00 00 00 00 00 00 00 00 00 00 00 00 00 00 00 00
       0.0 0.0 0.0 0.0
000020 00 00 00 00 00 00 00 00 00 00 00 00 00 00 00 00
       0.0 0.0 0.0 0.0
000030 00 00 00 00 00 00 00 00 00 00 00 00 00 00 00 00
       0.0 0.0 0.0 0.0
000040 00 00 00 00 00 00 00 00 00 00 00 00 00 00 00 00
       0.0 0.0 0.0 0.0
000050 00 00 00 00 00 00 00 00 00 00 00 00 00 00 00 00
       0.0 0.0 0.0 0.0
000060 00 00 00 00 00 00 00 00 00 00 00 00 00 00 00 00
       0.0 0.0 0.0 0.0
000070 00 00 00 00 00 00 00 00 00 00 00 00 00 00 00 00
       0.0 0.0 0.0 0.0
000080 00 00 00 00 00 00 00 00 00 00 00 00 00 00 00 00
       0.0 0.0 0.0 0.0
000090 00 00 00 00 00 00 00 00 00 00 00 00 00 00 00 00
       0.0 0.0 0.0 0.0
0000a0 00 00 00 00 00 00 00 00 00 00 00 00 00 00 00 00
       0.0 0.0 0.0 0.0
0000b0 00 00 00 00 00 00 00 00 00 00 00 00 00 00 00 00
       0.0 0.0 0.0 0.0
0000c0 00 00 00 00 00 00 00 00 00 00 00 00 00 00 00 00
       0.0 0.0 0.0 0.0
0000d0 00 00 00 00 00 00 00 00 00 00 00 00 00 00 00 00
       0.0 0.0 0.0 0.0
0000e0 00 00 00 00 00 00 00 00 00 00 00 00 00 00 00 00
       0.0 0.0 0.0 0.0
0000f0 00 00 00 00 00 00 00 00 00 00 00 00 00 00 00 00
       0.0 0.0 0.0 0.0

encoder.encoder.0.W_i.weight f4 [64, 147]
000000 e9 96 93 bd 51 26 4d bd ae 90 22 bd ba 64 8d 3d
       -0.07206518 -0.05008537 -0.03968876 0.06903978
000010 a6 f0 4b 3d 42 bf 72 be 1a 94 53 3e 2f 27 5d be
       0.049790047 -0.23705772 0.20661965 -0.21596979
000020 e2 d3 3f 3d 18 a4 32 be e0 7f 87 3d 7c 6d 64 bd
       0.046832927 -0.1744541 0.06616187 -0.055768475
000030 39 16 2e bd 44 1b 5d be dd 1b b7 3c d7 00 ae bd
       -0.042501662 -0.21592432 0.022352153 -0.08496254
000040 67 f4 bf 3d a0 19 c7 3c e1 4e 41 bd 3b 12 e0 3c
       0.09372788 0.024304211 -0.047194365 0.027352443
000050 7d ce 6d 3d 1c 5b c6 bd ae a4 66 be 27 e4 f6 3d
       0.05805825 -0.096853465 -0.22523758 0.12055235
000060 36 15 d3 3d 7c 32 dd bd 37 1a 23 3c a2 3f 95 3d
       0.1030678 -0.10800645 0.009954981 0.072875276
000070 74 f2 3e bd 81 54 f9 3d 38 30 13 bc f4 5b 81 be
       -0.04661794 0.12174321 -0.008983664 -0.25265467
000080 fa 63 83 bc ae ca 1c 3e d7 59 c0 bb 05 ce 94 bd
       -0.016038883 0.15311691 -0.0058700847 -0.072658576
000090 2d 8b 26 bd 15 04 35 3c d7 9b 02 be b6 e3 b6 bc
       -0.040660072 0.0110483365 -0.1275476 -0.022325378
0000a0 fc 46 b8 3d 91 5f 84 3b a2 4c e5 bd d0 78 a3 bd
       0.08997914 0.0040397127 -0.11196257 -0.079820275
0000b0 46 0e 8a ba 13 5b 15 3d 93 db 0e be 96 42 80 3e
       -0.0010532818 0.03646381 -0.13950948 0.250508
0000c0 4d e6 6f bc bd 26 f7 bd f7 b9 1a 3e 3f 24 ce 3c
       -0.01464231 -0.120679356 0.15110002 0.025163768
0000d0 39 3a c4 bc 5d 5b 26 be c0 98 5c 3d 2c f3 88 bd
       -0.023953544 -0.1624579 0.05385661 -0.06687006
0000e0 d7 b8 d1 3d 04 21 ca bd 33 c2 e6 bd a6 db f7 3d
       0.102403335 -0.098695785 -0.11267509 0.121024415
0000f0 4c d0 ce bc 69 40 2c be 0c 49 0c 3d c3 14 69 bd
       -0.025245808 -0.16821446 0.03424935 -0.056904566
000100 af 62 e0 3d 27 94 55 3e c9 93 b1 3d 96 ba 63 3d
       0.109563224 0.20857297 0.08670766 0.055597864
000110 e4 5b 93 bd ee c1 0b 3d 95 a1 1a be 54 d8 02 3e
       -0.07195261 0.034120493 -0.15100701 0.12777835
000120 16 91 36 be 7f c4 a2 bd e3 7b 34 3e 0d 2f 54 3d
       -0.17828783 -0.07947635 0.17625384 0.051802684
000130 00 a8 85 bd 5c 52 06 3e f1 49 e3 3c 6c ee 67 3c
       -0.06526184 0.13117355 0.027745219 0.014155965
000140 e2 a8 84 bd c1 0b 40 3e 35 60 d0 3d b4 f4 25 3c
       -0.06477524 0.18754484 0.101746 0.010129143
000150 9d d8 00 3e 9a 82 c2 3d f6 5c 18 3e b4 d7 b0 3c
       0.12582631 0.094975665 0.14879212 0.02158723
000160 2f 2c 3c 3e 50 cb 4e bd 3a 66 cd bd fc e8 96 3b
       0.1837623 -0.050486863 -0.10029264 0.0046054106
000170 c9 59 7e bd 74 71 3e bd f1 de 96 bd 7b 4e 30 be
       -0.062097345 -0.046494916 -0.073667414 -0.17217438
000180 5e 74 d9 3c bd bc bb 3b 4d b4 66 3c d6 78 e4 bd
       0.026544746 0.0057292865 0.014081073 -0.1115586
000190 1c 8c e0 3d eb a7 7b 3d de 79 1b 3b 97 11 40 3d
       0.10964224 0.061439436 0.0023723762 0.046891775
0001a0 20 45 42 3e bd 04 cc 3d 00 bf 0e bd 2f 94 3f bd
       0.18971682 0.09961841 -0.03485012 -0.04677218
0001b0 ed cf a3 3d 0a 9e ae 3d 8c ce b3 3d 24 54 2a 3d
       0.07998643 0.08526237 0.0877963 0.04158415
0001c0 28 64 b3 bb 9a 7f bc bc 52 9d 4c 3d 05 19 1c bd
       -0.005474586 -0.023010064 0.04995472 -0.038109798
0001d0 6a 30 02 3e 9d 5f b0 3d bc 70 27 3e 78 e5 03 be
       0.12713781 0.08611987 0.16351599 -0.12880504
0001e0 cf 7d ac 3d e0 93 9a 3e fd 45 c6 bd 21 ff 98 3d
       0.084224336 0.30190945 -0.09681318 0.07470537
0001f0 7e 2b e0 ba f9 d2 90 3e 0b 44 6a 3e ee 84 01 3d
       -0.0017102805 0.2828596 0.22877519 0.031620912
000200 8a 71 45 be e2 90 c4 3d aa 00 1c 3d f1 1d b7 be
       -0.19281593 0.09597947 0.03808657 -0.3576503
000210 c0 49 9d 3d 96 22 05 bd 32 c2 fb 3d a0 3f b7 3d
       0.07680082 -0.032503687 0.12292899 0.089476824
000220 ca 73 d0 bd 7f 57 0e be 05 7d a6 3d 90 53 fb be
       -0.10178335 -0.13900565 0.08129314 -0.4908719
000230 15 50 84 be ce 26 84 3d d0 61 bb 3c 41 b0 01 3e
       -0.25842348 0.06452714 0.02287379 0.12664892
000240 f4 78 38 bd 93 2d 23 be bf d0 86 3d d3 70 9d bc
       -0.045037225 -0.15935354 0.06582784 -0.019218838
000250 2c 68 64 be b0 54 c2 3d cb ef 2a 3d 89 92 0c 3d
       -0.22305363 0.09488809 0.04173259 0.034319434
000260 d9 37 dd 3b 13 fe 7a 3d 4a 4f 26 3e 18 5e 92 bd
       0.0067510423 0.06127746 0.16241184 -0.07146853
000270 33 24 d5 3d 4f 8c 1c bd e4 a2 3d 3a d2 7b 80 3c
       0.10407295 -0.038219746 0.00072340504 0.015684042
000280 3d 04 0c be 3f f4 30 bc ae d3 86 be 5b 76 f9 bb
       -0.13673492 -0.01080042 -0.26333374 -0.007612986
000290 00 a6 57 be 4f 88 ae 3d 22 d3 04 bd 2d a3 08 be
       -0.21059418 0.085220926 -0.032427914 -0.13343497
0002a0 08 86 84 bc 42 b3 57 bd f9 d6 2b be 9e de 82 3e
       -0.016177192 -0.052661188 -0.16781224 0.25560468
0002b0 29 73 1f be 34 21 06 bd 7a f7 22 3e 7e 04 e8 3b
       -0.15571274 -0.03274651 0.15914717 0.0070806136
0002c0 ae de 1c 3e 67 36 4b bb 8e b4 14 bd 07 82 8c 3d
       0.1531932 -0.0031007768 -0.036305003 0.06860738
0002d0 ca 39 b5 3e 75 5e 9f bd c9 33 08 3c aa a3 c1 3c
       0.35395652 -0.07781688 0.008313128 0.023637611
0002e0 9d e1 33 ba d8 b3 d6 3c 8e 93 88 3d 8c 0e 22 3d
       -0.0006861927 0.026208803 0.06668769 0.039564654
0002f0 51 b8 2d 3d ba e1 12 be eb fb 8b 3d f9 3a 28 bc
       0.042412106 -0.1434392 0.06835159 -0.010267966
000300 bb 3f af bd 09 06 e6 3d c6 61 03 bd 77 24 b1 3c
       -0.085570775 0.1123162 -0.032075666 0.021623833
000310 f5 89 21 bd 72 7f a5 bb 78 09 1c 3c 48 33 28 be
       -0.039438207 -0.005050593 0.009523742 -0.16425812
000320 80 c3 0e bd 35 53 26 bd 96 99 ce 3b c1 14 be bb
       -0.034854412 -0.040606696 0.00630493 -0.005800814
000330 6a c4 24 3e 63 d5 1b bd 87 0a 7b 3b c4 76 0c be
       0.16090551 -0.0380453 0.0038305835 -0.1371718
000340 32 d3 30 bc 12 e2 2b 3d 2d 7b d7 3c 7f a3 83 bd
       -0.01079254 0.041963644 0.026303852 -0.06427669
000350 3d 9a 4a bd ca a3 bd bd 91 e2 08 3e ce 4d f4 bd
       -0.0494635 -0.09259756 0.13367678 -0.119289026
000360 f8 a1 3c 3e 6e 93 41 3e 81 94 10 3d 0d 8d 16 3e
       0.18421161 0.18903896 0.035297874 0.14702244
000370 ab f0 e4 3d 7e ff e3 3d 05 b5 9f bd 6f a4 bf 3a
       0.11178716 0.11132716 -0.077981986 0.0014621149
000380 33 de 9f bd 6c e3 13 be 3f 1c 3b 3e 37 f9 bd 3d
       -0.07806053 -0.14442223 0.18272494 0.092760496
000390 86 e2 a6 3c 7b 90 a8 3d 9e 41 33 bd 91 d5 b4 bc
       0.020371687 0.082306825 -0.04376375 -0.022074493
0003a0 78 18 b3 3d 42 00 27 3c 3f dd 2b 3d 84 32 80 3c
       0.087449014 0.010192933 0.041959044 0.015649088
0003b0 ef 8e dd bc 4d 88 97 bd b7 3f 10 bd e0 db cc bd
       -0.027045695 -0.07399044 -0.035217013 -0.10002875
0003c0 0f 41 1d be 3a ce 3f 3e 16 5b 32 bd 15 56 82 bd
       -0.15356849 0.18731013 -0.043543898 -0.06364075
0003d0 15 3d e4 bc 79 a8 5c 3c ac 78 91 3d b1 8c 5b 3d
       -0.027861157 0.013467901 0.071030945 0.05360097
0003e0 0e 54 ab bd 32 4d db bc 42 43 22 3e 1a 88 95 bd
       -0.083656415 -0.026770208 0.1584597 -0.0730135
0003f0 1e 71 d3 3c b0 3d e8 bd e6 e4 80 3d 07 40 3d 3d
       0.025810774 -0.11339891 0.06293659 0.04620364

encoder.encoder.0.W_h.weight f4 [64, 64]
000000 1b 42 0d be 24 21 98 3d 5a ea 98 be 70 1f 19 bd
       -0.13794748 0.07428196 -0.29866296 -0.037383497
000010 06 e2 97 bd 78 c9 b5 3d 36 8a 91 bc 1d dd 35 3b
       -0.074161574 0.08876318 -0.0177661 0.0027750202
000020 88 19 97 bd dd e5 89 be b1 b1 20 3e 25 83 5f be
       -0.073779166 -0.26933184 0.15692784 -0.21827371
000030 3b f3 74 3e d5 b2 68 be 8e 65 9d bd 76 b0 ce 3c
       0.2392091 -0.22724469 -0.07685386 0.025230628
000040 22 b0 2c 3e 33 1c 5f 3e 6a 04 19 3d cd 97 62 3e
       0.16864064 0.21788101 0.037357725 0.2212822
000050 16 2b 55 bc d8 36 2f be fa be 31 bd fe f8 2c be
       -0.013010761 -0.17110765 -0.04339502 -0.16891858
000060 1d 39 74 be 9b b6 7a be 71 20 ad 3c 91 a1 ed bd
       -0.23849912 -0.24483721 0.021133633 -0.11603082
000070 7b cf b3 3d fa 35 8d 3e fe c6 45 3e e4 fb 11 3d
       0.08779808 0.27580243 0.19314191 0.035640612
000080 d1 c6 dd bc 30 b6 ac 3e 12 de 3a be 91 90 12 be
       -0.027072342 0.33732748 -0.18248776 -0.1431296
000090 ae ba 65 3e 91 01 0d 3e b8 0f d9 3d e4 28 b4 3d
       0.22434494 0.13770129 0.10598701 0.08796862
0000a0 1b a7 46 3e d4 67 ed bd 3d ee 81 3c 2c d2 0e bd
       0.19399683 -0.11592069 0.015860671 -0.034868404
0000b0 8a fe fe 3c 24 04 0e be 28 21 9c bd 9b 52 ed bd
       0.031127233 -0.13868767 -0.076235116 -0.11588021
0000c0 de 03 62 3e 53 50 3d 3e 25 cd fd bc 1a de c4 bd
       0.22071788 0.18487673 -0.03098161 -0.09612675
0000d0 ab ea 17 be 6c 64 30 3e 16 a0 07 bc 6d 92 9c 3c
       -0.14835612 0.17225808 -0.008277914 0.01911279
0000e0 a1 46 29 3e 18 22 97 3c b5 6b ba 3c 75 9c 3e 3d
       0.16530849 0.018448874 0.022756437 0.046535928
0000f0 1f 7a 08 3d 49 8e ca 3c dc ed 6c be f1 00 34 3e
       0.03331959 0.02472605 -0.23137611 0.17578484
000100 1b 44 d9 3d ac c1 6c bd a2 c0 95 bd fb 87 06 3e
       0.10608693 -0.057801887 -0.073121324 0.1313781
000110 08 b9 8c be 1e 53 04 3d 42 db 89 3d 2c e0 06 be
       -0.27484918 0.03230583 0.06731273 -0.13171452
000120 c4 e9 90 3d 20 f3 29 be 54 b0 d6 bc bf 58 bd 3c
       0.07075837 -0.16596651 -0.026207127 0.023113606
000130 03 f5 ee bc 4c dd 4e be ad 2c 70 3c f9 bd 9a 3d
       -0.029169565 -0.20201606 0.014659089 0.07555766
000140 e8 a9 14 3e bf fb 72 3d 96 0f 0e bd e4 7c 3d be
       0.14517939 0.059322115 -0.034682833 -0.18504673
000150 dc 89 93 3d 5a 62 78 3e 3f 0b e7 3d 0f 02 53 bd
       0.07204029 0.24256268 0.11281442 -0.051515635
000160 42 50 82 bc f1 e1 2a bc 98 e9 6e 3d 35 16 48 3d
       -0.01590741 -0.010429845 0.05832824 0.048849303
000170 17 45 b8 39 84 17 b1 bc d2 7f 1f bb c8 b2 36 3d
       0.0003514669 -0.021617658 -0.0024337661 0.044604093
000180 04 f6 29 3e f0 5f eb 3d 17 ce db 3e 4d 18 d8 3a
       0.16597754 0.11492908 0.42930672 0.0016486734
000190 25 a5 eb bb 64 78 bd bb 5e 17 5e bc ba f7 99 bd
       -0.0071913176 -0.005782174 -0.013555376 -0.07517953
0001a0 b1 fa 10 3e 3a b6 26 bd c7 84 db 3d 49 a3 0b be
       0.14158131 -0.04070113 0.10718685 -0.13636507
0001b0 25 b4 5a 3d fd 15 ff bd 29 e9 1e be 30 e1 3a bd
       0.053394455 -0.12455366 -0.15518631 -0.04562491
0001c0 96 31 21 bb 6b a0 80 be 51 8f 86 3c 1e fe 77 bd
       -0.0024596206 -0.2512239 0.01642576 -0.06054508
0001d0 19 4d 80 3d 8c 5c 7e 3e 29 02 16 3e f3 30 d7 bd
       0.06264705 0.24839991 0.14649262 -0.10507383
0001e0 47 a2 6e 3d 66 c2 71 ba a9 ce af be 69 c0 eb bc
       0.05826023 -0.0009222388 -0.34337357 -0.028778272
0001f0 b1 0a 10 be c0 1d 94 3d 1e 5f b5 3d fa ba f4 bd
       -0.14066578 0.07232237 0.08856033 -0.119497254
000200 90 d5 19 bd 29 b2 a6 bd 3a 95 27 be 2d 3f 9c 3e
       -0.037557185 -0.0813945 -0.16365519 0.3051695
000210 73 95 01 bc b8 4e 1a 3c 5b 7a a2 3e b4 0d a3 bd
       -0.007909167 0.009418182 0.31733975 -0.07961598
000220 d7 af a0 be 5e 31 53 bd 04 4d 85 3d a3 a5 5d be
       -0.31384155 -0.051560752 0.0650883 -0.21645217
000230 e2 95 14 be 1d 44 ba bd 9a e5 0b 3d 04 d9 9f 3c
       -0.14510301 -0.09095023 0.034154512 0.01951266
000240 1c b2 09 be 70 83 57 be ba 1f 8b 3b 50 e9 11 3d
       -0.1344685 -0.21046233 0.0042457255 0.035622895
000250 14 71 7a 3e 51 c4 22 3c b8 39 98 bc 24 df 31 3e
       0.24457198 0.009934501 -0.01858221 0.17370278
000260 61 2f 8e be 83 49 90 bd 08 59 b0 3d ed 04 2e 3d
       -0.27770522 -0.07045271 0.08610731 0.042485166
000270 45 7d 08 3e c3 36 0c 3e 19 34 67 3c 30 5d 03 3c
       0.13329037 0.13692765 0.014111542 0.008017823
000280 11 ee 06 3e 7c fe ad 3d 50 3d 3c 3e b5 78 bf bd
       0.13176753 0.08495805 0.18382764 -0.09349195
000290 1a 43 3c bd 79 dc 86 be 4c 96 df bd e0 3c 1a be
       -0.04596243 -0.26340082 -0.10917339 -0.15062284
0002a0 64 d4 80 bd a7 96 ef bc 7a ba a4 3a 86 8e ca 3d
       -0.0629051 -0.029246641 0.0012567781 0.098904654
0002b0 e3 ef 1b be a2 13 f4 3e ae e6 72 3e a6 cb 4b 3e
       -0.15228228 0.4767123 0.2372081 0.19901904
0002c0 d1 ca 96 3d 01 bf 12 3b e5 bd 76 3e b4 c3 10 3d
       0.07362903 0.002239168 0.24095877 0.035342887
0002d0 bc bd 24 3e cd fd f4 3c 71 f8 45 be 25 01 94 bd
       0.16088003 0.029906178 -0.19333054 -0.07226781
0002e0 2a a8 e4 bd 77 ea 42 3e 62 cb d8 bc 82 5f 70 3c
       -0.11164887 0.19034754 -0.026464168 0.014671208
0002f0 87 f3 44 bc 58 8a 0f 3e c2 76 1b 3e 33 cc b2 3d
       -0.012020952 0.14017618 0.15182021 0.08730354
000300 b0 a9 80 3d 86 ad 0a 3e 98 0d 2e be 11 de 73 bd
       0.06282365 0.13542756 -0.16997373 -0.05953795
000310 5a 46 12 3e 7d 36 5c 3c 56 c0 98 bd c9 f1 4b be
       0.1428465 0.013440725 -0.0745856 -0.19916452
000320 8f 4f 57 bc f5 6b 91 bc 29 9c f9 bd 9e ac 55 3d
       -0.013141527 -0.017751673 -0.12187988 0.052166574
000330 e2 4d 4c bd 2d 8f d5 be 9d f5 29 be 1b 82 f4 bd
       -0.049878962 -0.41710797 -0.165976 -0.11938878
000340 f6 1c 6d be f4 0a b9 bd 70 eb 2a 3e 1c 77 27 be
       -0.23155579 -0.09035292 0.16691375 -0.1635403
000350 24 4e 02 bd 1b 83 aa 3d 45 6a 60 bd 56 ef b2 bd
       -0.031812802 0.08325788 -0.054788847 -0.08737056
000360 ee db 9f 3e 23 8e 22 3d bd a8 85 bc e0 54 7e bd
       0.3122248 0.039686333 -0.016315812 -0.06209266
000370 40 29 96 be fd 75 5b be 78 47 ab bc 98 ce db 3c
       -0.29328346 -0.21431728 -0.020908102 0.02683191
000380 48 89 3a 3d f1 12 1d be 12 d1 d4 bd 3f 2b 68 bd
       0.045541078 -0.15339257 -0.103914395 -0.056681868
000390 48 d6 59 3d 9b c0 1b bd eb b0 1f be bf ff 9f 3d
       0.05318287 -0.03802548 -0.15594833 0.078124516
0003a0 33 7f ac 3e a7 60 bb 3c e7 2f 23 3e af ff 77 3d
       0.33690795 0.022873236 0.15936242 0.060546573
0003b0 0e 52 26 bb a4 49 12 bd 75 17 9f bd bd c2 3e be
       -0.0025378498 -0.03571476 -0.07768146 -0.18628974
0003c0 80 bd 10 be 0e 31 5e 3d 55 80 89 be 71 27 39 be
       -0.14134789 0.054246 -0.26855722 -0.18081452
0003d0 81 88 3b be b5 0c 2c 3d 30 b1 11 be 95 cb 54 bd
       -0.18313791 0.042004306 -0.14227748 -0.051951963
0003e0 f0 f0 83 bc 7f 4f 36 be 27 20 43 bb e6 74 3c bd
       -0.016106099 -0.17803763 -0.0029773803 -0.04600992
0003f0 44 c3 35 bd 07 b1 2f bd e2 85 53 3a 39 82 44 bd
       -0.044375673 -0.042893436 0.00080689613 -0.047975753

encoder.encoder.0.W_o.weight f4 [64, 197]
000000 e9 fa 19 be 3b 0f 82 bd 4c 93 a3 3c 18 37 b9 bd
       -0.15037121 -0.06350561 0.019967698 -0.090437114
000010 12 45 9a bd 63 08 51 be ad 96 d0 bd d3 8a d2 3b
       -0.07532705 -0.20413356 -0.10184989 0.0064252405
000020 e2 fd 1f 3e 66 ce 96 3c 68 74 8e 3d 54 d1 d1 bd
       0.15624192 0.018408965 0.069557965 -0.10245004
000030 a3 0d a2 bd fe 8c 28 be 26 a8 0d 3d 69 d9 b7 bd
       -0.07912757 -0.16460034 0.034584187 -0.089770146
000040 80 ed be bc c5 9d dc bd 36 5a 92 bd 34 da ed bc
       -0.023306608 -0.1077228 -0.071461126 -0.029034711
000050 a2 d4 fd bc 56 cc 55 bd 5c b9 3a bd ea e2 6d 3d
       -0.03098518 -0.052196823 -0.04558693 0.05807773
000060 4c b3 0d 3e 5f 47 cf bd 9c ca 5b 3d 5f 99 e3 3d
       0.13837928 -0.10121035 0.05366002 0.111132376
000070 bf bf 17 be 16 3e 6a bd be de 8e 3d 1a 7d b5 3d
       -0.14819239 -0.057188116 0.069760785 0.08861752
000080 b9 dc 8c bc fa ea 1a bd 62 9c 7c bd 4e 31 ab 3d
       -0.017195093 -0.037821747 -0.061672576 0.083590135
000090 3e 74 07 bd 73 a1 e1 bc b9 5f 7f 3d 25 eb b7 bd
       -0.03306984 -0.027542805 0.062347148 -0.08980397
0000a0 53 33 bb bc 71 bc 68 bd 3e 16 41 bb 1e c0 9f bd
       -0.022851622 -0.056820337 -0.002946272 -0.07800315
0000b0 43 18 ff bc 76 2a a2 3d 61 cf 17 bc 4c 99 0e be
       -0.031139499 0.07918255 -0.009265752 -0.13925666
0000c0 71 03 00 3e 2a dd 94 bd 90 5b 1b bd fb 06 e3 bd
       0.12501313 -0.07268746 -0.037929118 -0.11085316
0000d0 38 9f 25 be 5b d6 a6 b9 32 89 bd 3d 4d a4 68 3e
       -0.16174018 -0.00031821695 0.092546836 0.22718926
0000e0 d0 d4 6d bd ba e2 77 3a b9 ff 09 3d 69 b0 40 bd
       -0.058064282 0.0009456087 0.03369114 -0.047043238
0000f0 e0 3a df bd 32 75 cf bd 20 88 96 3c 61 9b 09 bd
       -0.108999014 -0.10129775 0.018375456 -0.033595446
000100 1a 04 bc 3d 20 2b 17 bd a9 3d 2b be b1 76 42 bc
       0.0918047 -0.03690636 -0.1672274 -0.011869119
000110 e9 31 3b bd 91 9b 84 bc 48 5c 70 ba c5 c1 9b bd
       -0.045701895 -0.016187461 -0.00091690244 -0.07605318
000120 58 c1 b2 bd 28 56 3a 3d b4 59 df bb 26 5c 39 3e
       -0.08728284 0.04549232 -0.0068161134 0.18101558
000130 6f 65 36 3e 95 36 0e be b2 3a 94 bd e8 97 86 3c
       0.17812131 -0.13888009 -0.07237758 0.016429856
000140 a5 3a 09 be e7 06 0e 3d b7 4c 77 3b 61 e3 09 3d
       -0.13401277 0.03467455 0.0037734935 0.03366411
000150 a5 da 06 3e 7b 57 18 3b b1 3e e8 3c 2c 2a 98 3d
       0.13169344 0.0023245502 0.028350206 0.07429919
000160 01 31 46 3d f3 f1 14 bc 51 e0 14 bc 66 b2 db 3c
       0.048386578 -0.009090888 -0.009086684 0.026818465
000170 d3 7b c7 3c 55 c3 32 bd e5 c1 e6 bd 67 e9 8e 3d
       0.024351036 -0.043643314 -0.11267451 0.06978112
000180 90 bf 9f bd 1f f8 6c bd 36 ad f5 bd bc 18 e2 bb
       -0.078002095 -0.057853814 -0.11995928 -0.006899921
000190 73 4d cc 3d 31 21 c0 bc d4 69 82 3b 5c d3 b2 be
       0.0997571 -0.023453327 0.003979901 -0.3492688
0001a0 cd 9a a7 bd c0 26 a7 3d 51 69 3e 3d 37 a9 ea bd
       -0.08183823 0.08161688 0.046487156 -0.114580564
0001b0 e5 4a 5c 3e 0c b0 41 3e 4e df 22 bd 87 ee b4 3c
       0.21512945 0.18914813 -0.03976374 0.022086395
0001c0 63 9b c8 3d ac b3 c9 3c 51 90 da bd c7 99 59 3d
       0.09795263 0.024621807 -0.106720574 0.05312517
0001d0 de 42 2e 3e 8e 2a ac 3c cf 05 f1 3c b1 63 3f be
       0.17017695 0.021016385 0.029421715 -0.18690373
0001e0 d8 d0 36 bd 02 3b 32 bd 76 cc 04 be 44 63 4e 3d
       -0.044632763 -0.043513305 -0.1296862 0.050387636
0001f0 b1 c6 a3 3d a8 34 e6 bd 3a 73 e6 3d 67 5b 47 bd
       0.07996882 -0.11240512 0.112524465 -0.048671152
000200 2d de c8 bd 85 e4 0a 3e 25 67 61 3d cf 51 9e 3d
       -0.09808002 0.13563736 0.055030007 0.077304475
000210 8a 6c d5 bd 80 b5 ab 3d 1c 15 98 3c 72 70 f4 bd
       -0.10421093 0.08384228 0.018564753 -0.1193551
000220 cd 81 88 be 3f 54 ea 3c be 64 30 be c0 ea ce 3d
       -0.2666153 0.028604625 -0.1722593 0.10103369
000230 0b 3c 83 be bc 6e c9 bd 4b ca f9 3d 38 28 f1 bd
       -0.25631747 -0.09835574 0.121967874 -0.11775249
000240 d5 4b 18 be 31 5a aa 3a 4a 03 9e bd 29 28 95 bd
       -0.14872678 0.001299685 -0.07715471 -0.072830506
000250 88 02 08 3e 86 63 8d 3d 7c 6e ae 3d e4 12 07 be
       0.13282216 0.06903748 0.08517167 -0.131908
000260 f2 92 ee bd 38 de eb bd c1 76 f7 3d 19 67 92 bd
       -0.11649121 -0.11516994 0.120831974 -0.071485706
000270 15 9a 93 bd da 39 8f 3d ea cf 00 be a9 1c 90 be
       -0.07207123 0.06993456 -0.12579313 -0.28146866
000280 cb 75 92 3d 5a 49 80 bd 28 7b d0 3d cc d3 1e bd
       0.071513735 -0.06263991 0.1017974 -0.038776204
000290 2f f1 5a 3d e1 56 b4 ba 84 1b bf bd 87 8b 72 3e
       0.053452667 -0.0013758802 -0.0933142 0.23686038
0002a0 d5 ee bd bd e3 c7 ae bd 0c 07 5c 3d 6b 9b 5e 3d
       -0.09274069 -0.08534219 0.053717658 0.054347437
0002b0 5e b7 43 be ee e8 8e bd bc d3 aa 3d 84 1f bd bb
       -0.19112918 -0.069780216 0.083411664 -0.005771579
0002c0 ca 8d 49 bd ca d6 62 bc 97 1b 28 be 0a a7 0d 3d
       -0.049207486 -0.013845155 -0.16416775 0.03458313
0002d0 7f 07 8a 3e 2b 06 15 be 77 30 d4 3d 36 21 3b 3e
       0.26958844 -0.14553134 0.103608064 0.18274388
0002e0 7e 2c 03 be 24 2e fb bd a9 7d 2f 3d a2 da a2 bd
       -0.12809941 -0.1226466 0.04284445 -0.07951857
0002f0 c1 9b c6 3d e7 21 b4 bd 96 20 85 3b 05 71 eb 3d
       0.096976765 -0.08795529 0.0040627224 0.11496166
000300 04 0f 43 3d 54 8d 05 bd 3d 56 a9 3c 48 56 1d 3e
       0.047621742 -0.032605484 0.020671004 0.15364945
000310 70 39 ec bb 9a 35 17 3d 6a 25 92 3d aa 94 a2 bd
       -0.0072089955 0.036916353 0.071360424 -0.07938512
000320 ce 33 80 3d ff 01 34 3c e3 9b c2 3d 0b ae 87 3c
       0.06259881 0.010986804 0.09502389 0.016562482
000330 c5 37 44 3d d0 4d 17 3e f6 2a 0b bd 70 b2 33 bd
       0.04790475 0.14775777 -0.033976518 -0.043871343
000340 4b 91 58 bd b3 b3 66 3e 4b 5e 4d 3d d9 fa c0 3d
       -0.052872937 0.22529487 0.050138753 0.094228454
000350 15 0a 12 3e 1a 21 49 3d fc 57 0a be 1b ab ae 3d
       0.14261658 0.049103834 -0.13510126 0.085287295
000360 69 c2 0f 3c 58 96 34 be ff 3f 8d 3d c6 be 76 bd
       0.008774378 -0.17635477 0.06896972 -0.06024053
000370 ce 0a 9d bd 21 c4 5b 3d 54 53 f3 3c 11 69 33 3d
       -0.076680765 0.05365384 0.02970282 0.04380137
000380 61 59 07 be d7 2b 1d 3d 08 a6 98 3d 0b c6 e3 3c
       -0.13217689 0.038371887 0.07453543 0.027804395
000390 80 c6 09 3d d3 2b 6c 3d 41 ba 09 3c 4a 97 c4 bd
       0.03363657 0.05765898 0.008406223 -0.095991686
0003a0 39 55 8f 3c 21 10 a7 3c c4 7f 83 3d 65 eb f9 3c
       0.017496692 0.020393433 0.06420854 0.030507753
0003b0 f2 c3 21 be 50 b1 05 3e cf 78 03 3e 92 c3 00 be
       -0.15797403 0.1305592 0.12839054 -0.12574604
0003c0 cf 72 a8 bc 46 ce 89 bd 0e a9 d6 3c 8b 63 83 bc
       -0.020562558 -0.06728797 0.026203658 -0.016038677
0003d0 8f 26 95 3d 80 ac 6e 3d 50 3c 36 be ff 05 c6 bd
       0.07282745 0.058269978 -0.17796445 -0.096691124
0003e0 c7 92 08 bd d1 73 66 be ad 8e 02 3d d9 f8 59 bd
       -0.033343103 -0.22505118 0.031874347 -0.053215835
0003f0 e2 e1 6a 3d 17 7d 94 3d 01 95 8e bd b2 c3 a7 bc
       0.057344325 0.072504215 -0.06962014 -0.020479057

encoder.encoder.0.W_o.bias f4 [64]
000000 26 ee 9c bb c9 a0 18 bc 02 a4 a9 bc 39 8f 3b 3c
       -0.0047891317 -0.009315678 -0.020708088 0.011447721
000010 e1 61 45 3c 44 76 d1 bc ee eb 8e bb 55 96 57 bc
       0.012047262 -0.025569089 -0.004361621 -0.013158401
000020 65 d2 60 3c f7 66 b8 bc b8 63 cb bc 9d d9 1d 3c
       0.013722037 -0.022510035 -0.024827823 0.009634403
000030 bd e9 5e 3c 47 6f 9e bc dd e5 ef bb 6f 71 36 bd
       0.013605532 -0.01934017 -0.007321103 -0.044541772
000040 7a 96 4c 3c 74 97 4f 3c 88 c2 65 bc 8d 86 95 bc
       0.012487048 0.012670387 -0.014023431 -0.018252635
000050 d5 fa ab bb 8b bc 6d 3c 33 92 86 bc 80 76 92 bc
       -0.0052484074 0.014510284 -0.016427135 -0.01787877
000060 95 5b 02 bc 85 83 73 3b 39 10 71 3a f3 87 f5 ba
       -0.007956405 0.003715725 0.0009195838 -0.0018732533
000070 8f b6 11 ba 0f de f4 bb 54 40 e9 3c 18 93 d5 bb
       -0.00055585144 -0.0074727605 0.028473057 -0.006517779
000080 51 fa c5 bb fa 4a 01 bd 58 fc 19 3d ac 51 05 bc
       -0.006041803 -0.031565644 0.03759417 -0.008137148
000090 c2 b1 fe bc cc 4a 99 3c 4c 5a 57 3c 52 b9 4b 3c
       -0.03109062 0.018712424 0.013144087 0.0124343205
0000a0 02 2c ec bb 18 8e 3d bc 59 fd 43 bb 6e b8 8d 3c
       -0.0072073946 -0.011569522 -0.0029905646 0.017299857
0000b0 69 d1 05 bd 80 83 0d bd c9 3c f5 bb 0a b4 d1 ba
       -0.032670412 -0.034549236 -0.007484053 -0.001599909
0000c0 c4 b5 b8 bc d4 7a 8a bb 88 c2 22 3d d5 33 74 bb
       -0.02254761 -0.004226068 0.0397363 -0.003726234
0000d0 3c 07 3d 3a 97 2c c7 bc de 9f b5 b9 8f aa 3d bb
       0.0007210856 -0.024313254 -0.0003464212 -0.0028940772
0000e0 39 46 de bc 95 97 a7 bc 39 24 0a bc 02 b8 67 3c
       -0.027133094 -0.020458022 -0.008431488 0.014142992
0000f0 45 22 03 3c 86 c4 82 3c 0c df eb bc 3b 61 86 bc
       0.008003776 0.01596285 -0.02879288 -0.016403785

ffn.1.weight f4 [64, 64]
000000 33 48 57 be fd 89 86 3e a5 81 81 be d8 b8 23 3e
       -0.21023636 0.26277152 -0.25294223 0.15988481
000010 ac 42 88 3d 61 4a c0 bd 57 4a fd 3c 1f b7 0c be
       0.06653342 -0.09389187 0.030919237 -0.1374173
000020 eb fc 03 bd 8f 88 aa bd 00 ec 0d bc 5c 2f 27 3e
       -0.032223623 -0.08326828 -0.008662224 0.1632666
000030 c4 13 49 3e 56 22 00 3d f6 55 a7 3d 60 e1 9d be
       0.19636446 0.031282745 0.081706926 -0.3083601
000040 3c 04 57 be a8 61 0f 3c f3 67 8c 3d 01 6a 3e 3d
       -0.20997709 0.00875131 0.06855764 0.046487812
000050 fd 28 0d 3e a4 7b 9a be 80 ce 8b be 0d 74 92 bc
       0.13785167 -0.30172455 -0.27305984 -0.017877603
000060 32 50 8a 3e 72 7f a7 3e 43 fb 93 3e 8e 96 c2 bd
       0.2701431 0.3271442 0.28902635 -0.09501372
000070 25 1b 88 3d fc c5 6a 3d c9 fc 24 be 98 f7 9c 3c
       0.066458024 0.05731772 -0.16112055 0.01916103
000080 9f bf b6 3d eb d0 41 be 9f e6 0a 3e cb 37 f5 bd
       0.089232676 -0.18927352 0.13564537 -0.11973532
000090 90 ee 88 3d 8d 20 f2 3c f7 93 af bd 27 2f bd bd
       0.06686127 0.029556537 -0.08573144 -0.09237509
0000a0 7d fe 89 3d a5 6a 29 3e d0 61 44 3d ec b7 2a be
       0.06737993 0.16544588 0.047944844 -0.16671723
0000b0 39 93 08 be b0 ae 39 3e 9a c0 9c 3e 16 1a 38 3e
       -0.13337411 0.18133044 0.30615693 0.17978701
0000c0 36 d5 0d be 37 c9 49 be 76 6e 9d 3d 66 07 59 3d
       -0.13850865 -0.19705664 0.076870844 0.05298557
0000d0 55 81 d6 3c 62 c7 94 bd e3 79 07 bc 42 59 86 bd
       0.026184717 -0.07264592 -0.008268806 -0.06559993
0000e0 c0 c1 32 be 3e 3d 1f be f2 4f 91 3d 1d b3 9b 3e
       -0.17456722 -0.15550706 0.070953265 0.3041009
0000f0 1d 5f b9 be 53 ad 1b 3d 05 4d ca 3d 75 27 43 bd
       -0.36205378 0.03800709 0.098779716 -0.04764505
000100 a3 43 d0 bd ce c7 b3 3d b4 52 4f 3d 2d 65 11 bd
       -0.10169151 0.08778344 0.05061598 -0.03549688
000110 64 65 1d 3e 2c 65 e2 bb 96 76 e8 bd eb f9 d2 3b
       0.15370709 -0.0069090333 -0.113507435 0.006438484
000120 c4 23 24 be 26 c6 10 3e c8 53 11 bc e0 0a 87 3d
       -0.16029269 0.14138088 -0.008870073 0.06593871
000130 0b e2 9a bd a0 11 a0 3d 74 c3 0e be c6 10 ba 3c
       -0.075626455 0.07815862 -0.13941747 0.022713076
000140 ef 86 85 bc 0d c0 19 bd 26 98 c2 3b 95 c4 2d be
       -0.016299693 -0.03753667 0.0059385477 -0.16969521
000150 ac ba 1d 3d 71 47 94 bd 18 42 8e 3d 48 23 fb bc
       0.038508102 -0.07240189 0.069462 -0.030656472
000160 92 85 f2 bd 28 37 2f 3e 74 7a 92 3b ef 9d 3b 3c
       -0.11841883 0.17110884 0.004470164 0.0114512285
000170 26 ac 70 bd a9 3c 32 3d 6f c7 b0 bd f0 a6 47 be
       -0.058757924 0.04351488 -0.08631789 -0.19497275
000180 19 71 9d bd a8 9c 22 be 7a 75 8f bd 43 c8 5e 3e
       -0.07687587 -0.15880072 -0.07004829 0.21756081
000190 fb 85 b8 3c fc 3f 87 bd fe a8 5b 3d 91 49 30 3d
       0.022524824 -0.06604001 0.05362796 0.04303891
0001a0 bd 6e 47 bd 56 6e 0a 3e 4a e6 33 bd 28 06 f0 bc
       -0.048689593 0.13518652 -0.043920793 -0.02929981
0001b0 59 a8 26 be b9 a2 63 3e df be 7c 3d 85 1c 4d be
       -0.16275157 0.22230043 0.061705466 -0.2003041
0001c0 fb 91 9b 3e 9b 71 51 3e 88 9d fb bd 60 97 30 be
       0.30384812 0.20453493 -0.12285906 -0.17245245
0001d0 ec be 64 be 28 e7 13 bc 6e b2 4e be d2 43 93 3d
       -0.22338456 -0.00902728 -0.20185253 0.0719067
0001e0 bc 2d 55 3e 88 b4 90 3c 5d 6a 0f 3d 17 d0 76 bd
       0.20818228 0.017664209 0.035013545 -0.060257044
0001f0 00 ae bd 3d 5c 03 83 3d 69 1c 1a be 85 59 8e be
       0.092617035 0.06397125 -0.150499 -0.27802673
000200 49 9d c9 3d 47 32 c9 bd 48 eb 6d 3e ff ce 3a 3d
       0.09844453 -0.09824043 0.23234284 0.045607563
000210 0c e0 b4 bd 53 53 c0 bd 2e 65 ae 3b b7 c3 8f 3d
       -0.08831796 -0.09390893 0.00532212 0.070197515
000220 84 31 bb 3e e0 89 2e 3e 6d 7d fc 3b 7d e6 04 be
       0.36561215 0.17044783 0.0077053816 -0.1297855
000230 69 4a a3 3c 40 f0 42 bc dc b0 ed bd 53 02 fb 3c
       0.019932942 -0.0118981 -0.11605999 0.030640757
000240 43 31 8b 3e 64 cf 47 3d 9f f4 f8 bb e4 e3 70 bb
       0.2718602 0.048781767 -0.0075975205 -0.0036756927
000250 b1 a0 85 3e a6 37 23 3d 23 1d 8f 3e e5 b1 62 3d
       0.2609916 0.039847992 0.27951917 0.055345435
000260 8e 7a 44 be be 5a a7 bc d4 4d cc bb a9 4d 2a 3e
       -0.19187376 -0.020429011 -0.006234864 0.16631187
000270 40 5a c0 3d c2 3d 81 3d 9c 17 75 3d 02 eb 28 3e
       0.09392214 0.063106075 0.05983697 0.16495898
000280 9c fe ba bc 0f 73 e9 3b 27 d5 3a 3e 5c 2f b6 bb
       -0.022826485 0.0071243118 0.18245374 -0.005559845
000290 07 e9 73 3b 11 36 04 bd aa 9d 58 bd af 60 8b 3e
       0.0037217753 -0.032278124 -0.052884735 0.272222
0002a0 6a c5 91 3e 80 f2 31 3c 18 d4 b1 bc 89 39 85 3e
       0.28470927 0.010861039 -0.02170758 0.26020458
0002b0 1f ee e5 bc 82 a2 a2 3c d9 be b4 3d 23 d4 09 be
       -0.028067647 0.01985288 0.08825464 -0.1345983
0002c0 7f 12 62 3d 7c 6f 91 3c a1 11 37 be 63 19 52 be
       0.05519342 0.017753355 -0.17877819 -0.20517497
0002d0 e8 85 bd 3d 3c 87 00 3d 5d 0b 57 be dd 25 8b 3d
       0.09254056 0.03137897 -0.21000428 0.06794331
0002e0 9e b2 27 3e 73 7f 9f 3b fc a2 4f 3d 50 9c 8a be
       0.16376731 0.004867488 0.050692543 -0.27072382
0002f0 e2 60 db 3d 48 e4 16 3d 38 e8 c9 3d de 84 2f bd
       0.10711838 0.0368388 0.09858745 -0.04285132
000300 68 92 eb bb a8 6a 59 bd b6 0a 8e 3e ea 58 0b be
       -0.007189084 -0.05308023 0.27742547 -0.13608137
000310 39 fa 33 bc 13 22 13 3e e6 d3 81 3b 9b 5e cb 3d
       -0.010984951 0.14368467 0.003962028 0.09930154
000320 0d 7d c7 3d 53 87 f9 3d 73 dc 3b bd 04 78 ac 3d
       0.097406484 0.12184014 -0.045864534 0.08421329
000330 22 e4 e0 3d 8c d9 a5 3d c9 16 99 bd a3 34 da 3b
       0.10981013 0.080981344 -0.07475049 0.006659107
000340 2e 0c 56 3e f7 48 04 3d 35 52 dd bd 90 f6 d7 bc
       0.20903084 0.032296147 -0.10806695 -0.026362687
000350 db c8 bf bd 55 51 d2 3c 01 1a 0a 3d 05 34 82 bd
       -0.09364482 0.025673548 0.033716206 -0.06357578
000360 a9 ed ce bd b6 a0 6b bc 9f 22 82 3e e4 de 31 3d
       -0.10103924 -0.014381578 0.2541704 0.043425456
000370 89 d5 ee bd c8 5d 22 be 5e 0b 3d 3e 7b 2d 23 be
       -0.11661822 -0.15856087 0.18461367 -0.15935318
000380 2f b3 aa bc 4d 87 70 3e 1a b7 fd 3d f4 ab 5c bd
       -0.020837395 0.23489113 0.123884395 -0.053874925
000390 a7 f9 cc bd d3 2b 8c bc a5 37 34 be 5d ea ec 3d
       -0.10008555 -0.01711074 -0.17599352 0.11568139
0003a0 1b 51 1c 3e d1 4f bc bd cd b3 10 bd 99 08 27 3e
       0.15265314 -0.09194911 -0.03532772 0.16311873
0003b0 88 32 78 3e ca d2 b6 3d 83 c9 a5 be 4e a6 a6 bd
       0.24238026 0.089269236 -0.32380304 -0.08137189
0003c0 52 17 cc 3d d5 c3 e7 3b 52 b0 e1 3c da 8d fb 3d
       0.099653855 0.0070729055 0.027549896 0.122829154
0003d0 42 4f 3a 3d c4 e5 05 3d 8d 35 e0 3d 4d ee 7d be
       0.045485742 0.032689825 0.10947714 -0.24797936
0003e0 12 9e e1 3d 22 17 a3 bd 6d fd 49 bd 37 51 c1 bd
       0.11016478 -0.079633966 -0.04931395 -0.094393186
0003f0 1e 92 b0 bc aa a0 3f be 47 1f 02 3d b3 be d0 bc
       -0.02155405 -0.18713632 0.03176811 -0.025481557

ffn.1.bias f4 [64]
000000 18 7e ce 3d f1 2b 4b ba 1f c5 08 3d bc 38 c1 3c
       0.10082644 -0.0007750383 0.033391114 0.023586623
000010 79 ca b5 3c 09 02 3b 3d 29 39 ac 3c 25 5f 0f 3d
       0.022191273 0.045656238 0.02102335 0.035002846
000020 69 0f 6e 3d b3 f7 40 bc 57 35 24 3d 95 7a 3b 3d
       0.058120165 -0.011777806 0.04008993 0.0457712
000030 0c 46 83 3d 55 29 72 3d 96 97 09 bc 85 ef 44 3d
       0.06409845 0.05912145 -0.008397957 0.048079986
000040 2a 4d 11 3b 49 d0 2e 3c fe 88 46 b9 9b c0 7f 3c
       0.0022171238 0.010669776 -0.00018933785 0.015609886
000050 ea 53 54 3d 40 7a 40 3d ad 74 4c 3d 0c 98 2c 3d
       0.05183784 0.046991587 0.04991596 0.04213719
000060 19 a5 39 3d 07 ef 4b 3d f2 a2 45 3d 78 ca c3 3c
       0.045323465 0.0497885 0.0482511 0.023900256
000070 d4 cf f9 3c 46 07 ff 3c 17 e5 d4 3c 95 c8 81 3d
       0.030494608 0.031131398 0.025988145 0.06337086
000080 1c 49 15 3d ea e9 02 3d 4b a2 89 3d 0a 4d 92 3d
       0.036446676 0.03196136 0.06720408 0.071436
000090 a7 35 c7 3d dc 2c 21 3d 80 d5 5c 3d bc d7 39 3d
       0.0972703 0.03934942 0.053914547 0.045371756
0000a0 72 e5 57 3d 44 26 71 3c 09 5f 4d 3b 04 19 1e bc
       0.05270905 0.014718596 0.0031337163 -0.009649519
0000b0 44 de 0a 3d 0a 3c 1b 3d a6 0d 2f 3d d2 7f 1b bc
       0.033903375 0.037899055 0.042737626 -0.009490924
0000c0 bc a7 8a 3c b7 b1 19 3d 2a f7 36 3d 52 6b 4a 3d
       0.016925685 0.037522998 0.044669308 0.049418755
0000d0 79 6b 90 3c f2 9e 63 3c 36 21 87 3d 89 64 4a 3d
       0.017629372 0.013892876 0.06598131 0.049412284
0000e0 1e ad 0c 3d 26 b9 df 3c 05 75 fc 3c a7 cf 94 3d
       0.034344785 0.027309965 0.030817518 0.07266169
0000f0 6b 06 28 3d 23 9b 74 3d b9 46 be 3c c0 79 a5 3c
       0.041021746 0.059718262 0.023227083 0.020199656

ffn.4.weight f4 [1, 64]
000000 b4 09 29 be df 54 cd 3e a3 87 6d 3d 97 2d 43 3e
       -0.16507608 0.40103814 0.05799068 0.1906036
000010 50 30 52 3e 85 8e 1e be eb 8a 78 be 35 0a 59 be
       0.20526242 -0.15484054 -0.24271743 -0.211953
000020 47 d2 88 bd a4 46 92 bb 83 48 4d 3e dd c1 88 be
       -0.06680732 -0.0044639874 0.20047192 -0.26710406
000030 c4 d7 52 be 4d 27 fb 3d c6 c3 24 be 33 41 e9 bd
       -0.2059012 0.122633554 -0.16090307 -0.11389389
000040 e1 9b aa bd 2e 40 5a be 20 f3 e5 3d 88 11 29 be
       -0.08330513 -0.21313545 0.11228013 -0.16510594
000050 6c 91 46 3e 6e b6 4b be 8e 8f a1 be 0d bb 10 3e
       0.19391412 -0.1989381 -0.31554836 0.14133854
000060 c4 e2 47 be ad 94 b1 be b0 ff 6f be df 72 8a be
       -0.19520098 -0.34683743 -0.23437381 -0.27040765
000070 74 1a 86 3d ca 40 f0 3d dc d0 88 3e 9a 5b 34 3e
       0.06548014 0.117311075 0.26721847 0.17613068
000080 87 91 19 be 90 d2 3a be 91 fc 46 be e1 7d 8c be
       -0.1499692 -0.18244386 -0.19432284 -0.27439788
000090 68 87 1b be b6 87 32 be 89 32 08 3e 46 2c c0 bd
       -0.15188372 -0.17434582 0.13300528 -0.093834445
0000a0 ed 37 b1 3e 5f 80 68 3e 0d 02 a3 3d bf 6b 17 3e
       0.3461298 0.2270522 0.079593755 0.14787196
0000b0 47 05 c6 bd 70 7e e5 bd 71 7b 33 3e 60 42 07 3e
       -0.09668975 -0.11205757 0.17527558 0.13208914
0000c0 6b af 13 3f 68 2e 78 3e df 81 8d be 89 69 a2 be
       0.5768954 0.24236453 -0.27638146 -0.31721142
0000d0 b8 ef 2b 3e 03 b6 ae 3e 32 f3 0c 3e f3 be 83 be
       0.16790664 0.3412324 0.13764647 -0.2573162
0000e0 5e f3 dd 3d 6e 06 41 3e dd b3 7e 3e 87 b3 18 be
       0.10837434 0.18850109 0.248733 -0.14912234
0000f0 81 7d c9 bd d2 dd df 3d 75 30 36 be 90 17 6d 3e
       -0.09838391 0.10930981 -0.17791922 0.2315352
